mwo/models/trained_vfa_models/model_hypothetical_adp_65_greedy_104.pth (torch_old, 23388 bytes, 9 tensors)

weight f4 [40, 25]
-0.1816846 -0.08101603 0.55115 0.13100833 0.25851482 -0.21072291 0.10326031 0.08953639
0.40247077 -0.14846745 0.21357374 -0.20140003 0.36808145 0.044520386 -0.021917032 0.28207305
0.4304746 -0.33888018 0.45442384 -0.6938268 0.46634835 0.026029624 -0.2973628 -0.2477117
-0.65051645 0.18239446 0.39914286 0.27097794 0.46905687 0.40402615 -0.19363436 0.32154408
0.24452892 0.5589 -0.27801362 0.3962001 -0.036164474 0.26948327 0.3185612 0.08855003
0.5125943 0.4868944 -0.09351402 0.49974748 -0.60117525 0.58312184 -0.004430588 0.014059336
-0.5669866 -0.62206185 -1.2659761 -1.6890652 0.8506744 0.33761787 0.3916408 0.14386274
0.49879658 -0.12186659 0.54069304 -0.519443 0.83110094 -0.18987586 -0.84287226 -1.3336428
-0.7055753 -0.5759813 -0.61076194 0.5921198 -0.36163047 -0.19850124 -0.048182838 -0.11504474
-0.820671 0.08999839 -1.6048576 -0.46481788 -0.331632 0.10964662 -0.14121243 0.28731465
-0.34757093 0.3094515 0.18856095 0.31226394 0.12621883 0.04046782 0.18800616 0.09009191
-0.43459573 -0.37180617 0.28785837 -0.14836864 -0.10061648 0.17865445 -0.17105217 0.22487223
-0.4132583 -0.5831014 -0.3618521 -0.697937 0.110955544 0.14543138 0.5589906 0.4729173
0.62864906 0.2386515 0.54324967 0.0068949377 0.47057632 0.07255902 0.608609 0.20856644
0.3612614 0.33382303 0.3761278 0.41543368 0.5176242 0.0009277217 0.4305894 -0.4013541
0.5255552 0.05380398 0.36461818 -0.21073833 -0.9919658 -1.658959 -1.6634545 0.6414344
0.34432924 0.32729957 0.47692212 0.2509843 0.46521702 0.25311458 0.45756888 0.6176127
0.584298 -0.8200639 -1.0499802 -0.91080976 -0.2940524 -0.5560291 0.26665893 -0.25787088
-0.27837545 -0.32135484 0.22380018 -0.901429 0.23520559 -1.7867088 0.14776047 0.22989722
0.34530857 0.17503501 0.5523352 0.09172033 0.38941512 0.5584948 0.6406299 0.40667143
0.49620348 0.33522046 0.329905 0.54144365 0.18089084 0.31037924 0.46390417 0.034085166
0.121728405 -0.2345414 0.4444385 -0.13573936 0.21853428 -0.33552617 -0.89159846 -1.1249961
-1.8645444 0.91744 0.18603995 0.021660864 -0.13712583 0.32414877 -0.4147825 0.50599617
-0.4637546 0.20578903 0.26460117 -0.82460505 -1.7439091 -0.87373716 -0.928132 -0.2655442
0.22030951 0.30889568 -0.07403892 -0.17757234 -0.21564287 -0.54613215 0.41102833 -1.5529575
-0.33514658 0.360109 0.44130462 0.08149352 0.4509006 -0.47652495 0.16612065 -0.54908276
0.4121515 -0.95840555 0.13300113 -0.2817153 -0.021375608 0.14922446 -0.102076136 -0.12800264
0.33819294 0.1271829 0.502784 -0.446282 0.2436278 -0.40402845 -0.21016936 -0.49751556
-0.668246 0.30172262 0.110676855 0.36964437 0.43807307 0.31828842 0.30725566 0.40540224
-0.18314013 0.54998004 0.06408456 0.28885412 0.05527206 0.34409934 0.5726672 0.40498784
0.6000835 0.4827554 -0.021323439 0.44929904 -0.6322312 0.6294086 -0.22405174 0.17756619
-0.38187575 -0.6968654 -1.7239846 -1.8520743 0.64478016 0.4134961 0.48145148 0.5846098
00000000: 870b 3abe bbeb a5bd 2b18 0d3f 0c27 063e
00000010: 0e5c 843e bfc7 57be 247a d33d db5e b73d
00000020: a610 ce3e da07 18be 13b3 5a3e cf3b 4ebe
00000030: 2c75 bc3e 025b 363d 598b b3bc e16b 903e
00000040: 2b67 dc3e b481 adbe 3eaa e83e a29e 31bf
00000050: 36c5 ee3e 143c d53c f03f 98be 23a8 7dbe
00000060: 3f88 26bf 9dc5 3a3e 745c cc3e 9fbd 8a3e
00000070: 3928 f03e 84dc ce3e 1648 46be 6da1 a43e
00000080: ca65 7a3e 1214 0f3f cd57 8ebe bdda ca3e
00000090: 3321 14bd b6f9 893e 741a a33e b859 b53d
000000a0: 6139 033f 394a f93e 4784 bfbd e7de ff3e
000000b0: 9fe6 19bf 7947 153f 772e 91bb 2159 663c
000000c0: 0926 11bf 723f 1fbf 810b a2bf 4a33 d8bf
000000d0: ccc5 593f 40dc ac3e 2585 c83e c150 133e
000000e0: 4462 ff3e 3195 f9bd dc6a 0a3f 37fa 04bf
000000f0: 08c3 543f d16e 42be 7ac6 57bf cfb4 aabf
00000100: 95a0 34bf 8373 13bf e55a 1cbf 2a95 173f
00000110: a127 b9be e943 4bbe 5e5b 45bd 949c ebbd
00000120: 7f17 52bf 1351 b83d f96b cdbf 9cfc edbe
00000130: abcb a9be 688e e03d fe99 10be e81a 933e
00000140: d1f4 b1be 6d70 9e3e 1f16 413e 0fe1 9f3e
00000150: 823f 013e 96c1 253d b084 403e 1b82 b83d
00000160: 5583 debe 615d bebe 2c62 933e f3ed 17be
00000170: 0310 cebd 31f1 363e 4d28 2fbe e844 663e
00000180: 9896 d3be 2246 15bf ae44 b9be 00ac 32bf
00000190: a93c e33d f7eb 143e 021a 0f3f 3722 f23e
000001a0: 25ef 203f 0f61 743e 6912 0b3f eeee e13b
000001b0: 61ef f03e d399 943d cdcd 1b3f 7192 553e
000001c0: 41f7 b83e daea aa3e d393 c03e b9b3 d43e
000001d0: 0583 043f 5932 733a 3776 dc3e 497e cdbe
000001e0: c98a 063f 9061 5c3d 3caf ba3e cacb 57be
000001f0: 78f1 7dbf c558 d4bf 14ec d4bf 0b35 243f
00000200: ec4b b03e cf93 a73e 232f f43e 0481 803e
00000210: ed30 ee3e 3c98 813e 7846 ea3e de1b 1e3f
00000220: 8e94 153f b5ef 51bf c065 86bf d42a 69bf
00000230: 098e 96be ec57 0ebf 8587 883e a707 84be
00000240: 3a87 8ebe 9f88 a4be e02b 653e 0dc4 66bf
00000250: bcd9 703e e0b2 e4bf 854e 173e 2d6a 6b3e
00000260: 49cc b03e 613c 333e d765 0d3f ded7 bb3d
00000270: 6b61 c73e 84f9 0e3f 5200 243f 3d37 d03e
00000280: 620e fe3e 04a2 ab3e 4fe9 a83e 0d9c 0a3f
00000290: 733b 393e 07ea 9e3e d984 ed3e e39c 0b3d
000002a0: be4c f93d 9f2b 70be 718d e33e 42ff 0abe
000002b0: 73c7 5f3e 16ca abbe cc3f 64bf dfff 8fbf
000002c0: 64a9 eebf 59dd 6a3f 4281 3e3e 2072 b13c
000002d0: b76a 0cbe d4f6 a53e 5f5e d4be f788 013f
000002e0: 3e71 edbe 5cba 523e ce79 873e 5119 53bf
000002f0: 6a38 dfbf 3dad 5fbf 0f9a 6dbf 69f5 87be
00000300: d198 613e 9327 9e3e b8a1 97bd 86d5 35be
00000310: 7cd1 5cbe 51cf 0bbf 4e72 d23e 50c7 c6bf
00000320: 5598 abbe 3560 b83e aef2 e13e 13e6 a63d
00000330: 72dc e63e 14fb f3be 881b 2a3e b090 0cbf
00000340: 8505 d33e 115a 75bf 7331 083e fd3c 90be
00000350: e61b afbc 4cce 183e 4b0d d1bd 2013 03be
00000360: a027 ad3e 3c3c 023e 74b6 003f 137f e4be
00000370: 9179 793e d1dc cebe a336 57be 5cba febe
00000380: 2b12 2bbf 637b 9a3e 8caa e23d 0742 bd3e
00000390: 1d4b e03e b3f6 a23e 9d50 9d3e e290 cf3e
000003a0: 1689 3bbe 7ecb 0c3f c43e 833d b0e4 933e
000003b0: f564 623d ca2d b03e 519a 123f 915a cf3e
000003c0: 129f 193f b72b f73e 7eae aebc 860a e63e
000003d0: e7d9 21bf ec20 213f d26d 65be e9d3 353e
000003e0: 3885 c3be c565 32bf 87ab dcbf c510 edbf
000003f0: 5010 253f c3b5 d33e cf80 f63e fda8 153f

bias f4 [40]
1.4232851 1.3767626 2.241703 1.6175662 0.9187442 2.0509806 1.3871301 2.1367576
1.5140474 0.8647493 2.4428163 1.4117582 1.2735852 1.1082342 1.8370767 1.4725034
1.3342129 0.88851637 1.3348691 1.4997821 1.3306168 2.028704 1.8853029 1.3588902
2.1661131 2.1820679 1.4214131 1.1943005 1.6019905 1.0622009 1.3942372 1.49816
0.83633876 2.1925592 1.3201603 1.2400029 1.3998301 2.2231276 0.8816775 1.5431424
00000000: 352e b63f c239 b03f 1078 0f40 690c cf3f
00000010: d232 6b3f 4443 0340 7b8d b13f a3c0 0840
00000020: 4ecc c13f 3660 5d3f 1a57 1c40 7eb4 b43f
00000030: d704 a33f 9eda 8d3f 5425 eb3f fe7a bc3f
00000040: 7dc7 aa3f cf75 633f fedc aa3f dcf8 bf3f
00000050: a751 aa3f 49d6 0140 9b51 f13f 1df0 ad3f
00000060: 99a1 0a40 00a7 0b40 ddf0 b53f d7de 983f
00000070: 060e cd3f 33f6 873f 5d76 b23f b5c3 bf3f
00000080: 4c1a 563f e452 0c40 03fb a83f 6ab8 9e3f
00000090: a22d b33f b947 0e40 9eb5 613f b185 c53f

weight f4 [30, 40]
0.32501858 0.45767808 1.5294057 0.5647682 0.33596542 1.1698259 0.44341344 1.3632779
0.52622956 0.38154635 1.3795459 0.3039386 0.39277333 0.4419736 1.1869534 0.4235771
0.58969307 0.45217487 0.5286729 0.44020253 0.39017323 1.1264254 1.4148263 0.5929958
1.1576978 1.3808148 0.38276607 0.34425107 0.6233506 0.4126214 0.5527111 0.4030511
0.3390995 1.285033 0.52090335 0.47672623 0.3955625 1.4766139 0.30358562 0.36287954
0.31129718 0.3488355 1.3265076 0.7057719 0.44074434 1.3460029 0.32048038 1.486212
0.49390548 0.5248287 1.529182 0.5522834 0.50153893 0.45293072 1.3656996 0.43583867
0.51831204 0.39300224 0.47743788 0.57070774 0.60354507 1.3537709 1.2171615 0.5567576
1.3084394 1.343081 0.5912942 0.39281234 0.5819508 0.3707929 0.5258815 0.37316847
0.26698118 1.3840399 0.5421474 0.40487126 0.5117182 1.5026833 0.40146145 0.32700184
0.45335087 0.43652225 1.2837598 0.60265386 0.4326858 1.2859886 0.24115519 1.259359
0.4175183 0.4591606 1.4764293 0.3293924 0.5583513 0.35213742 1.359871 0.4368627
0.45331764 0.28126663 0.24738622 0.40112895 0.38943833 1.1727314 1.4532337 0.44653806
1.2872403 1.3440787 0.21570526 0.29942518 0.46265787 0.30067995 0.3856505 0.48379672
0.27675205 1.1336969 0.27571347 0.2179389 0.32947367 1.5461148 0.41971505 0.24167831
-0.07150382 -0.08892779 -0.040930435 -0.10375039 -0.110488296 -0.07435835 -0.00679256 -0.15600945
0.13086931 0.10850327 -0.07122693 -0.10113679 -0.15644877 -0.057720028 0.0044356138 0.15545242
-0.06528398 -0.11158264 0.012296379 -0.04321351 -0.049822673 -0.041347325 -0.08716433 0.07841946
-0.1567322 0.09854804 -0.109078914 -0.091587424 0.03961107 -0.124944 0.047049 0.11317177
0.03831707 -0.10066998 -0.014611065 0.092343464 -0.11739449 -0.11790409 0.15707256 0.12503795
-0.766098 -0.5917114 -1.0216863 -1.1846076 -0.122138344 -0.0666612 -0.41761363 -1.2482251
-1.3261157 -0.043363854 -1.3612281 -0.6266626 0.007831283 -0.16623296 0.9839947 -0.73887205
-0.6502265 -0.25305256 -0.3214173 -1.0257215 -1.0878868 1.1582628 0.6930361 -0.36979842
-0.6739298 -0.8972205 -0.9396565 -0.14359227 -0.31280538 -0.22532679 -0.46633887 -1.17755
-0.42966065 -1.3155637 -0.71133417 -0.17928997 -0.2813701 0.8032986 -0.5621023 -1.079699
0.49817297 0.42488465 1.4886594 0.69442415 0.39256543 1.4079965 0.2998992 1.3403656
0.66288596 0.3679214 1.4057047 0.39258516 0.5204722 0.48752978 1.4115896 0.46774036
0.29408026 0.33441377 0.33393183 0.47632563 0.55937034 1.4060534 1.4726645 0.3464805
1.2486734 1.371757 0.48024082 0.55348617 0.45284384 0.4580409 0.30125606 0.4458736
0.2744541 1.2253996 0.27082887 0.39589822 0.24074194 1.380916 0.51243025 0.32354203
0.42421496 0.5164796 1.4101691 0.5108655 0.30622205 1.1694483 0.50069916 1.4278773
0.56289005 0.30012107 1.3551028 0.4255235 0.44496155 0.43554538 1.4463098 0.58774424
00000000: d668 a63e c854 ea3e 91c3 c33f a694 103f
00000010: a903 ac3e dbbc 953f 1607 e33e e47f ae3f
00000020: fbb6 063f 0b5a c33e f694 b03f d79d 9b3e
00000030: 9619 c93e 5d4a e23e 17ee 973f 19df d83e
00000040: 20f6 163f 7783 e73e 1b57 073f 3a62 e13e
00000050: c9c4 c73e b52e 903f 0719 b53f 93ce 173f
00000060: 712f 943f 8abe b03f eaf9 c33e ad41 b03e
00000070: e893 1f3f 1d43 d33e 7a7e 0d3f b75c ce3e
00000080: 739e ad3e f67b a43f ec59 053f 7615 f43e
00000090: 2b87 ca3e af01 bd3f 936f 9b3e 59cb b93e
000000a0: 5862 9f3e 919a b23e 00cb a93f 78ad 343f
000000b0: 3ea9 e13e d349 ac3f 0116 a43e 323c be3f
000000c0: 2ee1 fc3e 2c5b 063f 3cbc c33f 7262 0d3f
000000d0: db64 003f 89e6 e73e 3fcf ae3f 3f26 df3e
000000e0: 19b0 043f 9737 c93e bd72 f43e e719 123f
000000f0: ee81 1a3f 5d48 ad3f f3cb 9b3f ab87 0e3f
00000100: f17a a73f 14ea ab3f 0f5f 173f b31e c93e
00000110: bafa 143f 91d8 bd3e 2ca0 063f f00f bf3e
00000120: c2b1 883e 3828 b13f 2cca 0a3f 494b cf3e
00000130: f7ff 023f ed57 c03f 5b8c cd3e c96c a73e
00000140: 9b1d e83e d87f df3e 3e52 a43f 8647 1a3f
00000150: fe88 dd3e 469b a43f 63f1 763e ad32 a13f
00000160: f5c4 d53e 1917 eb3e a3fb bc3f 1fa6 a83e
00000170: 1cf0 0e3f 5b4b b43e 4110 ae3f 78ac df3e
00000180: 4019 e83e 2e02 903e d052 7d3e c660 cd3e
00000190: 7664 c73e 101c 963f 9003 ba3f a3a0 e43e
000001a0: 4ac4 a43f c50a ac3f d7e1 5c3e 424e 993e
000001b0: 7ee1 ec3e b9f2 993e fb73 c53e 34b4 f73e
000001c0: 72b2 8d3e fb1c 913f 512a 8d3e 602b 5f3e
000001d0: c6b0 a83e 17e7 c53f e4e4 d63e 857a 773e
000001e0: 9870 92bd c61f b6bd aca6 27bd 167b d4bd
000001f0: b047 e2bd 3149 98bd 2094 debb f1c0 1fbe
00000200: 9b02 063e f636 de3d 6ddf 91bd ce20 cfbd
00000210: 1b34 20be d66b 6cbd a058 913b eb2e 1f3e
00000220: 9bb3 85bd 7085 e4bd c076 493c a600 31bd
00000230: dc12 4cbd d05b 29bd 3683 b2bd 629a a03d
00000240: 687e 20be 8ed3 c93d c464 dfbd 3092 bbbd
00000250: 383f 223d a4e2 ffbd 74b6 403d 9ac6 e73d
00000260: 5cf2 1c3d 102c cebd 4063 6fbc 921e bd3d
00000270: 866c f0bd b377 f1bd a1d7 203e f309 003e
00000280: 001f 44bf 667a 17bf 9ec6 82bf 39a1 97bf
00000290: ab23 fabd ab85 88bd 74d1 d5be d7c5 9fbf
000002a0: 29be a9bf 4c9e 31bd b93c aebf f66c 20bf
000002b0: c84e 003c f938 2abe 14e7 7b3f b826 3dbf
000002c0: 3e75 26bf 1b90 81be cf90 a4be d84a 83bf
000002d0: e03f 8bbf f541 943f d06a 313f 3856 bdbe
000002e0: aa86 2cbf 3eb0 65bf 548d 70bf da09 13be
000002f0: 0728 a0be 11bc 66be f8c3 eebe f5b9 96bf
00000300: 7bfc dbbe 6464 a8bf ff19 36bf ca97 37be
00000310: be0f 90be faa4 4d3f f0e5 0fbf 9433 8abf
00000320: 8710 ff3e 7b8a d93e 648c be3f c8c5 313f
00000330: 56fe c83e 3b39 b43f 638c 993e 1a91 ab3f
00000340: e5b2 293f 3260 bc3e 22ee b33f ec00 c93e
00000350: ab3d 053f 819d f93e f8ae b43f aa7b ef3e
00000360: b091 963e 4838 ab3e 1df9 aa3e f4e0 f33e
00000370: e532 0f3f 8ff9 b33f 4580 bc3f e465 b13e
00000380: 88d4 9f3f bc95 af3f 20e2 f53e 45b1 0d3f
00000390: 26db e73e 5684 ea3e 3c3e 9a3e 8b49 e43e
000003a0: 3f85 8c3e e5d9 9c3f 15aa 8a3e 2cb3 ca3e
000003b0: 0e85 763e dbc1 b03f a12e 033f 4da7 a53e
000003c0: b432 d93e 0238 043f 6c80 b43f 15c8 023f
000003d0: 23c9 9c3e 7bb0 953f d22d 003f afc4 b63f
000003e0: 9019 103f 78a9 993e 0274 ad3f 37de d93e
000003f0: 00d2 e33e ceff de3e ae20 b93f 6876 163f

bias f4 [30]
1.776561 1.5798982 1.59171 -0.09084673 -0.14487757 1.5327415 1.5448517 1.5097958
1.4544338 1.5512995 1.6047461 1.7581491 1.6289588 1.7472594 1.6043198 1.7340864
-0.49796298 1.5441372 1.5902439 1.5397185 1.7318962 1.5229161 1.52339 1.6588824
1.4828705 0.9614816 -0.11307601 -0.19739494 1.6306777 -0.061220996
00000000: 5a66 e33f 1b3a ca3f 27bd cb3f da0d babd
00000010: c95a 14be e030 c43f b3bd c53f fd40 c13f
00000020: e32a ba3f fb90 c63f 5268 cd3f 080b e13f
00000030: b981 d03f 32a6 df3f 5a5a cd3f 8bf6 dd3f
00000040: 01f5 febe 4aa6 c53f 1d8d cb3f 7f15 c53f
00000050: c6ae dd3f eaee c23f 72fe c23f 4256 d43f
00000060: b3ce bd3f a823 763f 6594 e7bd e621 4abe
00000070: 0cba d03f dec2 7abd

weight f4 [20, 30]
0.4552847 0.6106172 0.7275951 0.11412385 -1.751116 0.50257915 0.7670124 0.5247307
0.7026702 0.5698407 0.833046 0.4070713 0.4997755 1.3404698 0.6091163 0.7432906
-1.7583698 0.5718613 0.7458033 0.4115719 0.76285225 0.43957976 0.48811796 0.6907985
0.77181906 1.2042278 -0.09332577 -1.6781393 0.6867242 -0.06733756 0.5872287 0.67012715
0.7759818 -0.074939445 -1.7133231 0.7076136 0.8041481 0.5427538 0.7910392 0.7045702
0.9233241 0.5643703 0.53217226 1.4095297 0.69880366 0.5175532 -1.7055242 0.7340065
0.49914154 0.65119314 0.71497774 0.6759958 0.80256575 0.77789605 0.52319497 1.1010221
-0.22175065 -1.7553825 0.48084217 0.1582528 0.7173626 0.6964579 0.8498857 -0.088056296
-1.7926979 0.58918446 0.674573 0.641489 0.5455688 0.5244591 0.72205913 0.6928345
0.70674837 1.4261011 0.7980268 0.6400249 -1.9243695 0.5173401 0.74251044 0.7477657
0.5341495 0.55278623 0.79260725 0.52887946 0.7346878 0.9534879 -0.17506078 -1.4885905
0.6016803 0.034687318 -0.13723454 -0.006274297 -0.16212712 -0.14681438 -0.14735663 -0.07412352
0.09144919 0.12270439 0.10418979 -0.12924547 0.020314373 -0.20833047 0.090665124 0.021251157
0.06367129 -0.005373368 -0.062026303 0.045767345 -0.09730472 0.099649094 -0.13405994 -0.11000419
0.11192169 -0.18366672 0.046839017 -0.08864348 0.16251332 -0.097755246 -0.01750262 -0.06310622
0.11159103 -0.13936159 -0.16061148 0.15707615 0.10524988 -0.12053878 -0.089388706 -0.13195454
-0.14392176 -0.057163663 -0.08582833 0.09035096 -0.04291251 -0.09519091 -0.09380608 -0.011279358
-0.05946346 0.07197457 -0.038902722 0.094659284 0.16877523 0.0093138665 -0.08464484 -0.06981694
-0.08584851 0.12029399 0.0836947 -0.091508955 -0.13063097 -0.0033745787 -0.035083923 -0.21455453
0.03547405 0.06413333 -0.0055674133 -0.15043513 -0.2116002 0.07272027 0.118234366 0.019056225
-0.20031013 0.1025567 -0.061173446 -0.018052533 -0.19751036 -0.16776985 -0.13342814 -0.057286195
-0.08829185 -0.079287104 0.02849282 0.13490568 -0.1857907 0.1403788 -0.11153413 0.050692827
-0.017140107 -0.015824048 -0.15006536 0.06284216 0.5394161 0.60903764 0.75779134 -0.041375235
-1.4401296 0.68139666 0.78462017 0.7398052 0.7516601 0.7372258 0.841978 0.5420959
0.78573024 1.180533 0.6625458 0.9002644 -1.9172162 0.68374914 0.6629667 0.52043295
0.75067645 0.72036135 0.8424169 0.86895466 0.63484114 1.0463861 0.0936666 -1.6439128
0.8786731 -0.009036885 0.6972227 0.8438964 0.8545769 0.115529716 -1.6677964 0.64494807
0.53755605 0.76182073 0.8608855 0.7135307 0.9680268 0.74107313 0.74840987 1.1891016
0.5951331 0.8465734 -1.865027 0.7837022 0.76238126 0.7797772 0.8298003 0.5955355
0.5229871 0.71020436 0.6050572 1.0332986 -0.13722211 -1.7364079 0.7232404 0.022152703
0.734016 0.86524725 0.77648306 -0.14159806 -1.5760957 0.69353193 0.5443418 0.80878705
0.77252495 0.87555575 0.73885 0.63897973 0.77722484 1.2060208 0.72183496 0.6759573
00000000: 141b e93e 6951 1c3f ac43 3a3f c4b9 e93d
00000010: 9224 e0bf 07a9 003f ed5a 443f c054 063f
00000020: 32e2 333f 15e1 113f 8142 553f a66b d03e
00000030: 93e2 ff3e 8494 ab3f 0cef 1b3f 4b48 3e3f
00000040: 4312 e1bf 8165 123f f7ec 3e3f 8db9 d23e
00000050: 494a 433f 9910 e13e 99ea f93e 2cd8 303f
00000060: ef95 453f 2324 9a3f 9521 bfbd 45cd d6bf
00000070: 28cd 2f3f 46e8 89bd 9f54 163f 748d 2b3f
00000080: bea6 463f da79 99bd 2c4e dbbf 2a26 353f
00000090: a6dc 4d3f eaf1 0a3f 8c81 4a3f b65e 343f
000000a0: f85e 6c3f 927a 103f 713c 083f 786b b43f
000000b0: cce4 323f 5e7e 043f 9e4e dabf dae7 3b3f
000000c0: 7b8f ff3e 98b4 263f c808 373f 100e 2d3f
000000d0: f374 4d3f 3224 473f 1bf0 053f 4bee 8c3f
000000e0: 9a12 63be 60b0 e0bf f230 f63e 060d 223e
000000f0: 13a5 373f 114b 323f 1c92 593f dc56 b4bd
00000100: 2077 e5bf cbd4 163f d1b0 2c3f a038 243f
00000110: 66aa 0b3f f442 063f ded8 383f 9a5d 313f
00000120: 76ed 343f 7b8a b63f 7c4b 4c3f acd8 233f
00000130: bd51 f6bf 6770 043f 2a15 3e3f 936d 3f3f
00000140: 06be 083f 6683 0d3f 4fe8 4a3f a564 073f
00000150: 8014 3c3f c817 743f 2243 33be 228a bebf
00000160: b807 1a3f 4a14 0e3d 3687 0cbe 9e98 cdbb
00000170: a704 26be 8256 16be a8e4 16be 12ce 97bd
00000180: b749 bb3d 704c fb3d 7561 d53d ed58 04be
00000190: 546a a63c 9554 55be a3ae b93d e816 ae3c
000001a0: 1866 823d 1413 b0bb 4b0f 7ebd 8a76 3b3d
000001b0: b247 c7bd d314 cc3d 0247 09be e049 e1bd
000001c0: 3337 e53d 2113 3cbe 45da 3f3d b68a b5bd
000001d0: e469 263e e733 c8bd a861 8fbc d53d 81bd
000001e0: d789 e43d ceb4 0ebe 5677 24be 92d8 203e
000001f0: 408d d73d 09dd f6bd 6d11 b7bd 171f 07be
00000200: 3a60 13be 7224 6abd c3c6 afbd ed09 b93d
00000210: 07c5 2fbd 74f3 c2bd 671d c0bd 0ecd 38bc
00000220: f58f 73bd 6767 933d 7658 1fbd badc c13d
00000230: 6ad3 2c3e 3099 183c 465a adbd 2ffc 8ebd
00000240: 58d1 afbd b25c f63d 2068 ab3d 0c69 bbbd
00000250: 20c4 05be 0928 5dbb 29b4 0fbd 2fb4 5bbe
00000260: 3d4d 113d 5658 833d d96e b6bb ab0b 1abe
00000270: b9ad 58be 5dee 943d dc24 f23d cd1b 9c3c
00000280: 191e 4dbe 3f09 d23d 0291 7abd e8e2 93bc
00000290: 2840 4abe dccb 2bbe 63a1 08be eea4 6abd
000002a0: 5cd2 b4bd 4761 a2bd c669 e93c b724 0a3e
000002b0: eb3f 3ebe 76bf 0f3e 026c e4bd 48a3 4f3d
000002c0: 6969 8cbc 6fa1 81bc bcaa 19be 64b3 803d
000002d0: 2c17 0a3f e4e9 1b3f 9dfe 413f 1479 29bd
000002e0: 2b56 b8bf 0370 2e3f dedc 483f e063 3d3f
000002f0: cc6c 403f d4ba 3c3f df8b 573f ccc6 0a3f
00000300: 9e25 493f b51b 973f 9a9c 293f ba77 663f
00000310: 5767 f5bf 2f0a 2f3f 30b8 293f 183b 053f
00000320: 552c 403f 9a69 383f a2a8 573f d073 5e3f
00000330: f384 223f fbef 853f 46d4 bf3d bc6b d2bf
00000340: b8f0 603f 710f 14bc 307d 323f 9809 583f
00000350: 8dc5 5a3f d89a ec3d 5a7a d5bf 511b 253f
00000360: 469d 093f af06 433f fe62 5c3f f3a9 363f
00000370: 9bd0 773f f8b6 3d3f ca97 3f3f 7b34 983f
00000380: a55a 183f 09b9 583f 34b9 eebf b5a0 483f
00000390: 6b2b 433f 7b9f 473f cb6d 543f 0475 183f
000003a0: 7ce2 053f f4cf 353f 07e5 1a3f 2143 843f
000003b0: f483 0cbe 9d42 debf 4826 393f 9679 b53c
000003c0: 79e8 3b3f d880 5d3f 98c7 463f 15ff 10be
000003d0: 81bd c9bf 4f8b 313f fc59 0b3f ab0c 4f3f
000003e0: 32c4 453f 6c24 603f 4625 3d3f 2d94 233f
000003f0: 35f8 463f e45e 9a3f 2dca 383f 8a0b 2d3f

bias f4 [20]
1.2162415 1.475174 1.5584065 -0.03795849 0.16684008 0.10987675 1.5420914 1.2617146
1.4928576 -0.005154361 0.023000518 0.101346925 -0.060548097 1.3179001 1.5069325 0.01630863
1.4819304 0.14312154 1.521098 1.3957816
00000000: cdad 9b3f 80d2 bc3f dd79 c73f 5d7a 1bbd
00000010: 20d8 2a3e 1007 e13d 4063 c53f dd7f a13f
00000020: f515 bf3f eae5 a8bb 956b bc3c fa8e cf3d
00000030: 4801 78bd f3b0 a83f 2ae3 c03f ad99 853c
00000040: e5af bd3f 748e 123e 57b3 c23f f9a8 b23f

weight f4 [10, 20]
-0.086219475 0.10032211 0.0086568585 -0.13871488 -0.15144025 0.07994498 0.010484556 0.1484762
-0.1679011 -0.158968 0.06476686 -0.21329543 -0.15706572 0.13028093 -0.08707677 -0.23750673
-0.14336069 0.038677588 0.031023392 -0.091527745 0.058368117 0.1358188 -0.08674415 0.10414403
0.059335925 -0.14529389 -0.2047505 -0.0108401375 -0.057506055 0.06592596 -0.008541536 0.19303262
0.029304296 -0.023157496 0.14724387 0.06319261 -0.067504905 0.0858071 -0.1593825 -0.10240175
0.8319833 0.5486165 0.77498007 0.23835272 -0.17668274 0.13153219 0.94535637 0.856775
0.7742757 -0.15676545 -0.054462403 0.13392614 0.013602033 0.59210324 0.9194098 -0.03336069
0.75997615 0.06476467 0.8430143 0.54699546 0.59195614 0.77593184 0.89226353 -0.07055672
0.0015488882 -0.05036533 0.64110464 0.8673342 0.9322959 0.02105791 -0.14727394 -0.06256096
0.17374489 0.8086418 0.7479469 -0.17656182 0.62992907 -0.12597497 0.884084 0.67594415
0.6841824 0.6201171 0.6240423 0.13085537 -0.019259747 -0.022833053 0.77704734 0.74153364
0.7058993 -0.10967923 0.113896586 -0.04826139 -0.20735586 0.78566605 0.84616405 0.069697164
0.9370168 -0.1331294 0.89502573 0.669234 0.74017274 0.6292528 0.7555014 0.12600806
0.032544374 -0.019658566 0.8187007 0.51137733 0.90773374 0.04048881 0.21470919 -0.20928177
-0.008150712 0.63472104 0.73587865 -0.18280663 0.7634174 -0.106573224 0.51717454 0.6937253
0.08214912 0.13460314 0.11761787 0.009209703 0.032153875 -0.20948982 -0.17825729 0.0356969
-0.15984124 -0.10901145 0.16842943 0.20065147 -0.1894846 -0.15183115 -0.0068708356 0.08534911
0.08574607 0.103516124 -0.20091099 0.15680231 0.8344901 0.8692817 0.7296279 -0.18033564
0.23814029 -0.13163221 0.7621189 0.8164315 0.7813238 -0.1864083 -0.08952614 -0.013764079
0.18799841 0.7123691 0.6701404 -0.015522644 0.6252188 -0.06281694 0.9020833 0.9364606
0.83521897 0.92102134 0.8055498 -0.16259015 -0.068487845 -0.058162604 0.8097963 0.82718253
0.5793381 -0.08109899 -0.17680769 0.024327239 0.05863723 0.62519544 0.54463255 -0.17482884
0.8413662 0.11098225 0.6493469 0.79109913 0.85391396 0.65486467 0.666481 -0.03709054
0.028832795 -0.1365582 0.6427192 0.84718895 0.79611427 0.08845866 0.102473736 -0.16213304
0.05475098 0.7939493 0.8818498 -0.1552743 0.9280917 0.22226888 0.9408699 0.76556677
00000000: d693 b0bd ae75 cd3d 7fd5 0d3c 460b 0ebe
00000010: 2713 1bbe 32ba a33d 6ac7 2b3c 250a 183e
00000020: 44ee 2bbe 82c8 22be 7da4 843d 1e6a 5abe
00000030: d6d5 20be 5d68 053e 4e55 b2bd f734 73be
00000040: 25cd 12be 646c 1e3d c524 fe3c e672 bbbd
00000050: 6813 6f3d 1514 0b3e eba6 b1bd 7749 d53d
00000060: 3a0a 733d ecc7 14be 1daa 51be d59a 31bc
00000070: 788b 6bbd 3104 873d ccf1 0bbc 58aa 453e
00000080: 900f f03c cab4 bdbc 19c7 163e 216b 813d
00000090: 0340 8abd a2bb af3d 2b35 23be 02b8 d1bd
000000a0: dcfc 543f 2272 0c3f 1865 463f bc12 743e
000000b0: 52ec 34be 60b0 063e e002 723f 9b55 5b3f
000000c0: ef36 463f 1f87 20be f813 5fbd ef23 093e
000000d0: 10db 5e3c 1494 173f 715e 6b3f 38a5 08bd
000000e0: cc8d 423f 57a3 843d c9cf 573f e507 0c3f
000000f0: 708a 173f 78a3 463f 626b 643f 0b80 90bd
00000100: 1004 cb3a e04b 4ebd 6f1f 243f 9d09 5e3f
00000110: f2aa 6e3f a381 ac3c fbce 16be f61f 80bd
00000120: 2eea 313e 2603 4f3f 7379 3f3f 9fcc 34be
00000130: 0843 213f 95ff 00be 5453 623f ad0a 2d3f
00000140: 9426 2f3f ffbf 1e3f 3cc1 1f3f f3fe 053e
00000150: 9ec6 9dbc 620c bbbc 93ec 463f 26d5 3d3f
00000160: d1b5 343f 819f e0bd 9d42 e93d bcad 45bd
00000170: 1855 54be 6921 493f 359e 583f 63bd 8e3d
00000180: 55e0 6f3f 1353 08be 6820 653f eb52 2b3f
00000190: f67b 3d3f b616 213f 8a68 413f 4208 013e
000001a0: 404d 053d 000b a1bc 5e96 513f a0e9 023f
000001b0: 3d61 683f 98d7 253d badc 5b3e f64d 56be
000001c0: 908a 05bc 147d 223f 8b62 3c3f a931 3bbe
000001d0: 536f 433f 1043 dabd 8d65 043f fb97 313f
000001e0: cc3d a83d 68d5 093e a3e1 f03d 4be4 163c
000001f0: c8b3 033d 8084 56be 1489 36be ea36 123d
00000200: 6cad 23be 6541 dfbd c478 2c3e 9477 4d3e
00000210: 4008 42be a079 1bbe bf24 e1bb 84cb ae3d
00000220: a39b af3d 4300 d43d 9cbb 4dbe c990 203e
00000230: 25a1 553f 3f89 5e3f e5c8 3a3f e8a9 38be
00000240: 0cdb 733e 98ca 06be 391a 433f a801 513f
00000250: d604 483f d1e1 3ebe 7b59 b7bd bb82 61bc
00000260: a882 403e d25d 363f 528e 2b3f b052 7ebc
00000270: 570e 203f 2ba6 80bd eeee 663f e2bb 6f3f
00000280: e9d0 553f 0ec8 6b3f 8338 4e3f 087e 26be
00000290: 5b43 8cbd e93b 6ebd cf4e 4f3f 3cc2 533f
000002a0: 804f 143f 3a17 a6bd 130d 35be eb49 c73c
000002b0: 982d 703d cf0c 203f 0a6d 0b3f 5506 33be
000002c0: c663 573f a94a e33d 993b 263f 7985 4a3f
000002d0: 1b9a 5a3f 36a5 273f 809e 2a3f 40ec 17bd
000002e0: c132 ec3c ead5 0bbe 3f89 243f 60e1 583f
000002f0: 25ce 4b3f d029 b53d c0dd d13d 3406 26be
00000300: 9042 603d 4340 4b3f e9c0 613f 3a00 1fbe
00000310: 6b97 6d3f 749a 633e dadc 703f 2ffc 433f

bias f4 [10]
0.15065877 0.03507992 1.0016792 1.3446745 1.3236073 1.0440419 -0.12414155 1.0589186
1.4106301 1.0796189
00000000: 4b46 1a3e f6af 0f3d 0637 803f 4b1e ac3f
00000010: f76b a93f 2aa3 853f ed3d febd a58a 873f
00000020: 878f b43f f430 8a3f

weight f4 [1, 10]
-0.15670438 -0.11345688 0.85482174 0.84058636 0.9461949 0.8826624 -0.23360915 1.0496892
0.8346036 0.9625852
00000000: 1d77 20be 155c e8bd 99d5 5a3f ab30 573f
00000010: d439 723f 2af6 613f 3d37 6fbe 375c 863f
00000020: 95a8 553f fc6b 763f
