mwo/models/trained_vfa_models/model_hyp_demand_relaxation_300_iters.pth (torch_old, 23388 bytes, 9 tensors)

weight f4 [40, 25]
000000 cf 4a 99 3d 6d b0 32 3e f0 3b 34 3f f6 1b 0e 3d
       0.07484972 0.17450114 0.7040396 0.034694634
000010 9b af 16 3f 84 f4 6c 3e 84 65 69 3e 42 ca 60 bd
       0.588617 0.2314015 0.22792631 -0.054880388
000020 e0 37 f3 3e f4 b0 38 be b7 84 83 3e bc 9f 2d 3e
       0.47503567 -0.18036252 0.2568719 0.16955465
000030 05 10 aa 3e ae a4 8e be c8 fb f5 3e 69 50 8c 3e
       0.33215347 -0.27860016 0.48043656 0.27405098
000040 36 d1 03 be 3d 81 ac bf 1d 30 e0 bb 37 f1 ca bf
       -0.12872776 -1.347694 -0.006841673 -1.5854863
000050 ab 57 d1 3d e4 76 d7 bd d2 d9 36 be 50 c8 b9 3e
       0.102217995 -0.105207235 -0.1785653 0.3628564
000060 ba a3 8d bf 21 61 53 bf 10 ea 27 bf 3b 61 72 be
       -1.106559 -0.8257008 -0.65591526 -0.23669903
000070 7f 01 57 bf da 85 97 3c 8c 40 73 3f 04 a1 e0 bc
       -0.8398666 0.018496443 0.95020366 -0.027420528
000080 47 0b 41 3f 9c e8 24 3e 76 26 73 3f ce a0 3a 3d
       0.7540783 0.16104358 0.9498056 0.04556351
000090 9b 05 45 3e 9b 9c e6 3c f5 68 3e 3f f7 50 97 3d
       0.1924042 0.028150847 0.743789 0.0738849
0000a0 52 75 e6 3e c9 1b 04 bf f7 8f 3e bf 55 ee 27 3d
       0.45011383 -0.51604897 -0.7443842 0.040998776
0000b0 19 f4 86 bf c9 75 46 bd 24 5e 6c 3f a9 71 8b be
       -1.0543243 -0.048452172 0.9233115 -0.27235153
0000c0 d2 e8 95 3e 24 ba ee bf d5 a9 04 bd dc cf 06 3e
       0.2927919 -1.8650556 -0.032388527 0.1316523
0000d0 06 b7 b0 3e b1 ca 25 be ff c2 05 3f 0b ba b2 3e
       0.34514636 -0.16190602 0.52250665 0.34907565
0000e0 42 ea af 3e fa ba a8 3e 0d 1c ac 3e 09 a3 fa bd
       0.34358412 0.32955152 0.3361515 -0.12238128
0000f0 b8 4c 2c 3e c1 ee ec 3e c5 75 da 3d 1a 7a 0a be
       0.16826141 0.46275905 0.10666994 -0.1352314
000100 a6 13 cb 3e 30 cd a1 3e 1b f9 43 be a5 52 b1 bf
       0.39663428 0.31601858 -0.19137995 -1.3853346
000110 8e 42 b0 3d 37 c5 e0 bf 9e bd 33 3b 61 8c 41 3e
       0.08606444 -1.7560185 0.0027426253 0.18901207
000120 ce 5c 83 3d eb 3a 3f 3e b8 2b 93 bf 51 db 08 c0
       0.064141855 0.18674819 -1.1497717 -2.138386
000130 cb 57 e0 bf 3e c7 20 bf 52 e1 f6 bf 3e be e9 be
       -1.7526792 -0.6280402 -1.9287512 -0.45652956
000140 ea aa 89 bd 29 ea 8e bf bf a9 aa 3d 17 14 53 bf
       -0.067220524 -1.116521 0.08333158 -0.8245253
000150 f5 00 65 3d 11 79 9d bf d8 10 b0 3c d2 9d dd be
       0.055909116 -1.2302572 0.021492407 -0.4328447
000160 57 f7 62 bf 1f 44 07 bf 2f b9 42 bf 98 38 2d bf
       -0.8865866 -0.5283832 -0.7606382 -0.6766448
000170 02 e9 29 3e d2 e4 74 bc d5 d3 86 be 59 ea 4b bf
       0.16592792 -0.014947133 -0.2633349 -0.7965446
000180 b0 53 b6 be 0a ec 7c bf d1 0c 25 be 2d 72 8d bf
       -0.35610723 -0.9879767 -0.1611817 -1.1050469
000190 bc aa 97 bd e2 52 d7 bd 12 94 1f 3f 38 f4 6e be
       -0.07405612 -0.105138555 0.6233531 -0.2333535
0001a0 71 51 8a 3e b5 d4 b9 3e fa 9f 7a 3e df 28 de 3e
       0.2701526 0.36295095 0.24475089 0.43390557
0001b0 47 d1 92 3e 13 37 5d bc 2d 8d a4 bd 07 57 07 3e
       0.2867529 -0.0135019 -0.0803474 0.13216792
0001c0 24 b3 be 3e c6 98 36 be 03 d3 a6 3e bf 37 ab 3e
       0.37246048 -0.17831716 0.32582864 0.33440968
0001d0 65 66 09 be fb 1d 9c bf 1c d5 60 bd fe 90 d2 bf
       -0.13417967 -1.2196649 -0.054890737 -1.6450498
0001e0 9e 32 bd 3e 6a 8f 3d 3e cb 5c 5c 3e 29 7a 7a 3e
       0.3695268 0.1851174 0.21519773 0.24460663
0001f0 7a 5b 98 bf 2a ba 72 be 19 8a 07 be c9 7d 3d 3f
       -1.1902916 -0.23703828 -0.13236274 0.7402006
000200 0d b7 b2 bd 0f b5 c2 3e 47 49 46 be 63 56 94 3d
       -0.087263204 0.38028762 -0.1936389 0.072430395
000210 e3 0f a3 bd b6 94 9b 3e 8f 88 7c be 49 37 0a 3e
       -0.079620145 0.30386895 -0.24661468 0.13497652
000220 13 0e 06 3f 70 d6 c1 3e 5e 02 ce be 8e 64 58 3e
       0.52365226 0.37858915 -0.4023618 0.21132109
000230 ce ea 94 3e c6 ae 5a bd a0 00 b9 bf 83 fa 27 be
       0.29085392 -0.053389333 -1.4453316 -0.16404156
000240 e6 61 bf bf d1 80 bb 3e 3d 2f c0 3d 2d aa 42 be
       -1.4951751 0.36621717 0.0938401 -0.1901023
000250 1e f6 e1 3e 1a b8 97 bf 1e 8d 8b 3d 53 a7 3f bd
       0.44133085 -1.1853058 0.06814025 -0.046790432
000260 71 ed 38 3f 14 86 f0 3d 09 b2 cc 3e 34 5f 03 3d
       0.72237307 0.117443234 0.3997958 0.032073215
000270 a1 8e 00 3e 33 f0 25 3e 33 24 74 3e d3 36 88 3e
       0.12554409 0.1620491 0.23841934 0.26604328
000280 fe e3 23 3e a1 a1 d1 3e 22 cc b2 3e f4 23 15 be
       0.16004941 0.40943626 0.34921366 -0.14564496
000290 c1 d4 e2 3e 0e a0 04 3f 4d 56 bb 3d 0a 8e 8e bf
       0.44302943 0.51806724 0.0914732 -1.1137097
0002a0 df cb 5a bd 88 e7 da bf e9 a5 b2 3e c7 41 80 3e
       -0.053417083 -1.7101908 0.34892204 0.25050184
0002b0 19 6f 16 3e f7 f0 42 bd d5 a7 90 bf b0 d3 6e be
       0.14690818 -0.047593083 -1.1301218 -0.2332294
0002c0 8c 5c 44 3b 6d a7 3f 3f 18 ba aa 3d a9 75 09 3f
       0.0029962389 0.74864846 0.08336276 0.5369516
0002d0 6e cf 1c be 6d 1e 1e 3e 8c de 24 be e8 dd c4 3e
       -0.15313503 0.15441294 -0.1610052 0.3845055
0002e0 84 af 6d be a7 7b b2 3d ef 18 c0 3e b3 e6 7a 3e
       -0.23211485 0.08714991 0.37519023 0.24502067
0002f0 46 c4 71 be f2 eb 24 3e ee 59 c3 3c 3f 21 a1 3c
       -0.23610029 0.16105631 0.023846593 0.019669173
000300 9e 64 9d bf 72 f9 09 bd ae 90 b9 bf ac a2 c2 3e
       -1.2296331 -0.033685155 -1.4497278 0.38014734
000310 b1 f5 57 3e 35 8a eb 3d ff 11 69 3e 51 2c a1 bf
       0.21089818 0.1150097 0.22760771 -1.2591649
000320 3b 2e 92 bd a4 34 53 bd 15 a2 86 3e cb 74 a3 bd
       -0.07137724 -0.051563874 0.26295534 -0.07981261
000330 8e 2b b4 3e 95 90 11 3f 78 36 25 3e 3a 7c c7 3e
       0.3518948 0.5686124 0.1613406 0.38961965
000340 75 21 d3 3d 58 f4 13 3e 7f cf 08 be 3b 79 93 3e
       0.10309116 0.14448678 -0.13360403 0.2880343
000350 37 78 87 3e 3c 97 3a 3e bd b6 4c 3c 43 c7 19 3f
       0.26458904 0.18221754 0.01249474 0.60069674
000360 03 d8 10 bf f9 0f a8 bf 26 d0 78 be ea 7c c8 bf
       -0.5657961 -1.3129874 -0.24298152 -1.5663121
000370 f9 3b 74 3e c7 60 f0 bd 75 32 31 bd 71 2d 9e 3c
       0.23851003 -0.11737209 -0.04326101 0.019308778
000380 98 61 8a bf 4c 65 00 bd 1f 73 23 be 78 50 31 3f
       -1.0811033 -0.031346604 -0.15961884 0.6926341
000390 92 db 4f 3e 33 36 16 3f d3 db 46 be 23 bc e2 3e
       0.20298603 0.5867645 -0.19419794 0.44284162
0003a0 08 6d e8 3d 00 7b 9d 3e db 33 4c be 1c a0 cb 3c
       0.11348921 0.30757904 -0.19941656 0.02485662
0003b0 fe 46 8e 3d 97 f9 f0 3e 92 8d 9e be 41 db e0 3e
       0.069471344 0.47065422 -0.30967385 0.43917277
0003c0 fc 7f 8d 3e b6 85 8a bd 81 d8 ae bf 36 87 3d be
       0.27636707 -0.067637846 -1.3659822 -0.1850861
0003d0 db bb c9 bf 48 27 99 3e 84 cc ce bd ff 47 dd 3d
       -1.5760454 0.29912782 -0.10097602 0.10804748
0003e0 d7 12 ad bd 89 05 8e bf ae ba 35 3e d2 6f e7 3d
       -0.08450859 -1.1095439 0.17746994 0.11300625
0003f0 c4 fc 23 3f 77 56 78 3c 3a b3 87 3e c1 74 42 bd
       0.64057565 0.015157334 0.26503927 -0.047474626

bias f4 [40]
000000 4e ee dd 3f 93 50 07 40 04 4c 00 40 33 d9 0c 40
       1.733835 2.1142929 2.0046396 2.2007568
000010 48 d9 03 40 25 6a fa 3f 10 0f f1 3f e0 97 d6 3f
       2.0601368 1.9563643 1.8832722 1.6765099
000020 1c 17 04 40 7c b1 f4 3f 4f 39 d2 3f 2e 50 e1 3f
       2.0639105 1.9116664 1.6423739 1.7602594
000030 46 25 03 40 30 4e be 3f c5 41 0d 40 7f f5 0f 40
       2.04915 1.4867611 2.2071393 2.249359
000040 7b 12 f0 3f 7e 6c c3 3f 72 e2 02 40 b7 5f e0 3f
       1.875564 1.5267484 2.0450711 1.752921
000050 f6 88 e6 3f e7 36 dc 3f 42 94 cf 3f ad 5f e3 3f
       1.8010547 1.7204255 1.621712 1.7763573
000060 df f9 18 40 57 4d dd 3f 22 f2 fd 3f 44 a1 fe 3f
       2.390251 1.7289227 1.9839518 1.9892964
000070 aa dc 06 40 2c a4 db 3f 51 62 d1 3f 64 fc 04 40
       2.1072183 1.7159476 1.6358129 2.0779047
000080 52 49 01 40 8b 4a cb 3f bd 15 c7 3f 04 a3 f8 3f
       2.0201 1.5882124 1.5553509 1.9424748
000090 ee ce 16 40 4b ee 18 40 b7 51 05 40 ad 77 e5 3f
       2.35638 2.3895442 2.0831125 1.7927147

weight f4 [30, 40]
000000 c0 16 0a 3f 27 32 b3 3f b7 b3 2e 3f d1 8a 96 3f
       0.53940964 1.399968 0.68242973 1.1761113
000010 71 f9 05 3f 44 bf 2c 3f cc 5f b4 3e 3c 3f cc 3e
       0.5233374 0.6747935 0.35229337 0.39891994
000020 f9 3b 28 3f 24 cf fb 3e d0 14 0c 3f 72 bf 9a 3e
       0.6571651 0.49181473 0.5471926 0.30224186
000030 3b 24 27 3f bc df 1c 3f 33 b6 06 40 9c bd 04 40
       0.6528966 0.6127889 2.1048706 2.0740728
000040 a5 b5 0d 3f 5a 4b 02 3f 30 16 3a 3f 89 73 1a 3f
       0.5535529 0.5089623 0.72690105 0.6033254
000050 94 fe 0b 3f 69 07 1f 3f 4d ea b2 3e 0c 33 18 3f
       0.5468533 0.6212068 0.34944382 0.5945289
000060 fd 82 a8 3f c2 b6 0c 3f 56 73 57 3f 11 74 0a 3f
       1.3164974 0.54966366 0.84160364 0.54083353
000070 e9 33 0b 3f 22 e3 fc 3e 5a e0 11 3f a3 5a 32 3f
       0.54376084 0.4939204 0.5698296 0.6966955
000080 02 f9 15 3f d4 9a e4 3e af cd c8 3e d6 08 10 3f
       0.5858308 0.44649374 0.39219424 0.5626348
000090 ef b2 9b 3f d7 24 8b 3f 07 7f 0e 3f 83 1f 3a 3f
       1.2163981 1.0870618 0.5566258 0.72704333
0000a0 3b 5f 3f 3f 4e f9 c9 3f 8c d0 16 3f 0d 66 96 3f
       0.74754685 1.5779207 0.5891197 1.1749893
0000b0 05 e5 3d 3f d2 ad 52 3f 99 1a 1b 3f 71 49 46 3f
       0.7417758 0.8229648 0.6058746 0.7745581
0000c0 76 a3 60 3f 3a f0 1f 3f 3e 8f fd 3e 80 65 bf 3e
       0.8774942 0.6247593 0.49523348 0.37382126
0000d0 96 f4 25 3f 36 61 33 3f 38 7c 10 40 0b ff 00 40
       0.64826334 0.7007021 2.2575817 2.0155666
0000e0 f3 ef 49 3f ac 8b 21 3f f2 66 3e 3f 6a d7 f8 3e
       0.7888176 0.6310375 0.7437583 0.48601848
0000f0 47 81 29 3f 88 41 41 3f 5c 2d 32 3f 86 7a 39 3f
       0.66212887 0.7549062 0.6960046 0.7245258
000100 3a 57 a7 3f e8 7d 29 3f 15 61 41 3f 6b d9 17 3f
       1.3073494 0.6620774 0.7553876 0.5931613
000110 3a 00 38 3f 7f 3d 44 3f 92 76 0a 3f 27 24 2d 3f
       0.71875346 0.76656336 0.54087174 0.6763329
000120 3c 4e 2a 3f e1 0b 14 3f 60 9a 00 3f 41 ab 1a 3f
       0.66525626 0.57830626 0.5023556 0.6041756
000130 13 af a8 3f 2a ae a5 3f d4 6a 0e 3f 98 67 5b 3f
       1.3178428 1.2943776 0.55631757 0.85704947
000140 33 ff 02 3f d5 cf cd 3f c1 d7 08 3f aa dc 80 3f
       0.51170653 1.607905 0.53454214 1.0067341
000150 19 1d 01 3f b9 3e 58 3f f1 5f 03 3f 29 4a 09 3f
       0.50435024 0.8447071 0.5131827 0.53628784
000160 20 ed 3e 3f 0a b0 12 3f 33 ec 14 3f ce 91 1b 3f
       0.74580574 0.57299864 0.5817291 0.60769355
000170 55 48 01 3f d6 cd 12 3f f9 8b 0c 40 67 a6 f9 3f
       0.50500995 0.5734533 2.1960433 1.9503907
000180 60 32 26 3f 14 c1 05 3f 97 2c 2e 3f 53 66 15 3f
       0.64920616 0.5224774 0.6803679 0.5835926
000190 3b 53 14 3f e5 ba 30 3f 50 13 02 3f 61 df 2a 3f
       0.579395 0.6903518 0.5081072 0.667471
0001a0 85 32 9b 3f 4f 4f 27 3f 7b 7e 5b 3f 69 c3 22 3f
       1.2124792 0.6535539 0.8573987 0.6357942
0001b0 12 05 41 3f 19 46 17 3f 39 36 22 3f e9 6f 2b 3f
       0.7539836 0.59091336 0.6336399 0.66967636
0001c0 74 fc 45 3f 47 31 07 3f 78 37 10 3f d5 47 12 3f
       0.7733834 0.52809566 0.5633464 0.57140857
0001d0 52 0a 8c 3f 72 d1 8d 3f da bd fd 3e 16 50 15 3f
       1.094065 1.1079543 0.49558908 0.58325326
0001e0 09 22 08 be 90 bc a4 3d 94 71 c2 bd c7 d6 a0 3c
       -0.13294233 0.08043778 -0.094943196 0.019633664
0001f0 e1 5f bf 3d 06 0a 64 bd be 9d 98 3d 81 22 ab bd
       0.09344459 -0.05567362 0.07451962 -0.083561905
000200 a1 03 17 bd 22 92 58 3c 34 dd 08 be e5 5b 18 3c
       -0.036868695 0.0132184345 -0.13365632 0.009299253
000210 7a 9f 81 3d b7 d9 23 be 03 8e 54 bd 28 5b 0c bd
       0.06329246 -0.1600102 -0.051893245 -0.03426662
000220 f8 2d 08 bc 9d 06 a3 bd 3f 94 de bd a1 7f 6b 3d
       -0.008311741 -0.07960246 -0.108681194 0.057494763
000230 08 54 21 3d 32 01 b9 bd d5 8e 04 3e 08 af b2 bd
       0.03938678 -0.09033431 0.12945111 -0.08724791
000240 13 b9 3c 3c bb 78 31 be 10 c3 2a bd 96 c6 14 bc
       0.0115187345 -0.17331211 -0.041689932 -0.00908055
000250 24 a0 53 bc 92 f3 3f 3d d6 eb 96 3c a2 91 2e be
       -0.0129165985 0.046863146 0.018423002 -0.17047742
000260 2a f3 a4 bb b9 15 d5 bc 9e 1e d6 bd ae c5 56 bd
       -0.00503387 -0.026011335 -0.104550585 -0.052434616
000270 87 27 2a be fc a1 c5 bd 68 7d e2 3d e0 52 1a be
       -0.16616641 -0.09650037 0.110590756 -0.15070677
000280 bb 99 02 3f c1 1e cb 3f d7 a1 4a 3f bb 19 9d 3f
       0.51015824 1.586876 0.791532 1.2273477
000290 77 aa 43 3f 03 3c 3d 3f 13 ab 30 3f 58 fb 1f 3f
       0.76431984 0.73919696 0.6901104 0.62492895
0002a0 27 7d 76 3f 4d 33 0f 3f a4 83 08 3f ea b3 d9 3e
       0.9628472 0.55937654 0.5332587 0.42520076
0002b0 31 77 20 3f f9 32 08 3f 82 3b 0b 40 d6 05 05 40
       0.6268187 0.5320278 2.175507 2.0784812
0002c0 cb 04 34 3f 2f 79 2d 3f 93 54 75 3f 8a bc 4b 3f
       0.70319813 0.67763036 0.95832175 0.7958456
0002d0 c5 39 49 3f 8c 4d 11 3f 84 01 02 3f 39 57 f9 3e
       0.78603774 0.5675895 0.5078356 0.48699358
0002e0 a1 52 b6 3f 35 4f 1b 3f c2 81 37 3f 45 cc 42 3f
       1.4243966 0.60667735 0.7168237 0.7609294
0002f0 f6 6c 62 3f e6 b3 24 3f 0b af 3c 3f 17 be 3a 3f
       0.8844751 0.64337003 0.73704594 0.72946304
000300 94 de 23 3f 21 21 47 3f 27 5a 33 3f 9c a2 26 3f
       0.640115 0.77784926 0.70059437 0.6509187
000310 95 61 87 3f f1 4e a6 3f 92 80 5a 3f f9 36 6d 3f
       1.0576655 1.2992841 0.8535243 0.92662007
000320 56 26 1b 3f 85 37 c8 3f 66 28 4f 3f 55 cc a3 3f
       0.6060537 1.5641943 0.8092102 1.2796732
000330 96 ff 38 3f b6 da 37 3f 22 65 3e 3f e7 4c 55 3f
       0.72264993 0.718181 0.74373066 0.8332047
000340 ea 37 39 3f de 9f 13 3f d9 c7 11 3f 90 90 10 3f
       0.72350943 0.5766581 0.5694557 0.56470585
000350 b2 e2 5e 3f 6c ae 09 3f 05 92 11 40 56 bf 02 40
       0.8706466 0.5378177 2.2745373 2.0429282
000360 9a 94 4f 3f 95 a5 2f 3f 18 23 77 3f ee 75 27 3f
       0.81086123 0.68612033 0.96537924 0.6541432
000370 1b d0 2d 3f 8e d8 1e 3f ac 73 33 3f d2 43 39 3f
       0.6789567 0.62049186 0.70098376 0.7236911
000380 37 a4 b6 3f 83 56 2c 3f 19 8f 7c 3f 2e 8d 56 3f
       1.4268864 0.67319506 0.9865585 0.83809173
000390 46 04 2b 3f e1 8d 48 3f 76 26 1b 3f 64 1c 12 3f
       0.66803396 0.7834149 0.6060556 0.5707457
0003a0 6b 4d 5a 3f ec 45 2c 3f 86 46 07 3f 79 a1 0f 3f
       0.8527438 0.6729419 0.52841985 0.5610576
0003b0 40 a5 97 3f 65 ec 99 3f f8 e5 2a 3f 5a c9 69 3f
       1.1847305 1.2025267 0.66757154 0.91322863
0003c0 83 bc 86 bd bf 76 eb bc e9 1c 04 be 53 90 9d 3b
       -0.065789245 -0.028743146 -0.12901653 0.0048084646
0003d0 fd b3 be 3c 12 04 ce bc 0a e3 c3 3d 26 71 04 3e
       0.023279184 -0.025148425 0.09564789 0.12933788
0003e0 42 61 db bb 93 c6 d1 3c b1 b7 38 be c8 6f cf 3c
       -0.0066949436 0.025607383 -0.18038823 0.025321856
0003f0 31 f2 a3 bd 60 c6 36 3d 07 67 1a be 76 4f 5d 3d
       -0.08005179 0.04462278 -0.15078364 0.054030858

bias f4 [30]
000000 b4 0c bb 3f bf 11 c5 3f 74 c8 d5 3f da 68 4e be
       1.4613252 1.5396041 1.6701798 -0.20157185
000010 d0 19 bf 3f 80 4d e5 3f d5 c4 f3 bd 46 8b c3 3f
       1.4929752 1.7914276 -0.11902777 1.5276878
000020 a5 70 e0 3f 08 e9 cd 3f 42 69 f8 bd a0 25 48 be
       1.7534376 1.608674 -0.12129451 -0.19545603
000030 d7 04 cd 3f a8 d4 e4 3f 18 26 cd 3f 18 7a e8 3f
       1.6017102 1.7877398 1.602725 1.816226
000040 cd 9d 45 bd 37 55 d2 3f a6 1d e9 3f 65 37 b9 3f
       -0.048246194 1.6432256 1.8212173 1.447003
000050 df db cd 3f a4 10 27 be 6f 2f dc 3d 35 ce e7 3f
       1.6082724 -0.16314942 0.10751235 1.8109804
000060 83 fc cd 3f 8e 1a d7 3f 70 f6 d3 3f 38 a5 c0 3c
       1.6092685 1.6804979 1.6559582 0.023516282
000070 4b 0c ba bd 56 b6 ef bd
       -0.09084376 -0.117047

weight f4 [20, 30]
000000 46 4c 2a 3f 8b 44 7e 3f 9f 22 48 3f be 03 b3 ba
       0.66522634 0.9932334 0.7817783 -0.0013657731
000010 64 14 44 3f c0 1a 81 3f e9 d2 5d bc 13 c0 41 3f
       0.76593614 1.0086288 -0.013539054 0.75683707
000020 10 97 88 3f 0b 2e 6e 3f b8 78 1b 3c c7 d6 73 3d
       1.0671101 0.93039006 0.009489231 0.059531
000030 f2 c2 79 3f d2 cd 2a 3f 2b 07 67 3f 60 bf 7a 3f
       0.9756309 0.66720307 0.9024531 0.97948265
000040 15 1a 20 be 5d a4 3b 3f d6 01 70 3f 80 68 7f 3f
       -0.1563495 0.73297673 0.937528 0.9976883
000050 ee 70 5e 3f d5 2c a9 bf e2 2b 94 bd 37 f9 61 3f
       0.8689107 -1.3216807 -0.072349325 0.88270897
000060 f6 b4 9b 3f f0 db 74 3f b1 6a 82 3f 0d 0b 26 3e
       1.21646 0.956481 1.018881 0.16215153
000070 81 d4 29 3e e3 62 a4 3c a0 93 2e 3f ff f8 4d 3f
       0.1658497 0.020066684 0.6819401 0.8045806
000080 d1 1e 4f 3f 0f 6c 6b bd 11 20 55 3f 60 e3 80 3f
       0.809064 -0.0574761 0.83252054 1.0069389
000090 84 fa 21 3b b8 18 8b 3f 46 a9 6e 3f a6 59 85 3f
       0.002471597 1.0866919 0.9322704 1.0417984
0000a0 6d 53 95 bd 2a ff a3 ba 44 39 68 3f c4 0d 7e 3f
       -0.07291303 -0.0012511958 0.9071238 0.99239755
0000b0 c1 c5 67 3f 0a 7f 54 3f 1a 3b 0d be 15 ea 6a 3f
       0.90536124 0.83006346 -0.13792077 0.9176343
0000c0 b5 de 82 3f 31 f0 88 3f 76 83 4c 3f 2c a4 ac bf
       1.0224215 1.0698301 0.79888093 -1.3487601
0000d0 5c 78 ef bd 9e 6c 4e 3f dd 5d 79 3f f3 66 6e 3f
       -0.116928786 0.80634487 0.9740885 0.9312584
0000e0 b8 a7 78 3f 91 6f 04 be 14 a8 59 bc e3 a1 f8 3c
       0.9713092 -0.12933184 -0.013284702 0.030350631
0000f0 dc 88 6c 3f 29 f8 7a 3f bc 1e 77 3f 2d 27 5b bd
       0.9239633 0.9803491 0.9653127 -0.053504158
000100 53 87 65 3f e9 60 65 3f 95 37 9d bd 28 b6 4a 3f
       0.89659613 0.89601 -0.07676617 0.791842
000110 3d e3 5a 3f 14 7b 53 3f a0 ce fa 3d ad 8f 44 bd
       0.8550299 0.8260968 0.12246442 -0.047988582
000120 4d 18 86 3f d8 00 85 3f 05 72 50 3f fa 7f 8c 3f
       1.0476166 1.0390882 0.8142398 1.0976555
000130 01 dd e6 3d 66 21 86 3f af 65 5b 3f 32 6c 3f 3f
       0.11272622 1.0478942 0.8570203 0.7477447
000140 62 1e 8c 3f e8 0b a6 bf 6d 4e bb bd ef 96 85 3f
       1.0946772 -1.2972383 -0.09145818 1.0436686
000150 f5 db 5f 3f 93 2b 7b 3f ee 23 71 3f 2b 59 8d bd
       0.87445 0.98113364 0.9419545 -0.06901773
000160 9d 92 84 3c 13 f1 c5 bd 24 7d b2 3d cb 02 4f 3c
       0.016183192 -0.09665122 0.08715275 0.012634943
000170 df 3f 86 3d d4 79 3c 3d 75 81 24 bd 7a ca 16 be
       0.06555151 0.04601462 -0.040162522 -0.14725676
000180 0f a8 08 be 9f 77 16 3e 87 5f 36 be d2 2c 53 bd
       -0.1334536 0.1469407 -0.17809878 -0.051556416
000190 70 37 1a 3e 56 7a 4c bd 88 7d b5 3d fc 10 cb 3c
       0.1506021 -0.049921356 0.08861834 0.024788372
0001a0 af b7 12 bd 74 79 05 3d 32 a0 b9 3d ed e6 04 3e
       -0.035819706 0.03258653 0.09063758 0.12978716
0001b0 33 c5 dd bd ea 93 f8 3d f3 09 25 bd 38 e0 54 3d
       -0.108286284 0.12137587 -0.04029269 0.051971644
0001c0 a5 23 83 bc 94 29 1b be f0 ce ab bd 68 aa 62 bd
       -0.016008208 -0.1515258 -0.083890796 -0.055338293
0001d0 22 d7 fc bd f2 4c d0 3d 32 8e 7f 3d b6 fb ed 3d
       -0.12345721 0.10170926 0.062391467 0.11620276
0001e0 48 e0 48 3d bd 2e ec bd 1a 03 18 3e 80 2f 08 3d
       0.049042016 -0.11532352 0.14844933 0.033248425
0001f0 22 81 1a 3e 6d d6 f9 bd 1b 30 d9 bd 87 f7 15 be
       0.15088323 -0.121991016 -0.106048785 -0.14645205
000200 ce 64 b8 3c 99 3e ec bd 51 b5 0d bd fc de de 3d
       0.022509005 -0.11535377 -0.034596745 0.10882375
000210 ed f1 17 be b6 25 e8 3d 3e dc d5 bd f5 cd 00 3e
       -0.14838381 0.11335318 -0.104423985 0.12578566
000220 8c 61 2d 3d c4 28 10 bd cf 44 b2 bd aa ab 12 3b
       0.042329356 -0.035195127 -0.087045304 0.0022380152
000230 52 67 3b be 34 8a f5 3d 3c 85 e9 3d 56 c8 f3 3d
       -0.18301132 0.11989251 0.114023656 0.119034454
000240 ef 12 61 bc c3 be 36 be 9e 27 14 be cc 1e 72 3d
       -0.013737424 -0.17846207 -0.14468238 0.0591114
000250 b4 47 11 be d4 09 ec 3d 78 db 0e be d7 7f 15 be
       -0.14187509 0.11525312 -0.13950908 -0.14599548
000260 6a 5b 12 3e c4 06 da 3d 04 95 f3 bd b3 4a f4 bd
       0.14292684 0.10645822 -0.11893657 -0.1192831
000270 7a 5c 08 be c0 26 7f bb 7c a4 3b bd 40 0b bc bc
       -0.13316527 -0.003893301 -0.04581116 -0.022954583
000280 2c ac 09 be 26 86 87 bd 26 13 d4 bd f0 60 ca bc
       -0.13444585 -0.06617384 -0.10355215 -0.024704427
000290 1d 3f 27 be 33 c4 06 be c8 7e c9 bc c0 c7 c3 3b
       -0.1633267 -0.13160782 -0.024596587 0.00597474
0002a0 f2 3c ec bd 74 57 e4 3d 50 c6 dc 3c 90 51 c2 bc
       -0.11535062 0.11149493 0.026950032 -0.023720533
0002b0 7c dc 2a 3e 9a e2 39 be 0c d3 ae bd 48 df 95 bc
       0.1668567 -0.18152848 -0.08536348 -0.018294945
0002c0 71 43 09 be d0 38 d2 3d b0 93 69 3d d3 5c d2 bd
       -0.13404633 0.102647424 0.05702561 -0.10271611
0002d0 df 9c ee bd ea 50 d7 3d a4 ec e2 3d 9e 13 ea 3b
       -0.116510145 0.1051348 0.11080292 0.007143452
0002e0 56 89 93 bb cb e6 19 3e 88 3b 0f bc 71 c6 e4 bd
       -0.0045024557 0.15029447 -0.008742221 -0.11170662
0002f0 1f a7 03 be bc 9a 67 bd c2 df 3a 3e f4 02 f3 bd
       -0.1285672 -0.05654405 0.1824942 -0.11865798
000300 bc 07 1c be 7d ab 44 be a9 30 8f bd ba f8 ca bd
       -0.15237325 -0.19206043 -0.06991703 -0.09910722
000310 1a dd 0c be 31 fa fd bd a1 26 36 3d 25 cb 54 3d
       -0.13756219 -0.12401236 0.044470433 0.051951546
000320 cf 7a ce 3d 6b 4f c6 3d 2b 57 16 3e bb ef 0e be
       0.10082018 0.096831165 0.1468169 -0.13958637
000330 5c c9 8b bd cc 10 9f 3d 0b 26 9e 3d de 3c ca 3d
       -0.06825516 0.077668756 0.077221 0.09874891
000340 32 69 94 bd 80 8a bf bc a2 ca 8a 3d bc 2e e2 3d
       -0.07246627 -0.023381472 0.067769304 0.1104407
000350 dc 60 0f bd 09 36 e0 3d 4c b7 d9 bb d4 ef b4 bb
       -0.03500448 0.109478064 -0.006644165 -0.005521754
000360 0a 15 b5 3d 09 9d ea bc 95 26 24 be 02 d4 0a be
       0.088419035 -0.028639333 -0.16030343 -0.13557437
000370 04 9c 20 3e 5a 9c db bc 71 7d d6 3d 55 27 27 be
       0.15684515 -0.026807953 0.10473145 -0.16323598
000380 20 78 85 3c 74 00 2b 3d 98 62 50 bd e2 e6 0a be
       0.016292632 0.04174848 -0.050875276 -0.13564637
000390 aa 92 21 3d 0b e0 0f 3e 39 62 9e bd 0b d4 87 bd
       0.03944651 0.1405031 -0.07733578 -0.06632241
0003a0 61 a8 43 be f9 6e ab 3d 4a 3c f1 3d c0 06 a4 3d
       -0.191072 0.08370776 0.11779077 0.080091
0003b0 b8 c6 c3 bd 54 69 39 3c a8 bb ca 3d 71 09 c7 bc
       -0.09559387 0.011316616 0.09899074 -0.024296494
0003c0 ee 5a 08 be 34 f0 05 3e 48 84 f5 bd d0 e6 d1 3d
       -0.13315937 0.13079911 -0.11988121 0.10249102
0003d0 a6 e5 12 be e2 70 d5 3d 25 ed 79 3d 83 e0 c5 3c
       -0.14345416 0.10421921 0.061017174 0.024154907
0003e0 0b f5 12 3e 2b 63 ee 3d 38 a1 a8 3d 27 3b 9b bd
       0.14351289 0.116400085 0.08233875 -0.07579642
0003f0 3e 81 72 bd c3 7f c6 bd 22 e8 de 3a 75 2f 23 be
       -0.059205286 -0.09692337 0.0017006437 -0.15936072

bias f4 [20]
000000 8f cb a1 3f 87 22 cb 3f 7d 85 bc 3f 7c 10 a4 3d
       1.2640246 1.5869912 1.4728237 0.08010957
000010 8b f1 1e be cc 7c e8 bd 8a dc 68 3c 2f 34 be bd
       -0.15521829 -0.11351928 0.014212737 -0.09287297
000020 33 41 93 bd 66 05 90 bc 69 2b f4 bd ca 2d cb bd
       -0.0719017 -0.0175807 -0.11922342 -0.09920843
000030 55 1f 29 be 50 50 04 bb c2 8a bd 3d 3d 04 a3 3f
       -0.16515858 -0.0020189472 0.092549816 1.2735668
000040 f7 61 ac 3d 18 28 a7 3f 82 18 0f be bc 13 fa bc
       0.08417123 1.3059111 -0.13974193 -0.030526988

weight f4 [10, 20]
000000 aa f7 1d be 78 0b 06 3d d2 3b 33 be 1b f9 4b be
       -0.15426508 0.03272578 -0.17503288 -0.19919245
000010 7e cc 0a be 90 39 39 be b8 70 0b 3d 28 8e d0 bc
       -0.1355457 -0.18088365 0.034043044 -0.02545841
000020 fc ef 9f bd 58 4f a4 bd 04 2c 28 be 80 ee 69 bc
       -0.07809445 -0.08022946 -0.1642304 -0.014278054
000030 a4 86 3d 3e 40 b9 67 3d 0c b9 81 bd 52 b8 17 be
       0.18508393 0.056573153 -0.06334123 -0.14816406
000040 30 2d 10 3c 9d aa 5b be 18 e7 b8 3d 98 a6 6c bd
       0.008799836 -0.21451803 0.09028453 -0.057776064
000050 d9 8c 0f be 40 3e 06 bc 64 b9 f1 bd 45 eb 28 be
       -0.14018573 -0.0081935525 -0.118029386 -0.16495998
000060 b2 9a 15 be 58 98 0b 3d a4 8f 82 3d 86 86 31 be
       -0.14609793 0.034080833 0.063750535 -0.17336473
000070 10 72 97 3d 2c 6a ee bd d0 0a 18 3c 90 da 10 3d
       0.073948026 -0.116413444 0.009279922 0.035364687
000080 80 8f 72 bb c8 2e 24 3d a8 b7 4f 3e 5c f5 3b be
       -0.0037011802 0.040083677 0.20284903 -0.18355316
000090 f8 3c 2f be 9d 54 0d be 1c 85 51 3e 8a 92 16 3e
       -0.17113101 -0.13801809 0.20460933 0.14704338
0000a0 9f 99 90 3f 1a 5c 83 3f 1e a9 8b 3f b2 ea 5e 3e
       1.1296881 1.0262482 1.0910985 0.21769217
0000b0 27 b3 39 be 28 73 b8 3d 86 a4 2d be 71 77 f2 bd
       -0.18134747 0.09006339 -0.16957292 -0.11839188
0000c0 17 91 62 3e fb d2 c4 3c 01 97 bf 3c fe ff 47 3e
       0.2212566 0.024026385 0.023387434 0.19531247
0000d0 74 97 3d be ff 2f 75 bd 54 97 13 be b5 49 90 3f
       -0.18514806 -0.059860226 -0.14413196 1.1272494
0000e0 84 cd ae bd f7 ec 94 3f 04 f7 fc 3d 5b 49 3e be
       -0.08535293 1.1634816 0.12351802 -0.1858267
0000f0 09 24 3b 3f 9b 43 64 3f e1 a2 85 3f 05 44 0a be
       0.7310186 0.8916566 1.0440332 -0.1350251
000100 c3 cf d2 bd 80 f7 ea 3d 17 67 d5 bd 8b 08 47 3d
       -0.10293534 0.11472988 -0.104200535 0.04859213
000110 1e c4 43 be a6 8c e5 bd 24 79 e2 bd c0 30 8d bd
       -0.19117782 -0.11208467 -0.11058262 -0.06894064
000120 28 3b 44 3e dd cb 1a bd 33 0e 1b be 12 24 87 3f
       0.19163191 -0.037792075 -0.15142135 1.0557883
000130 20 58 0f 3e a5 d6 7f 3f d8 67 b4 bd d8 91 f4 bd
       0.13998461 0.99936897 -0.08808869 -0.1194188
000140 99 04 41 3f 93 01 7b 3f 93 78 42 3f 25 9c e5 bd
       0.7539764 0.9804928 0.7596523 -0.11211423
000150 33 4c 5c 3e d0 6c 1d 3e 77 5e 42 3d b6 98 65 bd
       0.21513443 0.1537354 0.04745337 -0.05605384
000160 7e a8 54 be 7f fd e5 bd 03 f1 d4 bd 80 fe 04 bc
       -0.207674 -0.11229991 -0.10397532 -0.008117318
000170 46 36 f0 bd 13 e0 b0 3b 31 e4 55 3c 27 09 56 3f
       -0.11729102 0.0053978055 0.013054893 0.83607715
000180 b2 1a ee bd 07 36 3d 3f 70 73 80 bd 51 a5 80 3a
       -0.116261855 0.73910564 -0.06272018 0.0009814893
000190 5a a4 7d 3f e3 13 29 3f be 2e 6f 3f 44 dc e6 3d
       0.99078906 0.6604597 0.934307 0.11272481
0001a0 d0 37 d1 3c 2b 17 00 be 70 34 10 3d bc b0 b8 bd
       0.025539309 -0.12508838 0.03520626 -0.090180844
0001b0 4c f2 ca bd 5e a7 46 be bd 6a 2c be 22 1b e1 bd
       -0.09909496 -0.19399783 -0.16837592 -0.10991503
0001c0 d2 98 a7 bd c8 1d c8 bc 9c 15 0d bd 5b c4 64 3f
       -0.08183445 -0.024428263 -0.034444436 0.89362115
0001d0 86 1f 4b 3e c7 02 89 3f 2e 1d 02 3e 64 7c 1d bd
       0.19836244 1.0703973 0.12706444 -0.038448706
0001e0 6d 56 71 3f 86 5d 89 3f 25 0d 3d 3f 3e a1 22 be
       0.942725 1.0731666 0.7384818 -0.15881822
0001f0 48 05 01 3d 3a 96 08 3e a8 22 4a be ec a5 59 be
       0.031499177 0.13338557 -0.19739783 -0.212547
000200 58 fc f6 bd a8 7e 95 bd 5a 2c 43 be 6a 59 05 be
       -0.120598495 -0.072995484 -0.19059888 -0.1302239
000210 5c d3 1e 3e a0 35 40 3d ac e8 33 3e 25 7b 8c 3f
       0.15510315 0.04692614 0.17569226 1.0975081
000220 68 7a c6 bd 91 4b 74 3f 88 20 2c 3e 63 47 3b be
       -0.09691316 0.95427805 0.16809285 -0.1828895
000230 30 fc 4f 3f a1 b9 96 3f c0 0a 90 3f 7a cf a7 bd
       0.8124418 1.17754 1.1253281 -0.0819387
000240 63 d8 be bc 08 9d d0 3d 76 5e fc bd bd c1 30 be
       -0.02329654 0.10186201 -0.123227045 -0.17261405
000250 ce 4a 1f 3e 06 50 49 3e d0 fd ce bc 92 c0 5c 3e
       0.1555588 0.19659433 -0.025267512 0.21557835
000260 22 a9 2e be 8f a3 1e 3c c6 5d a5 bc 81 36 4c 3f
       -0.17056707 0.00968255 -0.020186316 0.79770666
000270 cf 9e 92 3d 5b 91 49 3f ba 08 2a 3e 6b 25 3b 3e
       0.071591966 0.7873742 0.16604891 0.18275993
000280 b1 df df bd 86 29 6e be 03 3b a0 3d 85 fe 4e be
       -0.109313376 -0.23258027 0.078237556 -0.20214279
000290 2a 98 52 3e ec bd 23 3e 49 05 46 bd 85 4e 98 3d
       0.20565858 0.15990418 -0.048344884 0.074368514
0002a0 6a 93 54 3e c0 0f 0c 3d ff dc 55 be a4 de c5 bd
       0.20759359 0.034194708 -0.20885085 -0.09661606
0002b0 98 9b eb bc d6 71 3c 3e 2c a1 3d be c1 63 09 3d
       -0.028760716 0.184028 -0.18518513 0.0335424
0002c0 9b 67 b0 3d 18 77 09 be ef 75 3d be 35 68 0e be
       0.08613511 -0.13424337 -0.1850202 -0.1390694
0002d0 b5 30 ba bb 45 5e ce 3d 4b af 56 be 18 2e 28 3e
       -0.005682076 0.10076574 -0.20965306 0.16423833
0002e0 fb e2 ad 3d 78 74 ec 3d ad 57 1e be 43 40 e0 bd
       0.08490559 0.11545652 -0.15463133 -0.10949757
0002f0 5f c8 fc 3d d9 df 5e bd dd df 2b 3e 78 82 29 3e
       0.12342905 -0.054412697 0.16784616 0.16553676
000300 74 1b f4 3d d9 eb 68 be c7 51 ad bd 88 fc fa bd
       0.11919299 -0.22746219 -0.084628634 -0.12255198
000310 a9 3e 5d bc 3b e0 61 be c0 0c 6a 3d 78 a4 d5 3d
       -0.013503709 -0.22058193 0.057141066 0.104317605

bias f4 [10]
000000 df 25 dc bd e9 2a 14 be b8 07 92 3f 0d d1 a1 3f
       -0.10749411 -0.14469494 1.1408606 1.2641922
000010 de 3d 9c 3f 50 bb 5e 3f 35 90 86 3f 76 73 8c 3f
       1.220638 0.87004566 1.0512758 1.0972736
000020 6c 6a 3a 3c 76 54 14 3d
       0.011377912 0.03621336

weight f4 [1, 10]
000000 dc a7 86 be 10 b6 d7 3d 98 64 9f 3f c8 54 a2 3f
       -0.26299942 0.105327725 1.2452574 1.2682123
000010 6f 89 97 3f fc 49 98 3f da 5d 89 3f 13 3e 8a 3f
       1.1838816 1.1897578 1.0731766 1.0800194
000020 da eb 35 be 42 8a 86 be
       -0.17765751 -0.26277357
