mwo/models/trained_vfa_models/model_horizon_120_lr_0.001_long_egr_adp_14k_greedy_19k.pth (torch_old, 17104 bytes, 7 tensors)

weight f4 [30, 25]
-0.26412976 0.6135925 0.7589378 0.64257836 0.6969498 0.25221348 0.64444 0.30445135
0.64249384 0.34861922 0.74697334 0.4081491 0.66550446 0.6276633 0.56669575 0.31744885
0.3623312 0.5048428 0.31100032 0.3993007 0.5820627 0.17078766 0.47287476 0.45630768
-1.0906078 -0.009843416 0.84104 0.9623955 0.8041135 0.7874546 0.14501706 0.6781573
0.09724457 0.6935723 0.065655775 0.8864761 0.3465253 0.50201815 0.7695915 0.72041935
0.10901761 0.45857692 0.037949726 0.28986803 0.3384359 0.6547009 0.26456255 0.42809406
0.14774662 -1.1400453 -0.36280394 0.60416496 1.0066413 0.68718433 0.70146596 -0.22161952
0.6292969 -0.076983504 0.7918506 0.1521034 0.75547105 0.2821622 0.42879096 0.27367112
0.8273681 0.29250267 0.12164718 0.485948 0.19845116 0.6230925 0.4245726 0.08569125
0.23764019 0.5212095 -0.74443084 -0.4776337 0.62269455 0.846678 0.6588719 0.5420415
-0.21529436 0.85408646 -0.30069888 0.7363038 -0.0069763917 0.765601 -0.0851282 0.7522487
0.52168465 0.5759472 0.29263276 0.26193115 0.04407433 0.40801868 0.14706443 0.8048386
-0.1631642 0.24485742 0.12069393 -1.0122942 -0.30214396 1.0256016 0.93127483 0.7740921
0.92133313 -0.07604649 0.53163445 0.002878281 0.8538353 0.096238665 0.8883818 0.18258545
0.89071834 0.780781 0.8172439 0.104753226 0.2967093 0.5716993 0.22261828 0.10852398
0.65556854 -0.069352314 0.7298749 0.4466728 -1.0185697 -1.8277842 -1.3721426 1.2261485
0.4494644 -0.8695675 -1.3975989 -0.84281075 -1.0228807 -0.88737214 -0.9564944 -1.1180811
-0.73404366 -0.8977416 -1.5469 -1.1906214 -1.469175 -0.5293284 0.3494199 -0.3885062
0.35128102 -1.069545 -1.4457642 -1.422671 -0.45140436 0.4410014 -0.22674438 0.804796
0.6845998 0.7281324 0.7389817 0.061704736 0.6395031 0.20045322 0.71874845 0.28373754
0.5091858 0.23989116 0.7268583 0.53101903 0.80863106 0.052324638 0.23897313 0.12467485
0.4198673 0.5401358 0.8671337 0.18868022 0.58220506 0.2861021 -0.8927431 -1.8745414
-1.5931674 1.6090896 1.1276654 -0.674426 -1.2157822 -0.55499536 -0.6405232 -1.0285119
-0.6499575 -0.89296246 -0.6319864 -1.0107594 -1.5059942 -1.1003006 -1.2426037 -0.71428007
0.69611907 -0.58583206 0.79918116 -1.0750107 -0.7722292 -1.196673 -0.20487548 0.6063502
0.00640428 0.74463266 0.9150992 0.6202447 0.6889866 0.27120513 0.5404622 0.27957627
0.5265572 0.45402247 0.88050485 0.3255103 0.81656396 0.43277976 0.6868958 0.038815007
0.5970796 0.16103385 0.2898826 0.26612842 0.5464552 0.14560927 0.5439158 0.56371987
-0.9843097 -0.15414496 1.0055892 0.83621293 0.9536696 0.5865071 -0.002055281 0.6399228
0.12830466 0.5913057 0.15200497 0.6211198 0.041993704 0.5110645 0.4162765 0.6787208
0.32320195 0.49829125 0.14943483 0.498486 -0.07058659 0.7130473 0.24402109 0.47667563
0.30329973 -1.0041158 -0.19103466 0.7520713 0.9951247 0.9126996 0.60762787 0.07915712
00000000: 043c 87be 6614 1d3f bf49 423f 0480 243f
00000010: 4d6b 323f 2022 813e 05fa 243f 0ce1 9b3e
00000020: 7a7a 243f 387e b23e a539 3f3f ebf8 d03e
00000030: 805e 2a3f 8bae 203f f912 113f a888 a23e
00000040: 7a83 b93e 613d 013f 6f3b 9f3e 2471 cc3e
00000050: 1002 153f f6e2 2e3e a41c f23e 29a1 e93e
00000060: 0999 8bbf 4746 21bc 664e 573f 8d5f 763f
00000070: 62da 4d3f a096 493f 5a7f 143e b89b 2d3f
00000080: 2928 c73d f48d 313f 8976 863d 19f0 623f
00000090: c46b b13e 4384 003f f303 453f 676d 383f
000000a0: a044 df3d 98ca ea3e 2c71 1b3d 9569 943e
000000b0: 7847 ad3e 7a9a 273f be74 873e 252f db3e
000000c0: e44a 173e 01ed 91bf 70c1 b9be 8eaa 1a3f
000000d0: 9fd9 803f 50eb 2f3f 4693 333f 3af0 62be
000000e0: 9a19 213f 87a9 9dbd b9b6 4a3f fec0 1b3e
000000f0: 8d66 413f 9077 903e 7d8a db3e 9f1e 8c3e
00000100: 65ce 533f e9c2 953e 2822 f93d 2dce f83e
00000110: c836 4b3e fd82 1f3f 9461 d93e e57e af3d
00000120: f357 733e fc6d 053f 0593 3ebf 688c f4be
00000130: e968 1f3f e4bf 583f d4ab 283f 3bc3 0a3f
00000140: 2076 5cbe 69a5 5a3f 34f5 99be 687e 3c3f
00000150: 379a e4bb 6dfe 433f b257 aebd 5f93 403f
00000160: 208d 053f 4771 133f f6d3 953e d71b 863e
00000170: 4987 343d d3e7 d03e 0f98 163e e709 4e3f
00000180: 8414 27be e7bb 7a3e 612e f73d db92 81bf
00000190: 9db2 9abe ea46 833f 0768 6e3f e62a 463f
000001a0: 7ddc 6b3f 43be 9bbd 3219 083f 8ba1 3c3b
000001b0: f394 5a3f c718 c53d fd6c 633f aef7 3a3e
000001c0: 1e06 643f 43e1 473f e536 513f dc88 d63d
000001d0: 48ea 973e e35a 123f 0cf6 633e d241 de3d
000001e0: 57d3 273f 9608 8ebd 15d9 3a3f 4cb2 e43e
000001f0: 7e60 82bf d5f4 e9bf 5ea2 afbf 6ff2 9c3f
00000200: 3320 e63e fa9b 5ebf 85e4 b2bf 72c2 57bf
00000210: c1ed 82bf d22a 63bf d1dc 74bf 481d 8fbf
00000220: 49ea 3bbf 65d2 65bf d200 c6bf 4866 98bf
00000230: ed0d bcbf 1182 07bf 2ae7 b23e 49ea c6be
00000240: 1bdb b33e dae6 88bf cd0e b9bf 151a b6bf
00000250: 791e e7be efca e13e ae2f 68be 1c07 4e3f
00000260: ef41 2f3f e366 3a3f e82d 3d3f 1bbe 7c3d
00000270: 7ab6 233f 9c43 4d3e e6ff 373f 0c46 913e
00000280: 005a 023f 07a6 753e 6313 3a3f ddf0 073f
00000290: 7202 4f3f 5c52 563d 5fb5 743e 8755 ff3d
000002a0: d9f8 d63e 5746 0a3f 79fc 5d3f 6335 413e
000002b0: 640b 153f f97b 923e d08a 64bf f9f0 efbf
000002c0: e9ec cbbf a6f6 cd3f 5757 903f 2fa7 2cbf
000002d0: c09e 9bbf 2d14 0ebf 54f9 23bf 47a6 83bf
000002e0: 9d63 26bf 3099 64bf dcc9 21bf 9060 81bf
000002f0: 6bc4 c0bf a6d6 8cbf a30d 9fbf 0fdb 36bf
00000300: dc34 323f 17f9 15bf 2397 4c3f f399 89bf
00000310: d0b0 45bf 952c 99bf e1ca 51be c439 1b3f
00000320: ffda d13b 3fa0 3e3f f143 6a3f 5bc8 1e3f
00000330: 6d61 303f 66db 8a3e bb5b 0a3f 9f24 8f3e
00000340: 74cc 063f a275 e83e c468 613f 49a9 a63e
00000350: 560a 513f 4f95 dd3e 67d8 2f3f 7cfc 1e3d
00000360: 35da 183f 0fe6 243e 7e6b 943e fc41 883e
00000370: 7de4 0b3f 991a 153e 113e 0b3f f24f 103f
00000380: b8fb 7bbf 2dd8 1dbe 26b7 803f 0d12 563f
00000390: b123 743f 5425 163f e5b1 06bb fbd1 233f
000003a0: 4c62 033e cf5f 173f 31a7 1b3e b501 1f3f
000003b0: 9701 2c3d 20d5 023f 3222 d53e a5c0 2d3f
000003c0: ba7a a53e 0820 ff3e 7205 193e 8f39 ff3e
000003d0: b48f 90bd 458a 363f aae0 793e d40e f43e
000003e0: 1a4a 9b3e de86 80bf 979e 43be bf87 403f
000003f0: 7ec0 7e3f aea6 693f 808d 1b3f 211d a23d

bias f4 [30]
0.90651816 1.0790707 1.0736548 0.8714169 1.1035308 1.6316997 0.95584536 1.8665706
0.8345343 1.0730503 0.8261596 1.1058671 0.8680975 1.0729995 1.0213364 0.9989965
1.0872136 0.9519529 0.7980095 1.1426221 0.98182845 1.1918128 1.0917724 1.0162855
0.99015033 1.0957342 0.8262387 1.0898324 0.7681899 0.87324965
00000000: 9311 683f fd1e 8a3f 856d 893f 2e15 5f3f
00000010: 7f40 8d3f 89db d03f 48b2 743f c9eb ee3f
00000020: 0aa4 553f b659 893f 327f 533f 0e8d 8d3f
00000030: a33b 5e3f 0c58 893f 27bb 823f 3cbe 7f3f
00000040: d129 8b3f 2fb3 733f 5a4a 4c3f 7141 923f
00000050: 1c59 7b3f 528d 983f 33bf 8b3f a515 823f
00000060: 7e7a 7d3f 0541 8c3f 6184 533f a17f 8b3f
00000070: 18a8 443f 4a8d 5f3f

weight f4 [20, 30]
0.59290934 0.51291895 0.738245 0.58127666 0.49443173 1.2570868 0.73808676 1.3144926
0.6660445 0.54358697 0.5068525 0.70219916 0.7899435 0.5358488 0.82077 0.57098967
0.51982117 0.70025665 0.5183462 0.51860034 0.7708081 0.7278373 0.84939396 0.74518764
0.6132542 0.7965029 0.55077595 0.48454523 0.54720294 0.5518682 0.6653121 0.64621484
0.5889495 0.82761097 0.7522171 1.4184126 0.64491534 1.2845684 0.59657085 0.8145451
0.81387526 0.9410162 0.7719504 0.6500602 0.7245266 0.8104849 0.8295869 0.7084688
0.4573234 0.743041 0.6855782 0.8507797 0.60796416 0.7731425 0.8121668 0.8518325
0.78644586 0.6189056 0.7634509 0.65168065 0.71569616 0.63473886 0.87973225 0.7562339
0.6180447 1.3279289 0.53847206 1.4967872 0.603242 0.7639119 0.59672296 0.91080403
0.6515042 0.6739667 0.5055783 0.6406699 0.79489535 0.81686324 0.69329953 0.8437211
0.6623956 0.58954966 0.8566037 0.7275206 0.6884154 0.7992262 0.4947963 0.6196293
0.54574513 0.77415556 0.52408534 0.74120593 0.9159626 0.7860106 0.5987799 1.338554
0.8173057 1.3747507 0.6089114 0.7231716 0.86254877 0.8463605 0.78588355 0.69533235
0.56138104 0.75198704 0.85251874 0.62445194 0.50033957 0.61847466 0.7783828 0.6286338
0.7300841 0.7719907 0.7185494 0.532402 0.6862761 0.7166289 0.81072855 0.78717333
-0.15883055 -0.009512618 -0.19494034 -0.105952494 -0.17878541 -0.06962322 -0.07225928 0.019093372
0.04292223 -0.11858248 0.13724475 -0.23016748 -0.13585453 0.033119526 0.06486746 0.105490066
0.0573565 0.15382315 -0.09289449 -0.004215162 -0.16234006 -0.20303398 0.09529901 0.01455414
0.14115393 -0.21070476 -0.046960704 0.054242052 -0.06654522 -0.10811294 0.8156609 0.5196324
0.7062479 0.76736134 0.5944686 1.3358315 0.6145318 1.4079136 0.47143814 0.55374485
0.81773365 0.7401485 0.63303477 0.6980466 0.775332 0.874318 0.686913 0.84373635
0.60512996 0.77726454 0.7255442 0.89836884 0.8194697 0.84371704 0.55387586 0.6453736
0.5009774 0.52725947 0.7642399 0.47808304 0.6628179 0.5238368 0.6518353 0.84911567
0.505617 1.3978566 0.5873085 1.3267281 0.5798814 0.5562326 0.69831175 0.85953885
0.8733076 0.7515837 0.6771283 0.6051227 0.57458264 0.52737904 0.54778844 0.7952384
0.7599225 0.5666233 0.79906464 0.61567444 0.7833925 0.74994373 0.6161456 0.69008917
0.5800857 0.71295553 0.6836363 0.7495864 0.6628075 0.7590028 0.5518171 1.4809252
0.6641239 1.4739535 0.77885383 0.5977311 0.5382037 0.9619978 0.83540976 0.5770959
0.7935378 0.67043895 0.85876036 0.6138601 0.56319827 0.50721645 0.7467286 0.7482159
0.6645335 0.62963724 0.5241805 0.70985997 0.78057975 0.75891554 0.49577272 0.6448553
0.698124 0.66942275 0.629311 0.6638773 0.84738815 1.4916782 0.77964294 1.5975204
0.49444956 0.5863584 0.7694962 0.7770684 0.6452506 0.7076426 0.6743367 0.78135777
00000000: e8c8 173f a84e 033f a0fd 3c3f 8cce 143f
00000010: 2826 fd3e 38e8 a03f 41f3 3c3f 4b41 a83f
00000020: e481 2a3f 8428 0b3f 16c1 013f 53c3 333f
00000030: bd39 4a3f 632d 093f fc1d 523f 612c 123f
00000040: 0013 053f 0544 333f 56b2 043f fec2 043f
00000050: ae53 453f 8c53 3a3f e271 593f 9ec4 3e3f
00000060: 3afe 1c3f 9de7 4b3f a7ff 0c3f 5016 f83e
00000070: 7e15 0c3f 3c47 0d3f e551 2a3f 566e 253f
00000080: 65c5 163f 50de 533f 4d91 403f 8b8e b53f
00000090: 2c19 253f bd6c a43f deb8 183f 0786 503f
000000a0: 215a 503f 70e6 703f 8b9e 453f 586a 263f
000000b0: 937a 393f f07b 4f3f cf5f 543f 365e 353f
000000c0: 4b26 ea3e ef37 3e3f 0e82 2f3f b3cc 593f
000000d0: 8aa3 1b3f abec 453f 2aea 4f3f b211 5a3f
000000e0: 8454 493f 9970 1e3f 8571 433f 8bd4 263f
000000f0: dd37 373f 3f7e 223f 2236 613f 8b98 413f
00000100: 2d38 1e3f 93f9 a93f 4ed9 093f b996 bf3f
00000110: 116e 1a3f bb8f 433f d6c2 183f 742a 693f
00000120: fbc8 263f 1589 2c3f 946d 013f f102 243f
00000130: 437e 4b3f f31d 513f 147c 313f 1bfe 573f
00000140: c292 293f baec 163f 614a 5b3f ca3e 3a3f
00000150: fe3b 303f 179a 4c3f f155 fd3e 07a0 1e3f
00000160: f4b5 0b3f 0f2f 463f 752a 063f acbf 3d3f
00000170: 867c 6a3f fe37 493f a449 193f bd55 ab3f
00000180: f23a 513f d5f7 af3f 9ee1 1b3f c621 393f
00000190: ffcf 5c3f 15ab 583f aa2f 493f 4d01 323f
000001a0: abb6 0f3f 3982 403f ab3e 5a3f 15dc 1f3f
000001b0: 4116 003f 5b54 1e3f 1844 473f 25ee 203f
000001c0: cbe6 3a3f 2fa1 453f daf2 373f 7f4b 083f
000001d0: caaf 2f3f fe74 373f e88b 4f3f 3184 493f
000001e0: 7aa4 22be d0da 1bbc 719e 47be 9ffd d8bd
000001f0: 8613 37be 9e96 8ebd acfc 93bd b469 9c3c
00000200: 38cf 2f3d 5fdb f2bd e389 0c3e 06b1 6bbe
00000210: 731d 0bbe 57a8 073d 3bd9 843d 2d0b d83d
00000220: a6ee 6a3d d183 1d3e 773f bebd 571f 8abb
00000230: 793c 26be 24e8 4fbe 212c c33d 7d74 6e3c
00000240: a88a 103e fdc2 57be de59 40bd ea2c 5e3d
00000250: dc48 88bd 516a ddbd 27cf 503f a106 053f
00000260: aacc 343f cb71 443f 182f 183f 87fc aa3f
00000270: f551 1d3f 8336 b43f 5760 f13e 39c2 0d3f
00000280: fe56 513f 5f7a 3d3f 910e 223f 2fb3 323f
00000290: 287c 463f 4ed3 5f3f 88d9 2f3f 1bff 573f
000002a0: cce9 1a3f cffa 463f 44bd 393f 80fb 653f
000002b0: c4c8 513f d7fd 573f cfca 0d3f 3437 253f
000002c0: 0e40 003f 7afa 063f 3aa5 433f 4dc7 f43e
000002d0: 6fae 293f 2b1a 063f aede 263f a55f 593f
000002e0: 1e70 013f f7ec b23f da59 163f 3ad2 a93f
000002f0: 1c73 143f 4265 0e3f 8fc4 323f bd0a 5c3f
00000300: 1691 5f3f ca67 403f 4858 2d3f 52e9 1a3f
00000310: d917 133f 5002 073f dd3b 0c3f be94 4b3f
00000320: 488a 423f 390e 113f 808f 4c3f d79c 1d3f
00000330: 698c 483f 50fc 3f3f b8bb 1d3f afa9 303f
00000340: 7f80 143f 4184 363f ca02 2f3f e5e4 3f3f
00000350: c1ad 293f 024e 423f e343 0d3f f58e bd3f
00000360: 0604 2a3f 82aa bc3f f762 473f e804 193f
00000370: b8c7 093f 7d45 763f 6add 553f 8fbc 133f
00000380: 4b25 4b3f e3a1 2b3f b8d7 5b3f ef25 1d3f
00000390: c32d 103f f0d8 013f 9b29 3f3f 148b 3f3f
000003a0: de1e 2a3f e82f 213f b130 063f 62b9 353f
000003b0: 13d4 473f 4a48 423f ecd5 fd3e 3d15 253f
000003c0: 41b8 323f 4a5f 2b3f 871a 213f ddf3 293f
000003d0: 6eee 583f 50ef be3f ae96 473f 8c7b cc3f
000003e0: 7e28 fd3e 961b 163f b4fd 443f f4ed 463f
000003f0: 252f 253f 1128 353f 54a1 2c3f 1007 483f

bias f4 [20]
0.9529872 0.93503255 1.0278494 0.90667135 0.0066351867 0.8928748 1.0645835 1.0361812
0.89795405 0.7609018 0.9113121 1.0323087 0.15386616 0.98335177 1.0582572 0.93035924
1.043113 -0.1108499 0.87778705 0.83418167
00000000: f8f6 733f 4b5e 6f3f 9290 833f 9d1b 683f
00000010: fb6b d93b 7193 643f 4644 883f 96a1 843f
00000020: 51e0 653f 76ca 423f c04b 693f b122 843f
00000030: 178f 1d3e f1bc 7b3f f974 873f 062c 6e3f
00000040: ba84 853f 4605 e3bd a7b6 603f ee8c 553f

weight f4 [10, 20]
-0.10309083 -0.21747085 0.043540753 -0.12290638 -0.1518982 -0.036627777 -0.059308782 0.08730181
-0.14573304 0.11027185 -0.2031392 -0.01263214 0.16274548 0.016397385 -0.039645817 0.11037168
-0.026226897 -0.020451643 0.08844443 0.077903844 -0.01707326 0.058181554 -0.23463416 -0.044447307
0.19122267 0.08331639 0.047259 -0.24471149 -0.055613372 0.1013341 0.16768774 0.060833436
0.12518086 -0.06176371 0.15166879 0.08457148 0.12525192 -0.11805686 -0.19988245 -0.2077105
-0.033799067 -0.20380287 -0.16259229 -0.09370144 -0.06566231 -0.038578287 0.09556022 0.17889094
0.0087194 -0.16461667 -0.07134153 -0.19352672 -0.21666741 -0.22227389 -0.18101388 -0.08558439
0.13925016 -0.22019453 -0.20897737 -0.039663717 0.14452688 0.11763929 0.0731568 -0.17864192
-0.042015277 -0.19181909 -0.01228411 -0.24929553 0.14289783 -0.1249342 -0.11336252 -0.17226167
-0.09698919 -0.09139356 -0.045572065 0.14845273 -0.25634623 0.06615677 -0.09384258 -0.12213224
0.6674425 0.9263287 0.8487071 0.6578638 -0.0829072 0.7631963 0.5331192 0.7948876
0.58600414 0.6764248 0.6112192 0.5270527 -0.008041519 0.5514881 0.6612829 0.8148437
0.69361883 0.08597371 0.93202764 0.709845 -0.005784498 0.14922124 0.16221347 0.008987407
-0.09656838 -0.19959828 0.06837167 -0.02309043 -0.17144547 -0.10688369 -0.05839729 -0.12796615
0.156433 -0.104889944 0.1609593 0.17267756 -0.09017339 -0.19470073 0.018546542 0.12865743
0.6415754 0.9631315 0.75610197 0.65552866 -0.11670681 0.7449913 0.6048176 0.73042125
0.8593702 0.69020057 0.66463643 0.88305074 -0.12911925 0.9121841 0.75002414 0.94200134
0.903176 -0.116376 0.89376265 0.6567316 0.004995446 -0.23204295 0.03272713 0.116608694
-0.101690926 0.12745716 0.15963912 0.19604962 -0.10996533 -0.07903657 -0.19755729 -0.15062164
0.14405754 0.037748884 -0.21228996 -0.10212724 -0.25194895 -0.10684482 0.070772424 0.17535515
0.7900237 0.75095046 0.70929396 0.7818085 0.021500964 0.91536754 0.93585306 0.78913575
0.89244175 0.6867974 0.6546865 0.6937906 -0.08760887 0.853673 0.69452953 0.75559026
0.9134373 -0.1627685 0.7289704 0.9524121 0.73190665 0.83421874 0.9377416 0.63687855
-0.029968709 0.722126 0.61278826 0.8739388 0.8795689 0.6878403 0.8246548 0.9101295
0.14492984 0.69633687 0.9171536 0.7249388 0.7033913 0.10172094 0.83791405 0.75017375
00000000: 4921 d3bd aeb0 5ebe ca57 323d 57b6 fbbd
00000010: 348b 1bbe 0207 16bd c4ed 72bd 4bcb b23d
00000020: 0b3b 15be 35d6 e13d b903 50be 09f7 4ebc
00000030: c0a6 263e cf53 863c a763 22bd 8c0a e23d
00000040: cad9 d6bc 348a a7bc 5a22 b53d 0d8c 9f3d
00000050: 39dd 8bbc c84f 6e3d f043 70be 610e 36bd
00000060: e0cf 433e c9a1 aa3d a792 413d a695 7abe
00000070: d9ca 63bd 4188 cf3d 56b6 2b3e 7b2c 793d
00000080: 692f 003e f2fb 7cbd 104f 1b3e d033 ad3d
00000090: 0a42 003e ccc7 f1bd fcad 4cbe 10b2 54be
000000a0: e470 0abd b3b1 50be 987e 26be 8ae6 bfbd
000000b0: f679 86bd 4404 1ebd 14b5 c33d 302f 373e
000000c0: d0db 0e3c 4691 28be 821b 92bd de2b 46be
000000d0: 10de 5dbe c49b 63be b45b 39be de46 afbd
000000e0: 9897 0e3e ad7a 61be 2afe 55be 6c76 22bd
000000f0: dbfe 133e deec f03d 3bd3 953d e8ed 36be
00000100: 3618 2cbd 396c 44be 4b43 49bc 5447 7fbe
00000110: cf53 123e 80dd ffbd 9c2a e8bd 5d65 30be
00000120: 45a2 c6bd 8c2c bbbd c6a9 3abd fe03 183e
00000130: d03f 83be 337d 873d 8a30 c0bd 7820 fabd
00000140: 83dd 2a3f e123 6d3f de44 593f c369 283f
00000150: 40cb a9bd d560 433f 807a 083f c17d 4b3f
00000160: 5e04 163f 2d2a 2d3f dd78 1c3f edec 063f
00000170: 93c0 03bc 532e 0d3f d649 293f 9999 503f
00000180: 0191 313f fc12 b03d 5d99 6e3f 67b8 353f
00000190: e38b bdbb 74cd 183e 4a1b 263e eb3f 133c
000001a0: a5c5 c5bd 7e63 4cbe 7206 8c3d 2428 bdbc
000001b0: 678f 2fbe d6e5 dabd ff31 6fbd 8f09 03be
000001c0: f92f 203e 8ad0 d6bd 84d2 243e 63d2 303e
000001d0: d4ac b8bd a15f 47be ebee 973c c6be 033e
000001e0: 493e 243f c98f 763f e68f 413f bad0 273f
000001f0: fb03 efbd c0b7 3e3f 54d5 1a3f e3fc 3a3f
00000200: afff 5b3f fcb0 303f 9d25 2a3f 9d0f 623f
00000210: d637 04be e684 693f 9501 403f 0027 713f
00000220: 8b36 673f 8a56 eebd a1cd 643f 901f 283f
00000230: d7b0 a33b ab9c 6dbe e20c 063d 8ad0 ee3d
00000240: 5543 d0bd 2184 023e 7078 233e 3bc1 483e
00000250: 8135 e1bd eddd a1bd 754c 4abe 8f3c 1abe
00000260: d283 133e 939e 1a3d 8a62 59be 1628 d1bd
00000270: 74ff 80be 75d1 dabd 22f1 903d 4d90 333e
00000280: fe3e 4a3f 4a3e 403f 4a94 353f 9a24 483f
00000290: ca22 b03c 8755 6a3f 1194 6f3f cd04 4a3f
000002a0: 1077 643f f4d1 2f3f 8999 273f 439c 313f
000002b0: 476c b3bd 508a 5a3f b0cc 313f 5d6e 413f
000002c0: 07d7 693f c9ac 26be ce9d 3a3f 48d1 733f
000002d0: 3c5e 3b3f 5c8f 553f d50f 703f 790a 233f
000002e0: f080 f5bc 40dd 383f b1df 1c3f 74ba 5f3f
000002f0: 6d2b 613f 4d16 303f 941c 533f 3ffe 683f
00000300: 7d68 143e 2243 323f 94ca 6a3f 9795 393f
00000310: 7411 343f 1153 d03d 8981 563f 630b 403f

bias f4 [10]
0.05204146 0.10980029 -0.039011493 0.18077813 0.5604169 0.0005641154 0.9483973 -0.04537096
0.7806571 0.65782005
00000000: 6d29 553d f9de e03d 84ca 1fbd e71d 393e
00000010: 7b77 0f3f 25e1 133a 2aca 723f e6d6 39bd
00000020: 25d9 473f e566 283f

weight f4 [1, 10]
-0.13701937 -0.26050687 0.22850224 -0.22782175 0.7678621 -0.19042297 0.7533419 -0.18194564
0.9352037 0.9503242
00000000: ce4e 0cbe 2861 85be 7efc 693e 1b4a 69be
00000010: 9c92 443f 3dfe 42be 04db 403f f54f 3abe
00000020: 8269 6f3f 7248 733f
