mwo/models/trained_vfa_models/model.pth (torch_old, 4732 bytes, 7 tensors)

layers.0.weight f4 [20, 25]
1.1578782 1.2311707 1.0819474 1.224586 -3.1059196 1.3498961 -1.4111854 1.0128394
-1.1906896 1.1557119 -0.44762477 1.3072561 12.721096 4.7904305 -1.2172574 1.0685451
-1.3946306 1.0098126 -1.3335124 1.1941838 -1.5887313 1.3348293 -2.7839255 1.014476
-22.591532 0.9135715 1.1622322 1.0362473 1.0736107 -2.3106606 0.7883955 -1.2220749
1.0455629 -0.8749888 0.86301506 -17.084984 0.85131156 7.824389 1.4534523 -3.8651915
0.9742262 -3.4097629 1.1339988 -8.829869 0.88698083 -1.4494859 0.94255984 3.4687269
0.7779054 -6.4625254 -0.05843106 0.14788295 0.114721015 0.099296376 -0.12644191 -0.10260015
-0.14032665 -0.1925423 0.13852362 -0.0670369 0.05000697 -0.055537894 -0.082087256 -0.03212671
0.13107331 0.17921509 0.0696653 0.08536805 0.19685711 -0.17057684 -0.11150813 -0.18921864
0.14783461 0.004315898 0.07457374 1.0652516 1.2734253 1.2844958 0.9816017 -2.48769
1.0794225 -1.2182443 1.0168855 -1.1448936 1.1847026 -17.210756 1.278201 7.8753557
1.7043494 -3.9523659 1.166407 -3.791697 1.3233135 -9.123153 1.1348552 -1.9120154
1.236914 4.0287623 1.0098665 -6.5862184 2.066645 1.847516 2.152055 2.1904411
-2.0281968 2.0757735 -2.0249739 1.8561326 -2.168786 1.9471337 1.9216405 1.9685225
-1.9989734 1.8450812 -2.1333623 2.120221 -2.1957881 1.8793628 -1.7950495 1.8704333
-1.8104883 2.2041447 1.9668866 1.8877698 2.0767293 0.027720973 -0.0022311509 0.026216581
0.10905887 -0.058734775 -0.12655708 0.042218715 -0.059134036 0.08822687 0.16578834 -0.03142941
-0.11267378 -0.14721033 0.19281374 -0.18230417 -0.049757212 0.18624212 -0.10607543 0.113620594
0.018678993 -0.17943494 0.11422525 -0.10633514 -0.18121569 -0.13656135 0.7500338 0.51787287
0.74014556 0.66473687 -0.45864275 0.43389034 -0.706491 0.5583129 -0.51126546 0.6087676
0.7344816 0.7330708 -0.46452928 0.53666854 -0.5744623 0.65975213 -0.7539312 0.72050434
-0.7784469 0.5809288 -0.6968581 0.44117677 0.44224828 0.46788022 0.5466984 0.8448395
1.0928396 0.7850704 0.8967808 -2.2407064 1.1473123 -1.2187648 0.8058913 -0.6253783
1.1045103 -17.022675 0.9311081 7.782837 1.7961491 -4.002909 1.1572292 -3.5772555
0.9180139 -8.705267 0.8899034 -1.6289136 0.91916686 3.4931033 0.99585974 -6.548141
0.5553012 0.6852598 0.5893244 0.47936863 -0.57147336 0.49151683 -0.7377655 0.56244457
-0.48720312 0.6526209 0.67094463 0.47503567 -0.7556347 0.64036095 -0.4053618 0.4598229
-0.6870532 0.5942724 -0.5067944 0.5411647 -0.40629712 0.6293602 0.74829286 0.7198882
0.59285986 0.05165468 0.117077515 -0.16746683 -0.1847149 -0.15307713 -0.17366467 -0.093805246
0.025043935 0.18084337 0.12484516 -0.014749289 0.119809374 0.06297414 -0.04430589 0.0877312
-0.11867621 -0.01765041 0.02918768 -0.08433695 0.18944205 0.030416295 -0.04838243 0.12596895
-0.018290967 0.004806787 -0.043361664 -0.107316926 0.13135923 0.17952232 -0.10905166 -0.13111289
00000000: 5a35 943f 0097 9d3f 417d 8a3f 3cbf 9c3f
00000010: 63c7 46c0 65c9 ac3f b9a1 b4bf b9a4 813f
00000020: 8468 98bf 5eee 933f 132f e5be 2b54 a73f
00000030: 9c89 4b41 354b 9940 17cf 9bbf 16c6 883f
00000040: 4183 b2bf 8a41 813f 89b0 aabf 04db 983f
00000050: 8c5b cbbf b0db aa3f d62b 32c0 59da 813f
00000060: 75bb b4c1 d2df 693f 06c4 943f c0a3 843f
00000070: 136c 893f dde1 13c0 4ad4 493f f36c 9cbf
00000080: 01d5 853f 44ff 5fbf 8eee 5c3f 0cae 88c1
00000090: 8eef 593f 6561 fa40 ba0a ba3f 4c5f 77c0
000000a0: e366 793f 8e39 5ac0 df26 913f 2547 0dc1
000000b0: 2d11 633f c188 b9bf 9a4b 713f 9fff 5d40
000000c0: cf24 473f 02cd cec0 6855 6fbd a16e 173e
000000d0: daf2 ea3d e65b cb3d fd79 01be 0720 d2bd
000000e0: cab1 0fbe cf29 45be 23d9 0d3e a44a 89bd
000000f0: 1cd4 4c3d b47b 63bd 5d1d a8bd 4c97 03bd
00000100: 1538 063e 2984 373e aeac 8e3d 72d5 ae3d
00000110: e994 493e b2ab 2ebe 605e e4bd 88c2 41be
00000120: f561 173e 606c 8d3b 1eba 983d 2a5a 883f
00000130: 9aff a23f 5c6a a43f 404a 7b3f 5036 1fc0
00000140: 842a 8a3f 6eef 9bbf 4e29 823f e08b 92bf
00000150: 56a4 973f a1af 89c1 179c a33f ea02 fc40
00000160: 1f28 da3f 90f3 7cc0 d34c 953f 2aab 72c0
00000170: 5662 a93f 6ff8 11c1 ef42 913f ecbc f4bf
00000180: 3353 9e3f 9feb 8040 4e43 813f 4dc2 d2c0
00000190: e943 0440 677b ec3f 45bb 0940 3030 0c40
000001a0: facd 01c0 79d9 0440 2c99 01c0 c195 ed3f
000001b0: 64cd 0ac0 ad3b f93f 51f8 f53f 8cf8 fb3f
000001c0: 5cde ffbf 9f2b ec3f 0289 08c0 b3b1 0740
000001d0: cb87 0cc0 f68e f03f 2fc4 e5bf 5c6a ef3f
000001e0: 15be e7bf b510 0d40 f1c2 fb3f 71a2 f13f
000001f0: 22e9 0440 1817 e33c 8038 12bb 28c4 d63c
00000200: 425a df3d e093 70bd 2e98 01be 88ed 2c3d
00000210: 8836 72bd 4ab0 b43d 6bc4 293e 20bc 00bd
00000220: 83c1 e6bd 4ebe 16be f770 453e f2ad 3abe
00000230: 38ce 4bbd 41b6 3e3e 133e d9bd eab1 e83d
00000240: b004 993c cbbd 37be eeee e93d 3dc6 d9bd
00000250: 9b90 39be bdd6 0bbe 3702 403f 5193 043f
00000260: 2e7a 3d3f 322c 2a3f 39d3 eabe e026 de3e
00000270: 98dc 34bf 98ed 0e3f 4be2 02bf 32d8 1b3f
00000280: fc06 3c3f 87aa 3b3f c8d6 edbe 1c63 093f
00000290: f60f 13bf 84e5 283f a301 41bf f972 383f
000002a0: 4c48 47bf c0b7 143f 4b65 32bf ece1 e13e
000002b0: 5e6e e23e ff8d ef3e 6df4 0b3f 6747 583f
000002c0: 2be2 8b3f 60fa 483f 6d93 653f bc67 0fc0
000002d0: 21db 923f 7c00 9cbf e44e 4e3f cb18 20bf
000002e0: 9860 8d3f 702e 88c1 1a5d 6e3f 000d f940
000002f0: 37e8 e53f d517 80c0 1620 943f c1f1 64c0
00000300: f502 6b3f c648 0bc1 b6d0 633f 3e80 d0bf
00000310: 854e 6b3f 018f 5f40 aaf0 7e3f 5f8a d1c0
00000320: 3828 0e3f 306d 2f3f f7dd 163f ce6f f53e
00000330: 144c 12bf 18a8 fb3e 33de 3cbf 5efc 0f3f
00000340: b072 f9be 2a12 273f 07c3 2b3f e037 f33e
00000350: 4771 41bf b2ee 233f 958b cfbe e86d eb3e
00000360: b8e2 2fbf 3c22 183f 47bd 01bf c589 0a3f
00000370: 2d06 d0be c01d 213f 1f90 3f3f 984a 383f
00000380: aac5 173f dc93 533d 56c6 ef3d 6d7c 2bbe
00000390: e725 3dbe 40c0 1cbe 27d5 31be f71c c0bd
000003a0: f028 cd3c 012f 393e d2ae ff3d 00a7 71bc
000003b0: 9e5e f53d 96f8 803d 187a 35bd 6aac b33d
000003c0: 830c f3bd 9897 90bc 001b ef3c dab8 acbd
000003d0: 19fd 413e 982b f93c a82c 46bd 01fe 003e
000003e0: f0d6 95bc 4082 9d3b 009c 31bd fac8 dbbd
000003f0: 0983 063e b3d4 373e 7a56 dfbd 7542 06be

layers.0.bias f4 [20]
-1.398361 -1.3006288 -0.16975537 -1.4409263 -1.8443617 0.153722 -0.7559953 -1.1580005
-0.42673272 0.16992958 -0.14212199 -0.007386774 -1.4657754 0.0937811 -0.51672673 -0.7197915
-0.485189 -1.2131826 0.19874014 -1.1688172
00000000: 7efd b2bf 017b a6bf 5ad4 2dbe 4670 b8bf
00000010: 0b14 ecbf 4d69 1d3e e888 41bf 5c39 94bf
00000020: b67c dabe 0502 2e3e 6d88 11be c00c f2bb
00000030: 879e bbbf 4e10 c03d 3448 04bf 4144 38bf
00000040: b16a f8be 9149 9bbf 8982 4b3e cd9b 95bf

layers.1.weight f4 [10, 20]
8.849966 3.0314906 -0.056981593 2.1786325 2.614176 -0.15819877 -0.21286848 2.8440957
0.03916222 0.09931013 0.20350161 -0.21077225 7.6143985 -0.21309175 -0.12745392 -0.17873448
0.037108064 3.1952171 -0.12067841 5.058063 8.378748 3.396273 0.10465729 2.656331
2.3938572 -0.20501213 0.6103236 3.542611 0.7294603 -0.07025492 -0.05256164 0.21289149
7.398589 -0.15611619 0.38454208 0.7369703 0.63167787 3.583012 -0.16729993 5.112747
-2.9742932 0.05730018 0.057060182 0.15830955 -2.7727945 0.10610139 0.08263457 -0.14027235
0.04896477 -0.035672754 -0.095852315 -0.00784868 -2.9551256 0.20626247 -0.13864723 -0.21410374
-0.08371842 0.06366336 -0.21235934 -0.15580228 6.9723697 3.6388159 0.045814127 2.5864818
2.4174287 -0.13044709 0.64082545 3.5807662 0.7209454 -0.11911354 -0.012721285 0.21410912
5.881468 -0.15703435 0.5012694 0.4622488 0.5004744 3.6493583 0.114664495 5.5114665
-1.2000724 -1.27508 -0.0036133826 -1.3617898 -0.22157976 0.18286741 0.025097802 -1.2543168
0.078005135 0.18819815 -0.055319473 -0.0074689835 -1.7058274 0.21794876 0.06948316 -0.19074383
-0.14075764 -1.4263097 0.12519893 -1.5975864 -0.62646073 -0.61811316 -0.045094773 -0.7628215
-0.17188004 0.16576049 -0.4533497 -0.6699951 -0.53112626 0.03025943 -0.08025226 -0.12057768
-0.43359685 -0.20690776 -0.48931435 -0.726809 -0.52810454 -0.5313567 0.10355893 -0.6696764
8.275937 3.3948948 -0.0960868 2.3364859 2.2185693 -0.13204972 0.69539416 3.0839825
0.5202077 -0.12868004 -0.043056965 -0.07588941 7.213989 -0.12161726 0.7105248 0.6111293
0.5654516 3.461081 -0.050713345 5.1913905 -2.5371945 -0.10678538 -0.030161321 0.061300725
2.4404094 -0.0094907135 -0.19179095 -0.024472475 0.117177635 0.081808746 0.10167685 -0.12066449
-2.5244644 -0.032581344 0.055002123 -0.023311526 0.110764384 -0.12189 -0.08128744 0.1269775
6.7932878 3.5862443 -0.17708436 2.7750359 2.3323145 -0.08392766 0.5703056 3.5942862
0.38593233 0.17325878 -0.09319036 -0.13256404 5.6542287 -0.195918 0.48506257 0.5137553
0.56951106 3.472916 0.047333658 5.3852363 -2.0839932 -1.763364 -0.047975644 -1.697837
-0.082502425 0.028328836 0.13114932 -2.0413182 0.07395765 0.1722404 0.075454295 -0.152783
-1.7438115 0.21233949 0.054781526 -0.11463397 -0.1975987 -2.1099648 -0.10317333 -2.107776
00000000: 7699 0d41 f103 4240 8865 69bd b76e 0b40
00000010: a94e 2740 dcfe 21be 32fa 59be aa05 3640
00000020: 9068 203d 1c63 cb3d ba62 503e aed4 57be
00000030: 27a9 f340 b934 5abe 4883 02be 2c06 37be
00000040: a0fe 173d 707e 4c40 3e26 f7bd a7db a140
00000050: 5a0f 0641 895c 5940 9056 d63d 5401 2a40
00000060: f534 1940 b3ee 51be 2b3e 1c3f 23ba 6240
00000070: e9bd 3a3f d0e1 8fbd e04a 57bd 3a00 5a3e
00000080: 3ec1 ec40 ecdc 1fbe b3e2 c43e 16aa 3c3f
00000090: a4b5 213f 1250 6540 ac50 2bbe a09b a340
000000a0: d25a 3ec0 98b3 6a3d f0b7 693d e61b 223e
000000b0: 7775 31c0 b04b d93d 503c a93d 8ea3 0fbe
000000c0: 488f 483d 981d 12bd 384e c4bd c097 00bc
000000d0: c720 3dc0 7836 533e 8af9 0dbe 033e 5bbe
000000e0: 9074 abbd f061 823d ba74 59be a28a 1fbe
000000f0: a71d df40 5ce2 6840 98a7 3b3d eb88 2540
00000100: 27b7 1a40 ec93 05be 230d 243f 462b 6540
00000110: e18f 383f cdf1 f3bd f06c 50bc 6c3f 5b3e
00000120: fc34 bc40 9dcd 20be 3153 003f e0ab ec3e
00000130: 171f 003f 168f 6940 38d5 ea3d ef5d b040
00000140: f99b 99bf d235 a3bf 80ce 6cbb 214f aebf
00000150: cee5 62be 9841 3b3e e899 cd3c 748d a0bf
00000160: 28c1 9f3d 04b7 403e ac96 62bd 60be f4bb
00000170: 8d58 dabf f62d 5f3e 304d 8e3d 5a52 43be
00000180: c522 10be 5191 b6bf 2634 003e b67d ccbf
00000190: bb5f 20bf aa3c 1ebf 4cb5 38bd 4548 43bf
000001a0: 5201 30be 1ebd 293e 741d e8be cd84 2bbf
000001b0: e4f7 07bf a0e2 f73c 4c5b a4bd 6ef1 f6bd
000001c0: 6800 debe a1df 53be 6987 fabe 2810 3abf
000001d0: dc31 07bf fe06 08bf b416 d43d ea6f 2bbf
000001e0: 3d6a 0441 f545 5940 28c9 c4bd fc88 1540
000001f0: 0afd 0d40 0b38 07be 5a05 323f f85f 4540
00000200: 552c 053f b3c4 03be 805c 30bd e86b 9bbd
00000210: ffd8 e640 7812 f9bd f4e4 353f f872 1c3f
00000220: 70c1 103f 5a82 5d40 ccb8 4fbd df1f a640
00000230: 6561 22c0 4bb2 dabd e014 f7bc 7816 7b3d
00000240: ab2f 1c40 f07e 1bbc d964 44be 807a c8bc
00000250: d4fa ef3d 588b a73d f43b d03d f21e f7bd
00000260: d390 21c0 0474 05bd e849 613d d0f7 bebc
00000270: 70d8 e23d 77a1 f9bd 087a a6bd 6406 023e
00000280: 9d62 d940 0785 6540 9a55 35be 309a 3140
00000290: a444 1540 44e2 abbd 8cff 113f c908 6640
000002a0: ec98 c53e c06a 313e 96da bebd debe 07be
000002b0: 71ef b440 ba9e 48be 1f5a f83e 7885 033f
000002c0: 7acb 113f 4144 5e40 f0e0 413d db53 ac40
000002d0: 2560 05c0 e9b5 e1bf 1c82 44bd b952 d9bf
000002e0: 08f7 a8bd e011 e83c 024c 063e f5a4 02c0
000002f0: 1c77 973d ca5f 303e c887 9a3d 2673 1cbe
00000300: 3735 dfbf 866f 593e 9862 603d 37c5 eabd
00000310: 5057 4abe aa09 07c0 8a4c d3bd cde5 06c0

layers.1.bias f4 [10]
-2.472623 -2.36102 -2.9369538 4.0632296 -1.2488096 -0.62981004 -2.336399 -1.9852881
3.6629443 -1.5289854
00000000: 753f 1ec0 f41a 17c0 0df7 3bc0 fa05 8240
00000010: fed8 9fbf 3b3b 21bf 9087 15c0 ec1d febf
00000020: ae6d 6a40 cbb5 c3bf

layers.2.weight f4 [10, 10]
5.6901975 5.534045 2.639802 4.7518325 -1.3173553 0.6802819 5.2977495 -1.6927098
4.1466236 -1.7973367 5.663235 5.6852427 2.765444 5.0324526 -1.2912354 0.40500802
5.6887627 -1.3657893 4.7651777 -1.473943 -2.8436444 -3.147474 3.0977128 -2.4793413
0.07874963 -0.15838142 -3.0214584 -2.502905 -2.753873 0.13659477 5.919895 5.62148
3.089237 4.905802 -1.4564551 0.7281825 5.516136 -1.3903853 4.554041 -1.4142075
-0.022780508 0.16493306 0.031415194 -0.25135472 -0.054971516 0.057266146 -0.06771794 -0.24671343
-0.03850028 -0.21490985 0.280938 -0.16999067 -0.21833363 -0.28805557 0.014093429 0.28673568
-0.18726018 0.08088341 0.06569612 0.23801133 -0.2346802 -0.04854107 0.04422334 -0.2435559
-0.16968457 0.14146405 0.21905735 -0.018786967 0.1780324 0.24481091 5.7877975 5.523613
2.6214783 4.9900036 -1.3824368 0.3241164 5.2952414 -1.4116434 4.74542 -1.3814362
-0.015760899 0.032604605 -0.016339213 -0.3096987 -0.26843524 0.14428824 -0.16517659 -0.18212117
0.06441882 0.088047564 5.551121 5.183924 2.737507 4.596988 -1.5864763 0.6518406
5.6519885 -1.6200266 4.510137 -1.7045076
00000000: 1916 b640 e616 b140 84f2 2840 030f 9840
00000010: 199f a8bf f426 2e3f 2a87 a940 b7aa d8bf
00000020: 24b1 8440 210f e6bf 3939 b540 82ed b540
00000030: 09fd 3040 da09 a140 3447 a5bf 365d cf3e
00000040: 580a b640 2fd2 aebf 567c 9840 2aaa bcbf
00000050: 45fe 35c0 3770 49c0 ed40 4640 87ad 1ec0
00000060: 7c47 a13d bd2e 22be 935f 41c0 982f 20c0
00000070: 753f 30c0 80df 0b3e c86f bd40 2ae3 b340
00000080: 0fb6 4540 54fc 9c40 1f6d babf 2b6a 3a3f
00000090: 3084 b040 25f8 b1bf b4ba 9140 c004 b5bf
000000a0: 309e babc 36e4 283e 38ad 003d 91b1 80be
000000b0: d029 61bd e88f 6a3d b4af 8abd 72a2 7cbe
000000c0: 78b2 1dbd 5411 5cbe 1bd7 8f3e 0912 2ebe
000000d0: da92 5fbe 057c 93be 20e8 663c 05cf 923e
000000e0: 22c1 3fbe 34a6 a53d b08b 863d 3eb9 733e
000000f0: 0250 70be 00d3 46bd 8823 353d b866 79be
00000100: cbc1 2dbe f4db 103e 9250 603e 20e7 99bc
00000110: 204e 363e b6af 7a3e a335 b940 70c1 b040
00000120: 4dc6 2740 1cae 9f40 b0f3 b0bf 96f2 a53e
00000130: 9e72 a940 bbb0 b4bf 7bda 9740 e7d2 b0bf
00000140: 001d 81bc 688c 053d d0d9 85bc d490 9ebe
00000150: 5870 89be 4cc0 133e 0d24 29be f97d 3abe
00000160: 04ee 833d 4852 b43d c9a2 b140 b5e2 a540
00000170: 5133 2f40 871a 9340 a811 cbbf 07df 263f
00000180: 17dd b440 085d cfbf 0b53 9040 4e2d dabf

layers.2.bias f4 [10]
6.333412 6.772669 -2.6865015 6.368362 0.012830675 -0.08328235 -0.12502468 6.9060364
0.06576657 6.242164
00000000: 50ab ca40 b4b9 d840 a4ef 2bc0 9fc9 cb40
00000010: c037 523c f08f aabd 7806 00be 40fe dc40
00000020: a0b0 863d cfbf c740

layers.3.weight f4 [1, 10]
5.1529794 5.4385552 -2.3192956 5.210986 0.17972076 0.1712493 -0.12457755 5.4039826
0.24065736 5.13553
00000000: 35e5 a440 a508 ae40 576f 14c0 66c0 a640
00000010: b808 383e fa5b 2f3e 8422 ffbd 6ded ac40
00000020: e26e 763e 4356 a440
