mwo/models/trained_vfa_models/model_500_iters_01_lr.pth (torch_old, 16893 bytes, 7 tensors)

weight f4 [30, 25]
00000000: 97a7 4cc0 a583 35be 6454 8240 9a31 ac40
00000010: aa3c f940 61e3 17c0 95fd d23f 4eb5 a6bf
00000020: e0e3 4b40 fa4f f5bf 68f5 1440 b1a4 e6bf
00000030: f087 b240 0748 68c0 ef8c 1140 8c58 00bf
00000040: 5c10 0dc0 8f23 46bf 0f3c 2940 e239 e0be
00000050: 3759 b73f 708e 2dc0 211a 0240 86c1 7fbf
00000060: 3a2a 7ac1 4ea7 3dbf 9c8a 963e ab62 473f
00000070: 4321 a03f 5c31 0f40 3d94 e6bf 3200 d3be
00000080: d500 cebf 29ca 183f 722f 3fc0 5c58 61bf
00000090: 0161 6e3f 27cd ed3e 7f59 32c0 6864 07bf
000000a0: bbcf 56bf 544e 5cbf 17f4 293f d798 85bf
000000b0: 1288 a83f 0eb1 c0bf 4316 3cc0 2b20 10bf
000000c0: 6cfc 8f3f 0bab 27c0 b25c 17c0 bd0b f9bf
000000d0: 53ba d93f 2fd2 143f be21 0e3f 5381 e3bf
000000e0: a8c0 aebf 3d3f eb3e 69ef 5bbf 9fac 513f
000000f0: efb5 77bd 08ea bd3f b2cd 06c0 8758 4dc0
00000100: b9df eabf e33e d5bf b4c2 15c0 3685 cbbe
00000110: 142e 67c0 febb 8a3f 92da b0bf 41c6 f6bf
00000120: bee3 7940 0567 0b3f ae72 36c0 58b8 0abf
00000130: b056 12be be8b ce3f af09 f03f 6b59 f33f
00000140: 9127 aebf 2dc0 a0be 572d ffbf e185 f93e
00000150: 5c71 efbf cb57 d3be 2a12 a73f 6e1e 3f3f
00000160: 1a3f 18c0 548c b8bf 2676 febe 6d9d 27bf
00000170: 913f 1f40 72e1 cdbe 9e0d 84c0 9130 abbf
00000180: f5a8 cdbf f06e fc3d e1a1 1340 1f38 86bf
00000190: 4b9e 83bf e9b5 0cc0 16c7 0d40 3eb5 d03f
000001a0: 1eaf 9640 53b4 59c0 a152 5bbe ae7b b0bf
000001b0: 2c3a 273e ebe7 75bf e400 a13d 9901 d23e
000001c0: b066 9a3f 2d76 e3c0 010c 8e3d 6dca 25c0
000001d0: c23d 70c0 e3cf ad3f 61b0 4bc0 341d b8bf
000001e0: 7946 cebd fd3d 7dc0 fc15 7340 b079 3fbb
000001f0: 7ad0 38c1 cfa2 e1bf ecd3 a6bc 84e0 0440
00000200: 89c9 0040 b6e3 3540 d1d7 e9bf a7ba aabd
00000210: 8f53 3fc0 886f 313f 9b6c 87bf cdc9 08bf
00000220: 259b 943f b9c5 b33f b03a 1ac0 ea3d aebf
00000230: 4b62 21bf 82df 98bf 6163 fc3f 9d53 b0be
00000240: ae44 a5bf 7b09 d8bf ad00 2cc0 3981 473f
00000250: 36ea 673f 8e25 bcbf 1666 09c0 57a6 70c0
00000260: 6458 f83f 746a f93f 3b16 dc3f e9e5 a3be
00000270: 1a1c 4abf 21a4 9d3f 95a9 95bf 94b8 e03f
00000280: bffe 87be f0ad cf3e 508d 52c0 de91 b6c0
00000290: b714 36c0 7df3 7fbf 5d14 febf a96a 033f
000002a0: 53f3 febf 7d51 99bf 68c8 fcbf c1b7 4e3f
000002b0: 0030 923f 0dec 7bbe 7f8d abc0 2d07 07c0
000002c0: 9a4c febf 2361 1c40 b6f4 0b40 15a4 9440
000002d0: ea04 25c0 e973 9dbf fc3c c3be 567b 493d
000002e0: 6857 7ebf 8191 8dbe e9b1 68bf 5e70 da3e
000002f0: 1c56 cdc0 7051 d1be 2c2f 3bc0 c8b6 37c0
00000300: d3bd 9e3f 60d9 d3bf 8ee5 9cbf e15c 78bf
00000310: 3f90 24c0 8ebd fb3f cb89 73bf 07c6 15c1
00000320: 7399 73bf 80d9 93bd ae36 893f 55fe a33f
00000330: b54f f73f b4dd ebbf d70b cdbe 00fb 22c0
00000340: 0df8 783e 1748 44c0 b892 7bbf f160 b83e
00000350: 1a9a b03e e7d7 2bc0 2cab 9cbf 4ec0 95bf
00000360: a321 92bf 5a34 2840 c830 f3be dc2b d0be
00000370: bab5 02c0 10d0 59c0 2cd0 213e 793e 093f
00000380: 3ec3 06c0 3c15 3ebf 21ef 5bbd c1d3 8f3f
00000390: 6359 983f fa36 e23f 9d0b 9cbf 4dcb c4be
000003a0: 8dae eebf 4aff 85bd 3f80 a6bf 6181 fabe
000003b0: 75a1 863f 99aa 3a3f 9cb1 12c0 73aa bebf
000003c0: 6233 afbe 45ac 51bf 2e54 d13f 7b53 3ebf
000003d0: 32d9 abbe 6df4 fbbf 3a6e f9bf 4c8f 143a
000003e0: c84a b03f 2f34 86bf bafb 00c1 7dfa 4dc0
000003f0: 7c3e a140 eebf 7440 b5b6 87be e5bf 95bf
-3.1977289 -0.17726 4.0728016 5.381055 7.7886553 -2.373253 1.6483637 -1.302408
3.1857834 -1.9165032 2.3274784 -1.801901 5.579094 -3.6293962 2.274227 -0.5013511
-2.2041235 -0.7739801 2.6442907 -0.4379416 1.4324101 -2.7118187 2.0328448 -0.9990467
-15.635309 -0.7408341 0.29402626 0.7788493 1.2510151 2.2373877 -1.8013989 -0.41211087
-1.6094004 0.5968347 -2.9872708 -0.8802545 0.93116766 0.4644558 -2.7867124 -0.5288758
-0.8391072 -0.8605702 0.66388077 -1.0437268 1.3166525 -1.5054033 -2.9388587 -0.56299084
1.1248908 -2.6198146 -2.3650327 -1.9456707 1.7009987 0.58133215 0.55520236 -1.7773842
-1.3652544 0.45946684 -0.85912186 0.81904024 -0.06047624 1.4837046 -2.1063046 -3.2085283
-1.8349525 -1.6659817 -2.3400087 -0.3975007 -3.6121874 1.0838621 -1.3816702 -1.9279252
3.9045253 0.5445407 -2.8507495 -0.54187536 -0.14290881 1.6136396 1.8752955 1.9011663
-1.3605825 -0.31396618 -1.9935712 0.48734954 -1.870647 -0.41277918 1.3052418 0.74655807
-2.3788514 -1.4417825 -0.49699515 -0.6547459 2.4882548 -0.40211064 -4.1266623 -1.3374196
-1.6067187 0.12325847 2.3067553 -1.0485877 -1.0282682 -2.198603 2.2152762 1.6305311
4.7088766 -3.401631 -0.21418239 -1.3787744 0.16330785 -0.96057004 0.07861498 0.41016844
1.2062588 -7.1081758 0.06935883 -2.59048 -3.7537694 1.3579067 -3.1826403 -1.4383912
-0.10072035 -3.9569085 3.7982168 -0.0029216819 -11.550898 -1.762781 -0.020364724 2.0762033
2.0123007 2.8420234 -1.8268987 -0.08336382 -2.989475 0.6931081 -1.0580019 -0.53432924
1.1609846 1.4044715 -2.409832 -1.3612645 -0.6304061 -1.1943209 1.9717828 -0.34438792
-1.2911584 -1.6877893 -2.6875412 0.77931553 0.9059175 -1.4698961 -2.1468558 -3.7601526
1.9401975 1.9485612 1.7194284 -0.32011345 -0.7894913 1.2315713 -1.1692377 1.7556329
-0.26561543 0.4056239 -3.289875 -5.705306 -2.8450143 -0.9998091 -1.9849964 0.51334625
-1.9918007 -1.1977993 -1.9748659 0.80749136 1.1420898 -0.24601765 -5.3610225 -2.109813
-1.9867127 2.4434288 2.186811 4.6450295 -2.578425 -1.2300998 -0.38132465 0.049189888
-0.9935212 -0.27650073 -0.9089647 0.42663854 -6.4167614 -0.40882444 -2.9247541 -2.870531
1.240168 -1.6550713 -1.2257555 -0.9701672 -2.571304 1.9667222 -0.9513213 -9.3608465
-0.9515602 -0.07219219 1.0719812 1.2811991 1.93212 -1.8427033 -0.40048096 -2.5465698
0.24313374 -3.0669 -0.9827075 0.3601146 0.3449257 -2.6850526 -1.2239738 -1.1699312
-1.1416515 2.6281953 -0.47498155 -0.40658462 -2.0423417 -3.4033241 0.15802068 0.5361095
-2.1056666 -0.7425115 -0.053694848 1.1236497 1.1902279 1.7673028 -1.2191044 -0.38436356
-1.8647019 -0.06542833 -1.3007888 -0.48926833 1.0518023 0.7291656 -2.2920904 -1.4895767
-0.3421889 -0.8190349 1.6353815 -0.7434613 -0.33564144 -1.9683968 -1.9486763 0.0005667105
1.3772821 -1.0484675 -8.061457 -3.2184136 5.0388775 3.8242145 -0.26506582 -1.1699187

bias f4 [30]
00000000: 271b a840 4c55 6140 c35e 2640 ec9d 8c40
00000010: eee0 94bc 507e 9e40 d7c3 0540 24b7 1040
00000020: d98f 4740 3741 6440 ce4b 15c0 93f2 ee3d
00000030: b00b 2e40 bf40 78c0 7da3 9f3f 4e11 a7c0
00000040: dab5 dabe 1f23 3340 acb1 813f b370 9a3f
00000050: 1da3 073f 0698 7b3f 3355 7440 d7ca 1740
00000060: 694a a23f e147 e13f b216 5840 6e71 5b40
00000070: 3f59 0340 d6fc 7340
5.2533145 3.520831 2.5995338 4.3942776 -0.018173661 4.952919 2.090078 2.261178
3.1181548 3.5664804 -2.3327518 0.11667361 2.7194633 -3.8789518 1.2471768 -5.2208624
-0.42716867 2.7990186 1.0132346 1.2065643 0.52983266 0.98278844 3.8177001 2.3717554
1.2678958 1.7600061 3.3763852 3.4287982 2.0523221 3.812307

weight f4 [20, 30]
00000000: f5c7 d93d 3e0a 39be 22b4 46bf 6447 633d
00000010: c151 29bf 2977 5fbd 9f97 5abf 2a5a 6bbf
00000020: c8d8 46bc e70e 03bd a774 e8bf f8e3 91bf
00000030: 6eb2 b9bd 9159 38bf 46ed 8bbf 5bc0 2dc0
00000040: 25cb c5bf 8ed4 043f 048a 363c 9978 42be
00000050: 6869 6abf 5396 ebbc f460 5bbd 19f2 5ebe
00000060: 345a 4abe 35e6 9abd 6c1e f93d c7b2 273c
00000070: 05d5 373e eb83 89bf 23c7 f1bd d1e2 84bd
00000080: 585c 45bf 27fe e1bc 9fe0 acbe e979 4abc
00000090: 9bb5 39bf 0a47 cfbe 7483 35be bed0 22bd
000000a0: 3589 5dc0 b769 c1bf a1de 933e 8211 3ec0
000000b0: c460 b3bf f388 31c0 234b 30c0 5eb9 0f3f
000000c0: 38ca ec3d 8ec7 8a3d b546 5abf fd36 4cbc
000000d0: 5629 123e fcaf 62bc 9385 813e 531e a83d
000000e0: 86ac c8bc 8e2d da3d f961 1c3e 1a86 25be
000000f0: c979 1dbf b4d8 fabe 9de1 04bf 0511 3dbf
00000100: b641 e8be 3966 ecbe 1e58 09bf 2f33 39bf
00000110: 7bc6 29bf 45e3 01bf c222 03bf 53dd 08bf
00000120: 3e5f f6be 3653 d6be 3931 ddbe 6e97 0dbf
00000130: a0ed 26bf e520 43bf c35d d6be cfa0 01bf
00000140: ddea eabe 5587 45bf 6c6c 0dbf 6392 39bf
00000150: 2157 fcbe dfb7 16bf 7775 ebbe d546 06bf
00000160: c2a3 f9be 66b6 1dbf bcd1 85be 0acc 9abe
00000170: 3cc8 01be 89d2 b9be bb04 f3be ae04 d73e
00000180: 99a1 60bf 7b9a 15bf bb58 ba3d 860f d2bd
00000190: 4209 4ebf 3a9e 3bbf 1588 8c3e c398 9dbf
000001a0: cbca f1be b6d4 a1bf d9c0 90bf 03b3 573d
000001b0: a3cd 70be 0be7 023e 41eb 3abf 9b95 933d
000001c0: 1e38 a3be 400a 5bbd 2210 833e 0e56 d33e
000001d0: 217b 3a3d 72de b13c 6ec3 813e d462 3fbd
000001e0: 7358 b540 4534 533f 9974 50bf 664f 283f
000001f0: c842 4d40 ac60 8c3f c99e 76bf 7782 f43f
00000200: 7879 8c3f 164e aa3e afce c63f 234e 5540
00000210: 8a8f 053f 5509 4cc0 8247 26be f7b3 bfc0
00000220: 8da1 e0c0 e490 2340 0454 a03f cf28 af3f
00000230: 8724 033f b590 523f 23bf 5e3f 3a3c aa3f
00000240: 4f13 253f 135a 7f3f df3c bc3f 9543 b43f
00000250: 4bc3 8b3f afe1 6a40 5fba f6be f461 393e
00000260: 81e3 06bf 9090 403d a2ef 05bf 7cdd bbbe
00000270: 2be6 f3be 8291 10bf f2d5 0ebe c075 bdbb
00000280: 14f1 44c0 5704 87bd 930d 14bf f030 25be
00000290: 2089 4cc0 9133 ffbf 5290 eebe 18c4 c9bc
000002a0: 90e9 aebc d33a 6bc0 5e3a bebe 5e8a 1ebe
000002b0: f8a7 a13d 8fbb 44c0 f9ec 4ac0 b84a 64bf
000002c0: 52e2 e1bd 9ca7 f9bd 1213 12be 8440 09bf
000002d0: 0dbd 25bf d8f9 30bf 4939 47bf d0de 263e
000002e0: 347f 2bbf 8933 d6be 761d 1fbf 6ae4 1abf
000002f0: 2719 02bf 7d0d e7be c765 15be c5c5 39bf
00000300: 128a 11bf 0ee6 34bf 23d8 09bf da14 dcbe
00000310: 17d0 15bf 1ff8 14bf a770 cabd a902 eebe
00000320: f7ae 3ebf 9c0b 3bbf aee6 dfbe a518 46bf
00000330: ac89 373d bdb5 22bf 389f e2be 61ee 36bf
00000340: 3029 00bf 92fe f3be 71df b340 129a f5bb
00000350: e6b3 08c1 1d47 84bf 362a 5340 255b b1bf
00000360: d8e3 18c0 91cc 1040 97ba cbbe 8024 3abf
00000370: d404 85bf e1a7 97c0 38b1 99bc c473 9fc1
00000380: 2ed9 13c1 ec2e 42c1 7f25 4fc1 55ef 51bf
00000390: 2b64 8d3e f6e8 eb3f cc19 8b40 211c 093f
000003a0: cda0 d43c bb17 043e ebfc 57be 6acf 8f3f
000003b0: 3f34 2cbe 05aa a4be 4098 b1be 4e54 5f40
000003c0: ee27 29c0 31ef 50c0 4c34 8cc0 32b3 46c0
000003d0: 639b 90c0 585a 07c0 fa1a 06c1 4139 b1c0
000003e0: b042 83bf e08a efbf 4d4b d040 1391 d1c1
000003f0: a674 acbf 9297 1cc1 2dfe 67c0 2b32 81c1
0.10633842 -0.18070313 -0.7761861 0.055488005 -0.6614037 -0.054557 -0.85387605 -0.91934454
-0.012136646 -0.031996634 -1.81606 -1.1397696 -0.09067236 -0.7201167 -1.0931785 -2.7148654
-1.545262 0.5188683 0.011141304 -0.18991317 -0.9156709 -0.028758204 -0.05355926 -0.2177204
-0.19760972 -0.0756344 0.12164006 0.010235495 0.17952354 -1.0743383 -0.118055604 -0.06488574
-0.7709403 -0.02758701 -0.33765122 -0.012358167 -0.7254273 -0.40483886 -0.17725927 -0.039749853
-3.4614995 -1.5110387 0.2888079 -2.9698186 -1.4013906 -2.7739837 -2.754586 0.5614222
0.11562008 0.06776343 -0.8526414 -0.012464282 0.14273581 -0.013835903 0.25297222 0.08208909
-0.024496328 0.1065322 0.15271749 -0.16164437 -0.61513954 -0.48993456 -0.5190676 -0.73854095
-0.45362633 -0.4617174 -0.5365008 -0.72343725 -0.6631848 -0.5073741 -0.5122491 -0.53462714
-0.4811954 -0.4186036 -0.43201616 -0.5530919 -0.65206337 -0.7622207 -0.4186841 -0.50636
-0.4588231 -0.77159625 -0.55243564 -0.72488993 -0.49285224 -0.58874315 -0.45988056 -0.5245183
-0.4875775 -0.6160644 -0.26136577 -0.30233794 -0.1267404 -0.36293438 -0.47464547 0.41995758
-0.8774658 -0.58438843 0.09098955 -0.10256867 -0.80482876 -0.7328831 0.27447572 -1.2312244
-0.4722503 -1.2643039 -1.1308852 0.052660953 -0.23515944 0.12783448 -0.7301522 0.07206269
-0.31878752 -0.053476572 0.25598246 0.41276592 0.04552758 0.021712516 0.25344414 -0.04672511
5.667047 0.8250163 -0.81427914 0.6574615 3.207201 1.0967002 -0.96336037 1.9102315
1.0974569 0.332627 1.5531825 3.332894 0.5217215 -3.1880696 -0.16238216 -5.9907184
-7.0197206 2.5557184 1.252564 1.3684329 0.5122761 0.82252055 0.870104 1.329963
0.6448259 0.9974682 1.4706076 1.4083124 1.0918974 3.6700246 -0.48189065 0.18103772
-0.52690893 0.047012866 -0.52318776 -0.36692417 -0.47636542 -0.5647203 -0.13948801 -0.005781859
-3.0772142 -0.06592625 -0.5783321 -0.1613195 -3.1958694 -1.9937612 -0.46594483 -0.024629638
-0.021351606 -3.6754653 -0.37153906 -0.1548247 0.078933656 -3.0739477 -3.1707137 -0.8917651
-0.11029495 -0.12190172 -0.14265087 -0.5361407 -0.64741594 -0.6913123 -0.77821785 0.16295934
-0.6699097 -0.41836193 -0.6215433 -0.6050478 -0.5081963 -0.45127478 -0.14589606 -0.725674
-0.56851304 -0.70663536 -0.53845423 -0.42984658 -0.58520645 -0.581911 -0.09884768 -0.46486405
-0.74485725 -0.7306459 -0.43730682 -0.77381355 0.04480903 -0.6355856 -0.442621 -0.7145749
-0.5006285 -0.4765516 5.6210256 -0.0074951733 -8.5439205 -1.0334202 3.2994514 -1.385594
-2.3889065 2.2624857 -0.39790794 -0.72711945 -1.0392098 -4.739243 -0.018761262 -19.931526
-9.240522 -12.136456 -12.946654 -0.82005817 0.27615485 1.8430469 4.346899 0.53558546
0.025955582 0.12899677 -0.21092574 1.1235173 -0.16816805 -0.32160965 -0.3468647 3.4895205
-2.643062 -3.264599 -4.381384 -3.1046872 -4.518968 -2.1148891 -8.381586 -5.538239
-1.0254726 -1.8714256 6.509192 -26.195837 -1.3473098 -9.787004 -3.6248887 -16.149496

bias f4 [20]
00000000: 7df9 9740 0ed8 3d40 b31f 01bf 0032 3340
00000010: ac1a 3d41 6a60 75c0 7d1b 25bf 6784 8740
00000020: 0576 5441 4ceb 18bf f89f 5940 8e29 bb40
00000030: 4cb9 8abf 34ba 2cbf ca89 1fbf 102f a9c0
00000040: 4adb af40 473f 0cbf 5e30 9240 b5d2 5040
4.749205 2.966312 -0.50438994 2.7999268 11.819012 -3.8340096 -0.6449507 4.2349124
13.278813 -0.59734035 3.4003887 5.8488226 -1.0837798 -0.67471623 -0.62319624 -5.286995
5.4955187 -0.54784054 4.568404 3.2628605

weight f4 [10, 20]
00000000: 6b8f 793e 143d c3bb 119f 083f c508 67bd
00000010: 6aa9 1640 65f7 1dc0 3ecc d43e c358 0d40
00000020: 0aeb 6a40 4a97 c73e 63f9 08bd a9d5 353e
00000030: fa33 c33e 54cf c93e 9cfc 123f 09f7 c33d
00000040: a235 3f3e cc8a ed3e e748 063f 4d5c be3d
00000050: a996 16bf decd ebbd 2dcb 4fbf b091 e0be
00000060: 9535 a2c0 4361 5abe c1f5 2abf dddf 5abf
00000070: 8429 1ebd c3a2 c5be 00f4 51bf f075 febe
00000080: 3a2a cabe 65da 37be 46f3 1fbf 96c6 7dc0
00000090: 0559 c8be 8f04 e2be fed0 3abf 84bb 43bf
000000a0: 4fcd da3d 1cbe e1bc 8c90 e73e 400d 96be
000000b0: 53a1 75bd 158f 9a3e 3722 483f ce73 59bf
000000c0: 5de5 52be 687f 333f 8503 043e 8f9a ac3d
000000d0: bee7 303f 9ed6 163f f0ea 013f a1bf abbf
000000e0: 1edc 49be cf49 0f3f 7c9c 27bc 12a9 1fbe
000000f0: d198 34bf 7e25 edbe 5a87 c7be 1ead 02bf
00000100: 4784 51bf 8091 1cbb d27f f7be bc97 16bf
00000110: 3c07 12bf a5a1 0bbf 3712 fbbe e6c4 10bf
00000120: da2c 47bf 1952 0ebf 91be f7be 7619 a8bd
00000130: efbc 44bf 787d dbbe 831e 1abf cef8 e8be
00000140: 86a5 563d ec9b 1cbe 710f e33e 37ef 44be
00000150: dda8 543e dfd4 12c0 1614 0d3f edea 84bf
00000160: 1754 ac3f e4d0 283f ad80 ddbe 6dd7 dfbd
00000170: 153f 3f3f c5c5 013f 7808 ee3e 0ff2 10bf
00000180: 3279 fabd 64dd 333f 6e07 443e 417a b13d
00000190: e5ad 07bf 92d4 48bf 8a53 e9be c9b1 27bf
000001a0: 91df ccbe 44e5 0f3e 1da7 26bf 103d 4cbf
000001b0: 24c4 0dbf ab19 fabe f03b 51bf ae8c 3ebf
000001c0: a03e d1be 9df8 49bf 409f 4abf c0d6 3cbd
000001d0: 9aa5 d8be 0894 19bf 02c3 28bf df4f 29bf
000001e0: 5d46 63be b90e c73c 6486 223f dfe7 18bc
000001f0: 5b1b 94bd 31bd 303f 2fc5 243f c8fa 3ebf
00000200: 3569 243e 083b 243f b63f 93be e446 d3bd
00000210: 00fe f13e 9f09 213f 0013 193f 1bfa 73bf
00000220: 32dc c5bd ec90 243f 2573 21be e138 dfbd
00000230: 49c5 cdbe 3592 3dbf 4849 e4be a503 13bf
00000240: bf2a c5be f09b 15bc 84f8 2cbf 1ef8 fbbe
00000250: cf36 18bf c01e edbe 8889 38bf df78 30bf
00000260: 0cf5 46bf 6200 3cbf 03cf c3be f967 ebbd
00000270: 4b88 0cbf 9759 c2be 8d4b 2abf 7163 09bf
00000280: 8a18 ddbd 884c dabd db95 463f bb80 abbd
00000290: 2e7c 5ebd 2cb8 253f 8868 16be 425e 65c0
000002a0: 3086 05c0 685c 503f 659b 063e da46 e63d
000002b0: 23e4 ebbf 8098 72bb 1472 b63d aa76 61bf
000002c0: 7e98 0fbe 8c18 3bbe 96a5 5e3e 4827 1bbd
000002d0: 8162 7abe dca5 9cbc 0800 fb3e 2d54 0dbd
000002e0: 7414 7cbd f97a e7bf 0f38 4a3f 2562 26bf
000002f0: 4e12 89be ee9e 4d3f 89e7 a3be 89da 9dbe
00000300: 5c17 413f f671 273e 8d87 253f 9b18 18bf
00000310: 5131 d3bd f429 3b3f 6afc 383d 5ff7 4dbd
0.24371116 -0.005958209 0.53367716 -0.056404848 2.3540902 -2.4682248 0.41562074 2.2085426
3.6705956 0.38982612 -0.03344096 0.17757286 0.38125592 0.3941599 0.574167 0.095686026
0.18672803 0.46394956 0.5245499 0.09294949 -0.5882364 -0.115138754 -0.81169397 -0.4386115
-5.069041 -0.21326165 -0.6678124 -0.8549784 -0.03861381 -0.3860074 -0.8201294 -0.49699354
-0.3948534 -0.17954405 -0.6248058 -3.9652457 -0.39130417 -0.44144103 -0.72975147 -0.76458
0.10683691 -0.027556472 0.45227468 -0.29306984 -0.059968304 0.30187288 0.7817721 -0.8494233
-0.20595308 0.7011628 0.12891968 0.08427917 0.6910361 0.5892123 0.5074911 -1.3417856
-0.19712874 0.55972 -0.01023018 -0.15591839 -0.7054568 -0.46317667 -0.38970453 -0.51045406
-0.81842464 -0.0023890436 -0.48339707 -0.5882528 -0.5704229 -0.54543525 -0.49037334 -0.56550443
-0.77802813 -0.5559402 -0.48387578 -0.08207981 -0.7685079 -0.42869163 -0.6020281 -0.45502323
0.05240395 -0.15293854 0.44347718 -0.19231878 0.20767541 -2.2942426 0.55108774 -1.0384194
1.3463162 0.6594374 -0.43262234 -0.10929761 0.7470563 0.506924 0.46490836 -0.5661935
-0.122301474 0.7025969 0.19143459 0.08665896 -0.52999717 -0.78449357 -0.45571548 -0.65505654
-0.40014318 0.14052302 -0.65098745 -0.79780674 -0.5537741 -0.48847708 -0.8173208 -0.7443341
-0.40868092 -0.7889498 -0.79149246 -0.04610324 -0.42313844 -0.599915 -0.6592256 -0.661375
-0.2219481 0.024299012 0.63486314 -0.009332626 -0.0723178 0.69038683 0.6436338 -0.7460141
0.16055758 0.64152575 -0.28759545 -0.10316256 0.472641 0.62905306 0.59794617 -0.95303506
-0.096611395 0.64283633 -0.1576658 -0.10899521 -0.4018958 -0.7405122 -0.4458716 -0.57427436
-0.38509175 -0.009131417 -0.67566705 -0.49212736 -0.5945863 -0.46312523 -0.72084856 -0.68934435
-0.7771766 -0.73438084 -0.38243875 -0.114944406 -0.54895467 -0.37958977 -0.6652153 -0.5366736
-0.10795696 -0.106591284 0.7757241 -0.08374163 -0.054317646 0.6473415 -0.14688313 -3.583878
-2.0863152 0.81391 0.13145216 0.112439826 -1.8428997 -0.0037017167 0.089084774 -0.8807169
-0.14023015 -0.18271083 0.21742854 -0.03787926 -0.24451639 -0.019122057 0.4902346 -0.034504104
-0.061542943 -1.8084403 0.7899179 -0.64993507 -0.26771778 0.8032063 -0.32012585 -0.30830792
0.7542627 0.16352066 0.6465996 -0.59412545 -0.10312141 0.7311089 0.045162596 -0.05028474

bias f4 [10]
00000000: f4b1 3042 f768 0bc0 54f7 2841 087f 14bf
00000010: 3393 a841 a2a8 0bbf 6a70 5641 1185 10bf
00000020: 7df9 1e41 a6b0 6f41
44.173782 -2.1782815 10.560383 -0.58006334 21.071875 -0.5455419 13.402445 -0.56453043
9.93591 14.980627

weight f4 [1, 10]
00000000: bad4 b83f cd6f a13e bfe2 9a3d b72e 953e
00000010: c1c3 363d 5c67 fa3e 2667 a83d a971 093f
00000020: 7b1f c23d 9c06 753d
1.4439919 0.3153061 0.0756278 0.29137203 0.04462028 0.48906982 0.08222799 0.53689057
0.09478661 0.059820756
