mwo/models/trained_vfa_models/model_v2.pth (torch_old, 4732 bytes, 7 tensors)

layers.0.weight f4 [20, 25]
00000000: 929d 893d cecf f13d 133f 313e a50a 43be
00000010: b0ad 12bc 282d 52bd 583a 96bc 4dc6 173e
00000020: 809e c43c 807c e0bd 30a0 a73c dce6 513d
00000030: f819 31be 8929 0e3e 68d0 c4bc 2931 1c3e
00000040: 6216 d83d c252 ea3d 185e 263d 5683 aa3d
00000050: a486 7f3d 60c3 25bc 2fe1 37be e496 773d
00000060: 87b9 bfbd 55c7 143f 22c9 2f3f 7be6 3d3f
00000070: 7c40 0a3f 129e f1be fe24 303f 8e9b 1dbf
00000080: 207b 213f 861c 21bf 8853 053f ebfa 1d3f
00000090: e64d 463f fa4b 22bf 5ff5 0b3f 7a27 48bf
000000a0: 1604 343f b3f8 d6be 3007 4c3f 8174 45bf
000000b0: bf20 d33e ae06 44bf f499 3d3f d235 1f3f
000000c0: d8ab 413f c491 363f d019 8e3c d8cc 923c
000000d0: 2ee1 883d 68ec 4bbd c031 b33c 91d9 073e
000000e0: 842a 7b3d 40e6 0f3d 8803 20bd 18d9 da3c
000000f0: 1b4b 3b3e 1a86 803d 8ad3 b9bd 0756 023e
00000100: 18b0 70bd 682e 0fbe b480 40bd 6340 cfbd
00000110: ab67 3a3e 504d e6bc 351a 033e 3257 c73d
00000120: e02d 3bbc be50 16be d0ef ccbc 582c 33bd
00000130: b3a3 2ebe a60e b93d 3810 1bbe 4a79 1dbe
00000140: 68d3 f83c 201b fabd b7b8 ddbd 98f6 05be
00000150: 6867 7dbd 0a12 c5bd c0b7 863b 988c c9bc
00000160: 1d41 b4bd 150b 1b3e 825b b03d ca6f ad3d
00000170: 5d46 06be 9df8 a0bd 80d9 b0ba 087c 59bd
00000180: bf17 103e 08e4 463d ba68 39be d008 d13c
00000190: 730c 303f fc11 6a3f 8675 213f 0969 7a3f
000001a0: 3a06 2bc0 4a36 333f 7bf7 3ec0 9938 2c3f
000001b0: 0fcc 16c0 2142 353f dfa7 cdc0 0cf0 453f
000001c0: 96ef 1341 d58e b93f 2155 56c0 8339 473f
000001d0: a63e e4bf c1bb 5e3f 4694 4441 676d 203f
000001e0: 0463 d13e f5e6 2b3f 1be9 f9be cff2 693f
000001f0: 6213 e7c0 838f a73f d318 903f fd8a 873f
00000200: f9c0 a83f 90f9 1cc0 f429 9b3f 2a32 14c0
00000210: 56fb 833f 65ec 18c0 1336 903f 3d58 0cc0
00000220: ee1e 863f 5cbd 4841 3259 9f40 e61c 05c0
00000230: 2347 823f 9035 00c0 c2a5 8b3f 6a8e ebbf
00000240: affd 783f ace8 08c0 07ca 983f 5947 febf
00000250: 51fa 8b3f cc60 b7c1 4d92 403e 341e 28bd
00000260: e088 623c 823e 40be 6f13 37be e0be 333d
00000270: 9228 af3d 72e7 b93d b4b5 043d 5a96 923d
00000280: 1ea6 913d 2bfb 1bbe c743 c0bd 66cc 92bd
00000290: c17f 1c3e 6766 353e bb1b 473e b192 273e
000002a0: 2050 23bc ed76 4a3e c6bd 81bd 554b 193e
000002b0: 5061 45be 4013 51bd 7099 ca3c 8ebf ed3d
000002c0: 6c52 103d 24e4 533d 5be8 3f3e 308e d4bc
000002d0: f2c8 d03d 03df 023e 5d6d 3b3e c0a7 37bd
000002e0: e0dd 26be 222c d73d 2016 11be d2c7 833d
000002f0: 627e 893d e3eb a8bd e900 0e3e 934d b3bd
00000300: e6ae 16be d820 4bbe 7fbf 3d3e 789c 12be
00000310: 9213 1cbe d320 4bbe e933 273e 98a5 ccbc
00000320: 0272 e43d 6bad 3a3e ea7b e53d a08b 393c
00000330: 3044 ef3c f603 b53d 6f5b 2fbe b0a9 d1bc
00000340: 6dcf eabd 31c3 2e3e f07d d83c 2a77 d53d
00000350: e09a 8bbd ec86 0cbe 4025 12bb 3767 45be
00000360: a977 383e 2012 613c 88dc 1bbd 5014 7f3c
00000370: 2328 1cbe 5e5a 923d 22dd 29be 8d6d dfbd
00000380: 02f1 c83d 25df 0e3f 0bca ee3e 8931 d63e
00000390: 813d 3e3f f65d d0be bbfc 473f 5340 f3be
000003a0: 8c64 e73e 8a42 2cbf 0e52 ee3e 4b8e f03e
000003b0: eded 0f3f 21e9 40bf d30a eb3e 90fb 05bf
000003c0: 84b0 293f 5bdf efbe 0b7b fe3e 3858 2cbf
000003d0: 9615 0f3f 6532 12bf a39e f13e bea6 203f
000003e0: 98be 4b3f 98d1 4b3f 80d1 a93f b0f5 af3f
000003f0: 6fa0 a13f 9831 7d3f 02e0 28c0 12e0 af3f
0.06719507 0.11807214 0.17309217 -0.1904703 -0.008952543 -0.051312596 -0.018338367 0.1482174
0.02400136 -0.109612465 0.020462126 0.051245555 -0.17295063 0.13883032 -0.024025157 0.15253128
0.10551144 0.11441566 0.04061708 0.083258316 0.062384263 -0.010117382 -0.17956994 0.060446635
-0.093615584 0.58116657 0.6866628 0.7417981 0.54004645 -0.4719091 0.68806446 -0.6156548
0.630785 -0.6293415 0.52080584 0.61710995 0.77462614 -0.6339718 0.5467128 -0.78185236
0.70318735 -0.41986617 0.7969847 -0.77130896 0.4123592 -0.7657269 0.7406304 0.621915
0.7565284 0.7131617 0.017346293 0.017919943 0.066835746 -0.049786 0.021874309 0.13266589
0.061319843 0.035131693 -0.039065868 0.026714846 0.18290369 0.06275578 -0.09073551 0.1272813
-0.058761686 -0.13982546 -0.04699774 -0.10119703 0.18203609 -0.028113037 0.12802966 0.09733428
-0.011424512 -0.14679238 -0.025016695 -0.04374346 -0.17054634 0.09035997 -0.15142906 -0.153783
0.030374244 -0.12212205 -0.10826247 -0.1308235 -0.061866194 -0.09622581 0.00411126 -0.024603173
-0.08801482 0.15140946 0.08611204 0.08468588 -0.13112779 -0.07859919 -0.0013492554 -0.0530968
0.14071558 0.04855731 -0.18106356 0.025516897 0.68768996 0.9143369 0.6306995 0.9781652
-2.672255 0.70004714 -2.983855 0.6727386 -2.3562047 0.7080403 -6.426742 0.7731941
9.245993 1.4496714 -3.3489459 0.7782213 -1.7831619 0.8700524 12.2862 0.62666935
0.40895855 0.6714929 -0.48810658 0.9138612 -7.221116 1.3090671 1.1257576 1.0589291
1.318389 -2.452732 1.2122178 -2.3155618 1.0311077 -2.3894284 1.1266502 -2.1928856
1.0478189 12.54623 4.979638 -2.0798888 1.0177959 -2.0032692 1.090996 -1.8402836
0.9726209 -2.1392012 1.1936654 -1.9865524 1.0935766 -22.922264 0.1880581 -0.04104443
0.013826579 -0.18773845 -0.17878507 0.043883204 0.0855266 0.09077348 0.032399848 0.071575835
0.071117625 -0.15232532 -0.093879275 -0.07167892 0.15283109 0.17714845 0.19444172 0.16364552
-0.009967834 0.19771929 -0.063350245 0.14970143 -0.19275403 -0.05104375 0.024731368 0.11608802
0.035234854 0.051731244 0.1874098 -0.025946707 0.10194577 0.12780385 0.18303438 -0.044837713
-0.16295576 0.105064645 -0.14168596 0.06434597 0.06713559 -0.08248117 0.13867535 -0.087550305
-0.14715156 -0.19836748 0.18530081 -0.143175 -0.1524184 -0.1983674 0.16328396 -0.024981305
0.11154558 0.18230216 0.11205275 0.011324793 0.029207319 0.08838646 -0.17124723 -0.025593609
-0.114653446 0.17066647 0.02642724 0.10423119 -0.068166494 -0.13723344 -0.0022300035 -0.19277655
0.18014397 0.0137372315 -0.038052112 0.015568808 -0.15249686 0.071461424 -0.16588262 -0.10909567
0.098115936 0.5580924 0.46638522 0.41834667 0.743126 -0.40696687 0.7812001 -0.47510013
0.451939 -0.6728903 0.46546978 0.4698356 0.5622242 -0.75355726 0.45906696 -0.5233698
0.66284966 -0.46850094 0.4970325 -0.6732211 0.5589231 -0.57108146 0.47191343 0.6275443
0.795877 0.7961669 1.3267059 1.3746853 1.2627085 0.989038 -2.6386724 1.3740256

layers.0.bias f4 [20]
00000000: 9bcb 203e 56da cebe 4d60 15be 1430 3bbd
00000010: 8029 9bbf 1019 83bf c9fd 433e 30c5 f73c
00000020: 008a eb3c 5adf 1cbf 37bd 72bf a502 88bf
00000030: 508f 2cbc 3acb 43be 4d32 3fbe 50d4 87bc
00000040: ae6f 843d cc2f b0bf ec6a dcbf 89c2 a5bf
0.1570267 -0.40400952 -0.14587517 -0.045700148 -1.212204 -1.0242023 0.1913978 0.030245394
0.028752327 -0.6127831 -0.9481997 -1.0625807 -0.010532215 -0.19120494 -0.18671532 -0.01658073
0.06466614 -1.3764586 -1.722013 -1.2949992

layers.1.weight f4 [10, 20]
00000000: e2f1 b6bd 2698 5b3e 061c 303e 9069 74bd
00000010: 75ca f2bd 1f1d b9bf 641d 06bd 708d 413e
00000020: 2d85 4dbe e0d8 813d 616b d4bf 7658 b4bf
00000030: 74b9 43bd d046 c23d f810 363e deb0 303e
00000040: 4826 183e 3c30 37be a258 dbbf cc27 553e
00000050: 666f 21be 92bc 45bf ccb3 f23d d8a6 163d
00000060: b6f1 51bf cbea dfbe f213 cfbd 9cdc eb3d
00000070: 4a35 8abd d2de 08bf 99a5 4cbf 66b1 e9be
00000080: c09e 1f3b 5aa6 2c3e a8c1 273e d12c 2ebe
00000090: 163a 193e b658 09bf 7f50 fcbe e25b 37bf
000000a0: e6f5 83bd d2f2 ed3e 3829 353e 7828 a4bd
000000b0: 6c7e 8640 3bf2 bd40 f081 ed3d 25c3 58be
000000c0: b095 a03d de42 3b3f bb62 ff40 d881 b040
000000d0: fcd8 413e a449 40bd b364 f7bd 8c68 d33d
000000e0: ce4f 11be c86d 8940 74a5 9140 7fbc 9040
000000f0: 20fe 183d 6489 363f 788a 61be 882d 28be
00000100: 99e2 8b40 7fc4 d040 e0bb e43c c08e 243c
00000110: 6ca3 ed3d bada 0a3f 6c25 0a41 baed c040
00000120: f6b1 433e a855 273d 1ddb 33be 4805 e83d
00000130: f8a8 8a3d e83e 8d40 1c38 9340 694e 9040
00000140: 9670 06be fe31 3b3f 7614 053e 9b4f 3fbe
00000150: cf6e 8240 0650 b140 1347 07be 80fc dbba
00000160: 7806 b23c 8816 3b3f 71a6 e440 cbbd 9a40
00000170: 24e7 093e 1882 7b3d 964b 44be 502f 003e
00000180: 56e7 5c3e 66ab 8640 0038 9540 f008 9740
00000190: f831 72bd 3c99 913d f4b4 61be 9494 ca3d
000001a0: 4a02 41c0 ea59 4fc0 b028 e0bd aae6 89bd
000001b0: 902a bc3c d4b3 85bd af53 ddbe 21a0 a9be
000001c0: a0e1 193e 04e8 2e3e 98af 96bc 8185 08be
000001d0: 70e1 1a3e 58f6 4dc0 b5e3 f3be 9a8e 0f3e
000001e0: 1244 073e fd5d 1b3f 00b0 42bd 9809 943c
000001f0: 4983 8c40 51ab bd40 c825 293e f87c fcbd
00000200: 681d 633e 427d 2b3f e71c f840 be86 b240
00000210: 6804 1abe 6a84 5b3e f83d 6f3d 20dd 403d
00000220: 9488 0f3e 557a 8940 ba9a 8f40 b03c 9640
00000230: 8a50 c7bd c617 0bbe 91b7 43be 8caa ac3d
00000240: 0b4f b4be 5aeb c5be a8f3 013d b070 7bbd
00000250: d06c 2d3c 5a6b 95bd 7944 32bf d737 f3be
00000260: 5a61 60be 4a9f 12be eb42 63be 4a27 1bbe
00000270: d299 52be c07b eebe 6694 2bbf bb7f 2fbf
00000280: 1ab8 0abe 8ccb ee3e 3484 66bd 5ac0 0c3e
00000290: d930 8f40 2f6b c53f 32a8 113e c87d edbc
000002a0: 687e 7dbd 566b d23e 05c7 8040 0a78 6240
000002b0: 7f11 42be e018 3abe 3c1d c03d 27d7 5ebe
000002c0: a010 54bd 83bf 9340 4b1a 9340 aee5 9540
000002d0: 9809 3abd 7859 dbbc 20a0 273d 30d9 97bd
000002e0: 0fd1 b0be 0b5d c1be 5e63 143e 1cba 1cbd
000002f0: 6a9c 3f3e 37d1 f7bd 53d9 3dbf 98e3 0abf
00000300: 3c59 b33d 3096 f9bd a609 45be 126e 303e
00000310: 901c 4c3e f923 b3be f581 28bf ea49 33bf
-0.08932854 0.21444759 0.1719819 -0.059670985 -0.11855022 -1.4462012 -0.032742873 0.1890161
-0.20070334 0.06340194 -1.659527 -1.4089496 -0.047784284 0.09486163 0.1777991 0.1725497
0.14858353 -0.17889494 -1.7136424 0.20815963 -0.15765151 -0.7724086 0.118507 0.03678021
-0.82009447 -0.4373382 -0.10111226 0.11516687 -0.06748445 -0.53464997 -0.7994018 -0.45643157
0.0024356097 0.16860333 0.16382468 -0.17009284 0.14963564 -0.5365099 -0.49280164 -0.7162458
-0.06443386 0.4647432 0.17691505 -0.08015531 4.2029324 5.935819 0.11597049 -0.21168192
0.078410506 0.73148906 7.980802 5.51585 0.18930429 -0.04694523 -0.12079754 0.10322675
-0.141906 4.294651 4.551447 4.52301 0.037351727 0.7130339 -0.22025478 -0.16423619
4.371411 6.5239863 0.027921617 0.0100438 0.11603436 0.5424 8.634136 6.0290194
0.19110855 0.040853173 -0.17564054 0.11329132 0.067705095 4.413929 4.6005993 4.5095716
-0.13128886 0.7312316 0.12996086 -0.18682711 4.0760264 5.5410185 -0.13210706 -0.0016783625
0.0217316 0.73081255 7.1453176 4.835668 0.1346708 0.061403364 -0.19169459 0.12518048
0.21572623 4.2084227 4.663086 4.719841 -0.059129685 0.07109305 -0.22041684 0.0989162
-3.0157647 -3.239863 -0.109452605 -0.06733449 0.022969514 -0.0652844 -0.43227908 -0.3312998
0.15027475 0.17080694 -0.018394276 -0.13332178 0.1512506 -3.2181606 -0.47634664 0.14019242
0.1320956 0.6069029 -0.047531128 0.01807098 4.391026 5.9271626 0.16518319 -0.123285234
0.22179186 0.66988003 7.753528 5.578948 -0.15040743 0.2143723 0.058408707 0.04708588
0.14016944 4.296183 4.4876375 4.694908 -0.097321585 -0.13583288 -0.19112994 0.08430967
-0.35216555 -0.38656121 0.03172651 -0.061386764 0.010585025 -0.07295866 -0.6963573 -0.4750354
-0.21912137 -0.14318576 -0.22193496 -0.15151706 -0.2056649 -0.4657879 -0.67023313 -0.68554276
-0.13546792 0.4663967 -0.056278422 0.13745251 4.474713 1.5423335 0.14224318 -0.028990641
-0.06188813 0.41097516 4.0242944 3.5385766 -0.18951987 -0.18173552 0.09380576 -0.21761762
-0.051773667 4.617128 4.5969596 4.684287 -0.045419306 -0.02677606 0.04092419 -0.07414472
-0.345345 -0.377663 0.1449103 -0.038263425 0.18712011 -0.121004514 -0.74159735 -0.5425353
0.087572545 -0.12186849 -0.19241962 0.17229488 0.1993277 -0.34988382 -0.658233 -0.7003466

layers.1.bias f4 [10]
00000000: acc9 f2bf 135e d5be 05cd 12c1 05ed 20c1
00000010: df04 08c1 fcaa 3bc0 ba5e 11c1 e07e 24bf
00000020: 738b fd40 264b 2abf
-1.8967795 -0.41673335 -9.175054 -10.057866 -8.501189 -2.932311 -9.085627 -0.64256096
7.9232726 -0.6652092

layers.2.weight f4 [10, 10]
00000000: 96d5 debf c943 d03e 6ccf b440 d812 cb40
00000010: 8940 ab40 8c31 00c0 23c4 ba40 5fd5 003f
00000020: ef3c 7140 fc42 cb3e 9852 22bd 2e41 073e
00000030: 0076 f0bc 2847 db3d 18f1 99be b89e 6abe
00000040: 026d 88be 5fae 7dbe 1e2d 2fbe 584d 173d
00000050: 3016 2bbd 69ad 15bf 3234 62bf 37e7 48bf
00000060: c9cc 0cbf 081e 263e fcea 40bf 5b11 853e
00000070: 4c3b 62bf 20c6 2a3d d555 bfbf 23fb 05bf
00000080: 7d7c be40 c9f7 c540 cd7e a340 a2ed 0bc0
00000090: aad9 b840 5e91 3d3f f4e2 5c40 2288 fc3e
000000a0: 06fb d7bf 31ca 553f 30d6 c040 aa46 c740
000000b0: f455 a940 70c6 e6bf c43c be40 99f4 883e
000000c0: 8410 5f40 80e8 c83e 14a8 dfbf aad6 2d3f
000000d0: 2b40 be40 e59c c740 89d9 a140 edfd dabf
000000e0: fbe5 ae40 c371 8a3e 226b 7340 5447 573f
000000f0: 8c88 a73d c011 2fbd e8b5 15bd 7438 5cbe
00000100: c6fd 8ebe 70f5 73bd 1ea0 a5bd 60e2 d9bc
00000110: e08b 8abe 0bd8 99be 8877 503d f831 a6be
00000120: 0403 3cbf 932e 51bf ab9c 1bbf 07a9 9d3e
00000130: 126d 60bf 4c5b 883d c1b4 d8be d4a2 8dbe
00000140: 90b8 14bd a992 1bbf 1fd3 15bf fe80 32bf
00000150: f266 25bf 2dc3 913e 9aae 98be ae5b 003e
00000160: 1b7d 2bbf 4621 44be a292 28be 5ce0 63bf
00000170: 8ae3 24bf e8a8 1cbf b760 5dbf 90f8 4fbe
00000180: f0a2 05bf 02e8 c1bd a749 d9be 106d 093e
-1.7408931 0.40676716 5.65032 6.3460503 5.351628 -2.003024 5.8364425 0.5032558
3.769344 0.39699543 -0.03962955 0.13208458 -0.029353142 0.10706931 -0.30066752 -0.22912109
-0.26645666 -0.24773549 -0.17107055 0.036938995 -0.041769207 -0.5846773 -0.88360894 -0.78477806
-0.5499998 0.16222394 -0.7535856 0.25989804 -0.8837173 0.041692853 -1.4948069 -0.5233633
5.9526963 6.186497 5.1092286 -2.186379 5.7765703 0.7404994 3.4513521 0.4932261
-1.6873481 0.83511645 6.026146 6.227376 5.2917423 -1.8029308 5.9449177 0.26749113
3.485383 0.39239883 -1.7473168 0.67905676 5.945333 6.237902 5.0578046 -1.7108742
5.465574 0.27039918 3.8034139 0.84093213 0.08180341 -0.042741537 -0.036550432 -0.2150591
-0.2792799 -0.05956024 -0.080871806 -0.026597202 -0.2705984 -0.3004764 0.050895244 -0.32459998
-0.734421 -0.8171169 -0.6078593 0.3079302 -0.8766643 0.066580385 -0.42325404 -0.2766329
-0.036308825 -0.6077066 -0.5852527 -0.69728076 -0.6461021 0.2846922 -0.2982071 0.12534973
-0.6698777 -0.19153318 -0.16462186 -0.8901422 -0.644097 -0.6119523 -0.864757 -0.20309663
-0.5220175 -0.0946808 -0.42439005 0.1342051

layers.2.bias f4 [10]
00000000: b517 8441 6c95 18be 8f3b 9fbe 48e0 2041
00000010: 740f 7a41 23f6 8041 fe3d 8dbe ad8d 2bbf
00000020: e0fe 92be 92ae 02bf
16.511576 -0.1490075 -0.31100127 10.054756 15.628773 16.120184 -0.2758636 -0.67013055
-0.2871008 -0.51047623

layers.3.weight f4 [1, 10]
00000000: f9aa af40 922c 0ebe c280 bb3e 810e aa40
00000010: ae6a ae40 c03f ae40 5035 a6bc a14c 093f
00000020: 3696 ce3e fc44 083f
5.4896207 -0.1388419 0.36621672 5.3142705 5.4505224 5.445282 -0.020289093 0.5363255
0.40348977 0.5323026
