mwo/models/trained_vfa_models/model_horizon_120_vacc_t13_400_dis_400_adp_1500_better.pth (torch_old, 17104 bytes, 7 tensors)

weight f4 [30, 25]
000000 21 c1 4c c0 09 51 a7 c0 50 78 32 40 94 66 57 3f
       -3.1992877 -5.228642 2.7885933 0.84140897
000010 44 c7 0e bf fe 09 8f bf f4 05 c1 3e ec 9d 14 3f
       -0.55772805 -1.1174924 0.37699854 0.5805347
000020 5d aa 71 bf 38 a3 0b bc a9 64 09 40 3a 9a 64 3e
       -0.9440058 -0.008522801 2.1467688 0.22324458
000030 07 f3 31 c0 76 c7 c7 bf 16 85 79 c0 9c 94 34 c0
       -2.7804582 -1.5607746 -3.898748 -2.8215704
000040 0a 41 cf be 3b e9 36 3e a6 b3 0a 40 bb 3b 13 be
       -0.40479308 0.17862408 2.1672149 -0.14378254
000050 96 b0 0a 3f 24 34 a1 3e ed be b6 3f 4e af e1 3e
       0.541757 0.31485093 1.4277016 0.4407906
000060 94 64 28 c0 e3 80 56 c0 60 ea be c0 e1 8c 73 40
       -2.6311388 -3.3516166 -5.96611 3.8054736
000070 07 05 ff 3f 1d 9d a6 bf 79 45 ab bf b3 8d 17 3f
       1.9923409 -1.3016697 -1.3380576 0.5920059
000080 c8 4f cb 3f 87 ad 08 bf 36 b7 79 3e a1 16 84 3f
       1.5883722 -0.5338978 0.24386296 1.0319406
000090 09 19 4a 3f b2 d1 46 c0 5f 8a 23 c0 fa ac 97 c0
       0.7894445 -3.1065488 -2.5553205 -4.7398653
0000a0 42 c6 0d c0 05 22 68 bf f2 f7 98 3d 83 92 c0 3f
       -2.2152257 -0.9067691 0.07469167 1.5044712
0000b0 32 80 8c 3d f2 7f 5b 3d 76 12 18 3f d2 e3 ef 3f
       0.06860389 0.053588815 0.5940317 1.87414
0000c0 e6 5c c0 3f cd 23 0f c0 97 be c7 c0 3f 79 c5 c0
       1.502835 -2.23656 -6.2420154 -6.1710505
0000d0 41 15 aa 40 9d 60 24 40 bd 2f e5 bf 7b 5e de bf
       5.3150945 2.5683968 -1.7905194 -1.7372583
0000e0 e1 03 4d 3f 63 bc da 3f 3d 84 23 bf 01 3a 10 3f
       0.80084044 1.7088741 -0.63873655 0.56338507
0000f0 3c 26 0a 40 6c e0 92 3e c5 7b 80 c0 14 71 24 c0
       2.1585836 0.28686845 -4.0151086 -2.5694017
000100 f5 24 c5 c0 a0 cc 56 c0 14 3c 8b 3e 14 32 12 bd
       -6.1607614 -3.3562393 0.27194273 -0.03569229
000110 f3 e4 10 40 70 9e c4 bd c4 20 88 be c8 dd 65 bf
       2.263974 -0.09600532 -0.26587498 -0.89791536
000120 33 c4 08 40 ec 27 8f 3f 9b 61 34 c0 f9 f9 c4 3e
       2.136975 1.1184058 -2.8184574 0.38471964
000130 d2 3f 52 3f 4b 91 e0 3f 4f 41 a4 3f 4f 7f e7 3f
       0.8212863 1.754434 1.2832431 1.8085726
000140 73 d0 19 3f 37 d7 b2 3f 94 30 8f bf 30 e6 e1 3f
       0.60083693 1.3971928 -1.11867 1.7648373
000150 18 88 49 3e 78 6d 56 3f 04 ab aa be e5 65 cb 3f
       0.19680822 0.83760786 -0.333336 1.5890471
000160 83 57 35 3f a6 90 d0 3f 48 71 7b 3f a4 47 4d 3f
       0.7083666 1.6294143 0.9821973 0.8018744
000170 45 f6 01 3e 44 81 ab 3d d5 09 34 3e 20 2d 8f 3f
       0.126916 0.08374265 0.17581876 1.1185646
000180 85 d6 ca be bd 85 f5 3e 61 21 05 3e 50 19 fb bf
       -0.3961679 0.47953597 0.13001014 -1.96171
000190 fd fe 9b 3c 72 be 33 3f 3b c1 f8 3f 39 50 8f 3f
       0.019042486 0.7021247 1.9433969 1.1196357
0001a0 57 bd e3 3f 55 7c 3e 3f 93 4b 9e 3f 67 7e 45 bf
       1.7792157 0.74408466 1.2366813 -0.77146
0001b0 bf 24 cc 3f 75 84 a8 3e a0 bc 9c 3f ea 43 bb be
       1.5948714 0.32913557 1.2245064 -0.36575252
0001c0 47 24 f2 3f ed dd 5b 3f 9f 0b ac 3f 31 4a 81 3f
       1.8917321 0.85885507 1.3441046 1.0100766
0001d0 85 e4 7b 3f 02 72 a4 3d 77 fb b2 3e a2 20 41 be
       0.9839557 0.08029558 0.34957477 -0.18860105
0001e0 12 27 b2 3f fb 5c d6 be 9a 31 4c 3f 70 a7 84 3f
       1.3918173 -0.41867813 0.79763186 1.0363598
0001f0 32 91 02 c0 34 89 dd 3e bd 2b 26 3f b5 f7 e9 3f
       -2.040112 0.4326874 0.6491049 1.8278719
000200 5c f4 a7 3f b2 e4 ed 3f e3 f1 31 3f b2 e1 cb 3f
       1.3121448 1.8585417 0.69509715 1.5928252
000210 e5 46 81 bf 39 02 f5 3f fd 9d 47 3e f2 2d 95 3f
       -1.009976 1.9141303 0.19493861 1.1654646
000220 9d c1 21 bf cd ee d1 3f e5 bb 82 3f 2b 8e 91 3f
       -0.63186055 1.6401001 1.0213591 1.1371511
000230 fb 94 26 3f bd eb 8c 3f 80 b8 9e 3c 9e b0 be 3e
       0.65071076 1.1009442 0.019375086 0.37244123
000240 b2 12 e4 3d dc e4 a6 3f 07 50 91 be f7 d3 32 3f
       0.11136378 1.3038592 -0.2838137 0.6985468
000250 4f 64 e5 3e 88 73 d6 bf 36 1a 55 3e 50 93 f6 3e
       0.44803092 -1.6754007 0.2081078 0.48159266
000260 db 96 f0 3f 9b c9 87 3f 2e e7 ca 3f e3 b9 3c 3f
       1.8796037 1.06084 1.58518 0.7372114
000270 80 8a 99 3f ce 96 1f bf 6f 4f e7 3f ea dd c6 3e
       1.1995392 -0.62339485 1.8071116 0.38841182
000280 8a 57 59 3f 5c dd 7a 3e bd b0 e7 3f 63 8b 83 3f
       0.848992 0.24498504 1.8100811 1.0276912
000290 2b 26 b0 3f 1a 43 31 3f 20 6e 8c 3f 2d 4a e2 bd
       1.3761648 0.69243014 1.0971107 -0.11049304
0002a0 cd fc 31 be 10 93 e0 bc fb 1b 88 3f 0b 9e 39 be
       -0.17381592 -0.027413875 1.0633539 -0.18126695
0002b0 7e b5 3c 3f 72 ce 48 3f 3e 4b ef bf a2 a2 78 3e
       0.73714435 0.7844001 -1.8694837 0.2428079
0002c0 e2 b4 30 3f 44 94 02 40 73 5d 9b 3f 1d 58 e5 3f
       0.69026005 2.0402994 1.2137893 1.7917515
0002d0 b6 ef 42 3f a4 96 c0 3f 09 f6 88 bf 11 a7 f4 3f
       0.7614702 1.5045972 -1.0700084 1.9113485
0002e0 01 2c 2b 3e 40 73 81 3f 40 b2 b9 be da b8 d9 3f
       0.16716005 1.0113297 -0.36268806 1.7009537
0002f0 5a 88 8c 3f 75 7f 9e 3f c9 48 22 3f 2d 12 a2 3f
       1.0979111 1.2382647 0.6339231 1.2661797
000300 d7 c6 4a 3e c9 93 9c 3e 03 42 ba bd c2 5f bc 3f
       0.19802414 0.305815 -0.09094622 1.4716723
000310 52 49 e0 be f3 aa fd 3e fd ac e6 3e 54 07 cd bf
       -0.4380594 0.49544486 0.45053855 -1.6017861
000320 5f 09 ea 3e 28 a4 22 3f d9 b3 e5 3f 0b 49 8d 3f
       0.45710275 0.6353173 1.794551 1.1037916
000330 88 bf bd 3f 72 e3 0c 3f 8e 29 a7 3f 8b 2a 65 bf
       1.4824076 0.55034554 1.3059556 -0.8951804
000340 4d dd db 3f 03 72 39 3e 4a e9 84 3f ff db cf be
       1.7176911 0.18109898 1.0383694 -0.4059753
000350 6f f3 c4 3f 99 e1 7b 3f 7d 65 a8 3f 1d 79 38 3f
       1.538679 0.9839111 1.3155972 0.72059804
000360 74 81 9d 3f 30 ac c8 bd 09 dc 09 3f b2 ae b3 3d
       1.2305131 -0.09798467 0.5385137 0.08773555
000370 40 53 91 3f ae b3 6c be 1c cb 3c 3f cb 1c dd 3e
       1.1353531 -0.23115417 0.7374742 0.4318603
000380 6e ec cc bf 77 a4 46 3d 39 f5 84 3f c4 99 d1 3f
       -1.6009653 0.04849669 1.0387336 1.637505
000390 61 77 ac 3f 5d 49 dc 3f 8a e6 65 3f 07 5f a4 3f
       1.3473932 1.7209889 0.898049 1.28415
0003a0 31 af 6b bf 79 9d d8 3f ca 1b 23 3e 5c b9 95 3f
       -0.92064196 1.6923057 0.1592857 1.1697192
0003b0 63 18 1d bf 6b b9 c7 3f 92 44 48 3f 4e d4 a2 3f
       -0.61365336 1.560346 0.7822963 1.272104
0003c0 a7 19 7b 3f db d0 66 3f c8 fb 29 3d ee 91 7a 3e
       0.9808602 0.9016244 0.041499883 0.2446973
0003d0 40 7d ff 3b 76 68 9a 3f ad 47 cd be c3 2e 5b 3f
       0.0077969134 1.2063129 -0.40093747 0.8561823
0003e0 19 56 e6 3e 9e 04 f4 bf 0d 16 04 3f f5 8f 64 3f
       0.44987562 -1.9063909 0.51596147 0.8928216
0003f0 35 c5 d2 3f 96 5d b3 3f 2a 99 f8 3f cf 20 13 3f
       1.6466433 1.4012935 1.9421742 0.57471937

bias f4 [30]
000000 68 80 b5 40 22 13 c7 40 01 6c d2 40 a0 03 2a 40
       5.6719246 6.2210855 6.575684 2.6564713
000010 65 ae 61 40 38 0f 31 40 f0 d3 5c 40 ec 33 47 40
       3.5262692 2.7665539 3.4504356 3.112544
000020 62 2b 33 40 f1 bc 3a 40 0f 7b 32 40 0d ca 48 40
       2.7995229 2.917782 2.788761 3.1373322
000030 29 f6 52 40 ed 35 d8 40 48 82 54 40 ac 39 12 40
       3.2962744 6.7565827 3.3204517 2.28477
000040 38 fd d3 40 1b 0e bc 40 46 d2 ec 40 72 89 3b 40
       6.6246605 5.876722 7.400668 2.930264
000050 b3 13 5b 40 fd 54 57 40 8e 1e 3e 40 44 10 24 40
       3.4230773 3.3645623 2.970615 2.5634928
000060 f3 25 b1 40 2f 44 48 40 2f 34 40 40 46 38 29 40
       5.5358825 3.1291616 3.003185 2.6440597
000070 e9 33 bb 40 91 0b 42 40
       5.8500867 3.031956

weight f4 [20, 30]
000000 d1 ee 56 3f 23 a2 0d 40 85 d6 5d 40 4e 5c 7a 3f
       0.83958155 2.213021 3.4662182 0.97797096
000010 9a 6a 61 3f d3 89 81 3f bd cc 7e 3f f9 56 66 3f
       0.88053286 1.0120186 0.99531156 0.8997646
000020 28 c5 39 3f 07 f5 70 3f b5 5c 47 3f 9e 62 82 3f
       0.7256646 0.9412388 0.77875835 1.0186346
000030 06 85 90 3f 2c 4f 9e 3f b7 e1 5a 3f 32 9a 61 3f
       1.1290596 1.2367911 0.85500664 0.8812591
000040 7c 5a b2 3f 67 b0 27 40 d5 c5 2c 40 40 ef 70 3f
       1.3933864 2.6201417 2.6995747 0.94115067
000050 c7 ad 84 3f 65 b7 63 3f bc a4 76 3f 20 c3 88 3f
       1.0365533 0.8895171 0.96345115 1.0684547
000060 0a 6d db 3f fe 41 6a 3f a4 29 66 3f 20 27 40 3f
       1.7142651 0.91506946 0.8990729 0.750597
000070 b0 9d e5 3f 27 68 83 3f dc 07 2e bf 00 3f 29 3b
       1.7938747 1.026616 -0.6798074 0.0025824904
000080 46 73 ea be d7 e5 ee be 36 fa 23 bf 73 0e 37 bf
       -0.45791072 -0.4665973 -0.64053667 -0.7150642
000090 ff 90 39 bf bb a6 fa be 5a 22 2d bf eb 90 e2 bd
       -0.7248687 -0.4895533 -0.6763054 -0.11062797
0000a0 cb 24 2a bf a7 82 44 bf 94 b3 db be a4 e4 f3 be
       -0.6646239 -0.7676186 -0.42910445 -0.47635376
0000b0 40 54 4b bc c4 bb b0 bd 66 60 40 bf 25 99 ea be
       -0.0124102235 -0.086295635 -0.7514709 -0.45819965
0000c0 ea fb da be cf e4 1c be 23 d6 ec be 17 76 37 bf
       -0.4277032 -0.15321659 -0.46257123 -0.71664566
0000d0 39 fb 27 bf 30 51 13 3d 6e 51 08 bf 6e ba 3a bf
       -0.6561771 0.0359661 -0.5324925 -0.7294072
0000e0 30 1e 0d be d4 d6 1f 3e 06 35 28 be 81 7b 26 bf
       -0.13781047 0.15609294 -0.16426477 -0.650322
0000f0 bc 6d 14 bf 20 c3 38 bf 6e dc 05 bf 4c 8c 2b bf
       -0.5797994 -0.7217274 -0.52289474 -0.6701095
000100 87 27 12 bf b6 39 02 bf e6 7b 10 bf 86 4d 16 bf
       -0.57091564 -0.5086931 -0.56439054 -0.5871204
000110 f6 ce 30 bf 10 c8 fd be 62 89 1e bf da d0 29 bf
       -0.690658 -0.49566698 -0.6192838 -0.6633431
000120 64 ff fd be 9c 8b 3e bf 02 0f 34 be c6 dd f7 be
       -0.4960891 -0.74431777 -0.1758385 -0.48411387
000130 2f ac ea be ed ad e2 be 07 cc fb be 79 ce 0e bf
       -0.4583449 -0.4427332 -0.49179098 -0.557838
000140 88 19 2f bf e2 f3 27 bf bb c6 42 bf 20 13 15 bf
       -0.6839833 -0.6560651 -0.7608449 -0.5823231
000150 c2 57 2b bf 13 7e 04 bf a9 d0 09 bf 9f d1 1d bf
       -0.6693078 -0.51754874 -0.53834015 -0.6164798
000160 4c 98 0a be 1c 5f 30 bf a7 60 80 3f a9 c7 13 40
       -0.13534659 -0.68895125 1.0029496 2.3090613
000170 fe e3 5f 40 be cc b0 3f 17 47 99 3f f1 d8 96 3f
       3.4982905 1.3812482 1.197482 1.1784955
000180 68 c5 a6 3f 56 f2 ad 3f 80 0d 94 3f a9 92 ae 3f
       1.3028994 1.358958 1.156662 1.3638507
000190 10 9f b2 3f c0 6e ae 3f fe e1 9e 3f e5 e7 b6 3f
       1.3954792 1.3627548 1.2412717 1.4289519
0001a0 de 90 ab 3f 08 cb 9e 3f fa fb ca 3f 9c b3 36 40
       1.3403585 1.240571 1.5858147 2.8547125
0001b0 ea c0 3c 40 f1 6b 9a 3f 3d c6 a6 3f be 5f a0 3f
       2.9492745 1.2064191 1.3029248 1.2529218
0001c0 3f 31 9c 3f 0a 79 ad 3f 19 a2 09 40 bb 4f b0 3f
       1.2202529 1.3552563 2.1505187 1.3774332
0001d0 7e 4b a7 3f e4 78 b0 3f 8d d6 e7 3f a9 06 a2 3f
       1.3069913 1.3786893 1.8112351 1.2658283
0001e0 52 84 34 bf 69 72 40 bf 30 bd 03 bf e1 18 24 bf
       -0.70514405 -0.75174576 -0.5146055 -0.6410046
0001f0 11 ce 28 bf 62 74 dc be 34 0c 1d bf 09 cc 1e bf
       -0.6593943 -0.43057543 -0.61346745 -0.6203008
000200 a6 63 e3 be bd 7d 26 bf 54 cb 3f bf 92 36 02 bf
       -0.44411963 -0.6503561 -0.7491963 -0.5086452
000210 07 d8 fc be ba 1e f5 be 0c d0 da be 6a ea d7 be
       -0.49383566 -0.47875005 -0.42736852 -0.4217103
000220 3a af fa be ce 39 ee be b2 ba 1c bf 8f f5 2c bf
       -0.48961812 -0.46528476 -0.61222374 -0.6756219
000230 61 d5 17 bf 76 73 e1 be e2 ac 38 bf 7b 41 3a bf
       -0.59309965 -0.44033402 -0.721388 -0.72756165
000240 dc 20 09 bf 70 e8 f2 be bb d3 0b bf 92 4a 16 bf
       -0.53565764 -0.4744296 -0.5461995 -0.58707535
000250 6d 41 29 bf 2b a1 21 bf bb fb 5d 3f b0 6e 15 40
       -0.66115457 -0.6313655 0.86712235 2.3348808
000260 9d 3b 74 40 9b 1c 8f 3f d5 ba b4 3f a1 44 ab 3f
       3.8161385 1.1180605 1.4119517 1.3380319
000270 12 26 a7 3f 5a f8 9b 3f b1 97 92 3f 2f b5 98 3f
       1.3058493 1.2185166 1.1452543 1.1930293
000280 25 28 b3 3f 81 20 ab 3f e7 24 b0 3f 46 95 c1 3f
       1.3996626 1.3369294 1.3761262 1.512368
000290 6f 67 b3 3f ae e8 9b 3f 08 c7 b7 3f fc d2 40 40
       1.401594 1.2180383 1.4357615 3.0128775
0002a0 61 b3 29 40 8f 74 97 3f 8d 6c ad 3f 7d 0f ac 3f
       2.6515734 1.1832446 1.3548752 1.3442227
0002b0 a2 06 94 3f 11 f7 9b 3f b5 d2 ec 3f 4d d0 a5 3f
       1.1564524 1.2184774 1.8501803 1.2954193
0002c0 05 f1 8e 3f 32 49 6c 3f 39 d2 f1 3f eb 1f 97 3f
       1.1167303 0.9229919 1.889228 1.1806616
0002d0 a9 17 09 bf d8 aa 1b be 07 6f c2 bd 71 be cb bd
       -0.5355173 -0.1520189 -0.09493833 -0.09948433
0002e0 c3 69 dc bd fb 09 a8 bd 38 79 12 be e5 ea bb bd
       -0.1076236 -0.082050286 -0.14304054 -0.09175662
0002f0 00 ac 2e bd d4 5e dc bd f0 18 41 3c 70 f2 cd 3d
       -0.0426445 -0.107602745 0.011785731 0.10056007
000300 24 1c 8d 3d df 02 03 be dc 24 2e 3e 8a 73 0e be
       0.06890133 -0.12794064 0.17006248 -0.13911262
000310 18 5f b2 bd 79 b3 c2 bd 78 75 9f 3d 90 97 74 bc
       -0.08709544 -0.09506888 0.07786077 -0.014928713
000320 00 92 bb b9 6b 2f 08 be af 94 da bd e6 0d 98 bd
       -0.00035776198 -0.13299339 -0.106728904 -0.07424526
000330 20 87 97 3d 99 79 9c bd 00 c2 85 3a 16 bd 10 3e
       0.0739882 -0.076403804 0.0010204911 0.1413463
000340 e0 38 dd bc 12 91 32 be de 15 f5 be c2 06 29 bf
       -0.02700466 -0.17438152 -0.47868246 -0.66025937
000350 b1 ff 20 bf 5d 98 0d bf e2 bf 3a bf 45 fe ec be
       -0.62890154 -0.5531061 -0.7294904 -0.46287742
000360 65 7b 04 bf f3 1f 32 bf 54 3c 31 bf b4 43 f5 be
       -0.51750785 -0.6958 -0.6923268 -0.47903216
000370 b8 a0 1f bf 6d 4c 03 bf e2 82 42 bf 67 1d 3b bf
       -0.6235461 -0.5128849 -0.7598096 -0.7309174
000380 79 55 d8 be d1 95 25 bf de e1 da be d7 79 e4 be
       -0.4225271 -0.64681727 -0.42750448 -0.44624206
000390 c4 f9 40 bf 31 24 11 bf 98 0f 43 bf 53 db df be
       -0.7538111 -0.5669585 -0.7619567 -0.4372202
0003a0 56 61 fe be f9 dc d8 be ad bf fb be 9e b3 2d bf
       -0.49683636 -0.4235609 -0.49169675 -0.678522
0003b0 0b 3f ef be ca e4 3d bf 6e 4c 24 bf 99 19 0c bf
       -0.46727785 -0.7417723 -0.6417912 -0.5472656
0003c0 84 31 77 3f 4f 24 e4 3f 1c 8d 62 40 0b 83 65 3f
       0.9655993 1.782358 3.5398626 0.8965308
0003d0 00 64 b5 3f 2c 26 8a 3f ea d3 85 3f 01 48 8f 3f
       1.4171143 1.0792899 1.0455296 1.1193849
0003e0 0b a1 6d 3f 87 f3 9b 3f 23 7f a9 3f cf 39 a6 3f
       0.9282386 1.2183694 1.3241924 1.2986392
0003f0 89 08 a6 3f be d5 b7 3f 80 d7 ac 3f d6 3e 94 3f
       1.2971355 1.4362104 1.3503265 1.1581676

bias f4 [20]
000000 36 fc 6d 40 da e4 31 bf b6 ee 1b bf bb a4 8a 40
       3.7185187 -0.69489825 -0.6091112 4.3326087
000010 e8 83 d7 be 70 d1 83 40 70 d8 3d bf 5e 93 fb be
       -0.42092824 4.119316 -0.7415838 -0.4913587
000020 12 97 7b 40 52 ff 17 bf 39 54 88 40 4e b9 2e bf
       3.9310956 -0.5937396 4.260281 -0.682515
000030 e0 b0 7f 40 71 4d 31 bf dc f4 87 40 d1 b0 5d 40
       3.9951706 -0.6925879 4.24864 3.463917
000040 09 b6 81 40 58 b7 e7 be eb a1 86 40 d5 b5 87 40
       4.053471 -0.45257068 4.2072654 4.2409463

weight f4 [10, 20]
000000 28 5a f9 bc 3f a0 05 bf cf 92 0e bf aa 96 d4 be
       -0.030438498 -0.5219764 -0.5569276 -0.41521198
000010 49 1b 4a bf 9c 27 40 bf c0 03 12 3e 54 40 16 bf
       -0.78947884 -0.7506044 0.14259243 -0.58691907
000020 12 bd 0b bf bd 4c f6 be 46 21 f6 be e2 f3 4a bf
       -0.54585373 -0.48105422 -0.4807226 -0.79278386
000030 07 ed f8 be fe 54 dd be 36 1d 1a bf 49 76 23 bf
       -0.48618338 -0.43228906 -0.6020082 -0.63852364
000040 d7 cf 37 bf 12 9a 10 bf ff e6 22 bf 52 de fc be
       -0.71801513 -0.5648509 -0.6363372 -0.49388367
000050 2e a4 72 3f 92 8d 0a 3f bc 05 05 3f ff ac ae 3f
       0.9478177 0.5412227 0.51961875 1.3646544
000060 66 05 ee 3e c4 45 96 3f 2c 76 f5 3e 1b 5d c7 3e
       0.46488494 1.1740041 0.4794172 0.3893822
000070 d3 b4 8c 3f 80 e1 f4 3e 39 aa 89 3f 14 0e 0d 3f
       1.0992683 0.47828293 1.0755073 0.55099607
000080 98 23 71 3f 0e 0f 05 3f 04 bd 90 3f 7f 41 6e 3f
       0.94194937 0.51976097 1.1307683 0.9306869
000090 e3 16 a1 3f b3 77 08 3f a3 37 ac 3f ca e0 8d 3f
       1.258511 0.53307647 1.3454479 1.1084225
0000a0 a8 a4 08 3d 6d 75 cc be f1 7a 14 bf 67 3c 51 bf
       0.033360153 -0.3993334 -0.58000094 -0.8173279
0000b0 4f 51 e4 be 3b c0 2b bf 6a 15 29 be c0 52 e0 be
       -0.44593284 -0.67090195 -0.16512075 -0.43813133
0000c0 6e 86 35 bf 01 a0 06 bf f1 65 1c bf 62 9a fc be
       -0.7090825 -0.52587897 -0.6109305 -0.49336535
0000d0 27 66 4b bf a9 fe 0f bf b9 7d d0 be f4 f5 09 bf
       -0.7945275 -0.56247956 -0.4072092 -0.5389092
0000e0 12 28 4f bf d4 a4 d6 be ce dd 0d bf 65 ca 12 bf
       -0.8092052 -0.4192263 -0.5541657 -0.5734008
0000f0 52 be 8d 3f 20 a0 1e 3c f0 9c 51 3e 00 1c 89 3f
       1.1073706 0.009681731 0.20470023 1.071167
000100 2c a0 49 3f be bf 9b 3f 72 37 0c 3f 5b f0 47 3f
       0.7876003 1.216789 0.547721 0.7810113
000110 c7 c8 a6 3f 7c 06 0e 3f 1d 94 9d 3f 1a 87 5b be
       1.3030022 0.55478644 1.2310826 -0.21438256
000120 93 22 ad 3f 1a e4 1b 3f 0e af b1 3f 1b ba 66 3f
       1.3526176 0.6089493 1.3881547 0.90127724
000130 7d a5 b0 3f dc 65 2d 3f d1 a5 98 3f 5b b5 aa 3f
       1.3800503 0.6773355 1.1925603 1.3336595
000140 7a c7 97 3f f1 d8 46 3f fd b3 14 3f ee 98 a6 3f
       1.185775 0.77674776 0.5808714 1.301542
000150 92 b6 f2 3e 99 f7 9c 3f 25 43 f7 3e 43 f3 2b 3f
       0.47404915 1.2263061 0.48293415 0.6716806
000160 25 52 b9 3f 92 98 e9 3e 4d b8 b2 3f 4b 5b 25 3f
       1.4478194 0.45624214 1.3962494 0.64592427
000170 d9 be 8c 3f ac e8 fd 3e 5c bf b1 3f 98 fb 87 3f
       1.0995742 0.49591577 1.3886523 1.0623655
000180 13 31 8d 3f ae b3 36 3f 1d 84 b8 3f 5d 10 84 3f
       1.1030601 0.7136792 1.4415318 1.0317494
000190 93 4f 6d 3f 8e ae d1 3e 72 a2 1c 3f 7e e0 b4 3f
       0.92699546 0.40953487 0.6118537 1.413101
0001a0 be d1 09 3f 91 4f b5 3f ca ac 40 3f 03 d3 e0 3e
       0.53835666 1.4164907 0.75263655 0.4391099
0001b0 3b 05 8e 3f f0 3b 26 3f bb d1 b1 3f d8 6c 43 3f
       1.1095346 0.6493521 1.389213 0.7633796
0001c0 f2 57 b2 3f 97 6a f9 3e af 4c b4 3f 3b 11 7f 3f
       1.3933089 0.48714134 1.4085902 0.99635667
0001d0 2c b7 b6 3f 58 49 d1 3e e4 e1 9e 3f 3a 3f ba 3f
       1.427465 0.4087627 1.2412686 1.4550545
0001e0 5e 07 2f 3e db 57 06 bf 63 e9 c5 be ba 72 0d bf
       0.17092654 -0.52477807 -0.38654622 -0.55253184
0001f0 b8 d8 14 bf ed 9e 32 bf 16 c4 04 3e dc 2f 4c bf
       -0.58143187 -0.6977375 0.12965426 -0.7976053
000200 78 88 df be 24 6e 0d bf 9e 8a f0 be 52 1b d1 be
       -0.43658805 -0.55246186 -0.46980757 -0.40841156
000210 79 7f 2a bf 0f 80 d9 be 7f 69 1a bf 36 9f 27 bf
       -0.6660076 -0.42480513 -0.60317224 -0.6547731
000220 48 9a 14 bf 64 77 25 bf 73 e3 30 bf 45 3f 41 bf
       -0.58047915 -0.646353 -0.6909706 -0.75487167
000230 e0 ea 1a bd e0 76 c8 bd 28 8c ad 3c 80 b6 31 3e
       -0.03782165 -0.097882986 0.021184996 0.17354774
000240 1e d1 16 be 85 05 2c be a0 d6 31 bd 02 65 5c 3e
       -0.1472821 -0.1679898 -0.043417573 0.21522906
000250 18 7e e8 3d 38 04 33 3d 7c 94 a2 3d 33 be 3f be
       0.113521755 0.043705195 0.079384774 -0.18724899
000260 cf 05 4f be a6 e3 b3 bd 88 45 4d be 8c 21 18 be
       -0.2021706 -0.08783655 -0.20046055 -0.14856547
000270 06 28 b5 bd 89 2c 50 be b8 fd 94 bd 0b 48 46 be
       -0.088455245 -0.20329489 -0.072749555 -0.1936342
000280 76 33 09 be 47 0c 09 bf c2 69 19 bf 7d d0 32 bf
       -0.13398537 -0.5353436 -0.59927 -0.6984938
000290 1d 8b 1f bf 02 58 4f bf 7c d1 34 3e 20 76 cf be
       -0.62321645 -0.80993664 0.17658037 -0.4051981
0002a0 c1 9c ef be 68 d6 13 bf 42 db 18 bf 33 88 24 bf
       -0.4679928 -0.5774903 -0.5970956 -0.64270324
0002b0 c2 03 12 bf e2 c4 cc be b1 b4 30 bf c6 3d 3d bf
       -0.57036984 -0.3999396 -0.69025713 -0.73922384
0002c0 b6 6e e8 be 9c 29 f2 be eb cb 2f bf 89 47 36 bf
       -0.45396966 -0.4729737 -0.6867053 -0.71202904
0002d0 98 fb 06 be 4a 78 43 bf 3d 6c 48 bf e1 3e 35 bf
       -0.13181913 -0.7635542 -0.7829016 -0.7079907
0002e0 5f 31 47 bf 4c 79 dd be 52 31 a2 bd 71 bc 25 bf
       -0.7780971 -0.43256605 -0.07919563 -0.64740664
0002f0 5f de 08 bf d1 34 04 bf c2 8a 30 bf 1c 05 09 bf
       -0.5346431 -0.5164309 -0.6896173 -0.5352342
000300 88 4f 5a 3e fc 16 52 bf b1 7a 2e bf f2 19 de be
       0.21319401 -0.8206632 -0.6815596 -0.4337917
000310 46 84 07 bf 3a 8f 24 bf 05 8e 4d bf ae 79 00 bf
       -0.5293621 -0.64281046 -0.8029483 -0.5018567

bias f4 [10]
000000 58 bd d4 be 4d fb 88 40 cb 8d f6 be 43 92 83 40
       -0.41550708 4.2806764 -0.48155054 4.111604
000010 cd 67 87 40 46 f0 87 40 06 c5 fa be d6 f3 ca bd
       4.231421 4.2480803 -0.48978442 -0.09909789
000020 19 90 e5 be f2 05 fc be
       -0.448365 -0.49223286

weight f4 [1, 10]
000000 cb 80 0c 3f cf f4 99 3f 61 3f e0 3e 73 34 a3 3f
       0.5488402 1.2027835 0.43798354 1.2750381
000010 1d b2 aa 3f 70 2d af 3f 8d 75 d4 3e 4c ff 72 be
       1.3335606 1.3685741 0.41495934 -0.237302
000020 29 71 d7 3e 97 e9 0c 3f
       0.42078522 0.5504393
