mwo/models/trained_vfa_models/model_adp_greedy_the_same.pth (torch_old, 23388 bytes, 9 tensors)

weight f4 [40, 25]
0	0xbec4e915	-0.38459077
1	0x3ea5f1d5	0.32411066
2	0xbf19c5ee	-0.6006764
3	0xbf82940b	-1.0201429
4	0x3d2f2e68	0.042768866
5	0x3e03ef8f	0.12884353
6	0xbec397a4	-0.3820163
7	0xbe20fdf4	-0.15721875
8	0xbe454dbb	-0.19267933
9	0xbe0477be	-0.12936303
10	0xbf219b07	-0.6312718
11	0x3d917659	0.07102651
12	0xbd0a4f77	-0.03376719
13	0x3d913632	0.07090415
14	0xbea0ef68	-0.31432652
15	0x3d824e00	0.063625336
16	0xbf23212f	-0.6372251
17	0xbe1894f7	-0.14900576
18	0xbf5d75d4	-0.86507916
19	0x3d951611	0.072795995
20	0xbee31570	-0.44352293
21	0x3dfe82d7	0.124272995
22	0xbea0c3be	-0.3139934
23	0xbf356dfc	-0.7087095
24	0xbf283678	-0.6570811
25	0x3e186fb8	0.14886367
26	0x3e18abbc	0.14909261
27	0xbecdfdbd	-0.4023265
28	0xbf5b4f33	-0.85667723
29	0x3d11744d	0.035511304
30	0x3e35d544	0.17757136
31	0xbe46cd16	-0.19414172
32	0xbd899321	-0.06717516
33	0xbd7aa1b8	-0.061189383
34	0x3e427c0f	0.18992637
35	0xbea64e59	-0.3248165
36	0x3e9a4157	0.30127975
37	0x3e391a16	0.18076357
38	0x3dad24f7	0.08454316
39	0xbcbd3560	-0.02309674
40	0xbcadc7e9	-0.021213489
41	0xbf1ef0b5	-0.6208604
42	0xbec6477e	-0.3872642
43	0xbf5f362d	-0.8719204
44	0x3db59957	0.08867138
45	0x3e1ae11b	0.15124933
46	0x3dc83ad9	0.09776849
47	0xbdf65cdd	-0.12029431
48	0xbec0092d	-0.37507
49	0xbf6e28fd	-0.93031293
50	0xbea9d40c	-0.3316959
51	0x3e8df97f	0.27729413
52	0x3e670974	0.225622
53	0x3e299ff5	0.16564925
54	0x3eb54af6	0.35408753
55	0x3d9a7319	0.075414844
56	0xbdff56a1	-0.12467695
57	0xbdd04869	-0.10170061
58	0x3f2789fa	0.6544491
59	0xbe888325	-0.26662555
60	0x3d7f704c	0.062362954
61	0xbc28a747	-0.010293788
62	0x3e7f2f00	0.24920273
63	0x3eb5e208	0.3552401
64	0x3e70a730	0.23501277
65	0xbf1171e9	-0.5681444
66	0xbe22ab31	-0.15885617
67	0x3e90f920	0.28315067
68	0xbe9a092a	-0.30085117
69	0x3ce31494	0.027719773
70	0x3d24b9da	0.040216304
71	0xbe4b1c7e	-0.19835088
72	0xbe49b28a	-0.19697013
73	0xbd6fc915	-0.058541376
74	0xc00e81cd	-2.2266724
75	0x3e8b433a	0.27199727
76	0xbfc57d49	-1.5428859
77	0x3ea0ad5d	0.31382266
78	0xbe907c6b	-0.28219923
79	0x3ef7594c	0.48310316
80	0x3e4acbb9	0.19804277
81	0xbe24a5e4	-0.16078907
82	0xbe26208f	-0.16223358
83	0x3f498e78	0.78733015
84	0x3f035a1c	0.5130937
85	0x3ea08f6b	0.3135942
86	0xbd846a88	-0.06465632
87	0xbe5ff37b	-0.21870224
88	0xbe89acae	-0.26889557
89	0xbf03035b	-0.51176995
90	0x3dcb091e	0.09913848
91	0xbf10897b	-0.5645978
92	0x3e032e8b	0.12810723
93	0xbe0c2733	-0.13686828
94	0x3aabf32d	0.0013118737
95	0xbf0036e1	-0.5008374
96	0x3e252a44	0.16129404
97	0x3c4f663b	0.012658651
98	0xbe29d174	-0.16583806
99	0xc02d11dd	-2.7042153
100	0xbe1a6eac	-0.1508128
101	0x3ec008e1	0.37506774
102	0xbe876c59	-0.2644985
103	0xbf4999d1	-0.7875033
104	0x3e74ccb8	0.23906219
105	0x3e2b8b47	0.16752349
106	0xbe1276c6	-0.14303121
107	0x3e3b23c8	0.18275368
108	0xbda44c70	-0.08022392
109	0x3e0867c3	0.13320832
110	0xbdeb2912	-0.11482443
111	0x3ec4e195	0.38453355
112	0x3cc9d23a	0.024636377
113	0x3e6ec570	0.23317504
114	0x3e668b15	0.22513993
115	0x3e15407b	0.14575379
116	0xbd980db3	-0.07424488
117	0x3e15cc63	0.14628749
118	0xbc9b48c2	-0.018955592
119	0xbdbe8333	-0.09302368
120	0x3d7e8ef7	0.06214806
121	0x3e3c59f2	0.18393686
122	0x3db7e789	0.08979709
123	0xbd4a0d85	-0.0493293
124	0xbfebb168	-1.8413515
125	0xbe22c3c6	-0.15894994
126	0x3ea65c20	0.3249216
127	0xbe3d7dea	-0.18505064
128	0xbe8bbf15	-0.27294222
129	0x3df1a24e	0.11798535
130	0x3d7c4352	0.06158764
131	0x3de2f381	0.11081601
132	0xbd4b78ec	-0.049675867
133	0x3e2fbf86	0.17162904
134	0xbe21c73f	-0.15798663
135	0x3cc242fe	0.023713585
136	0xbd9f9b2f	-0.07793271
137	0x3d57004a	0.05249051
138	0xbdebe73f	-0.11518716
139	0x3ebda6db	0.37041363
140	0x3e2298cd	0.15878601
141	0xbdcde3ca	-0.10053213
142	0x3db57df1	0.08861912
143	0xbd22a793	-0.039710592
144	0xbe737e06	-0.23778543
145	0xbd511b5d	-0.051051486
146	0xbcb071db	-0.021538666
147	0x3d066dec	0.032819673
148	0x3e99a4ad	0.3000845
149	0xbffdfe65	-1.984326
150	0xbf64b333	-0.89335936
151	0xbfe9f569	-1.8278018
152	0xbedfba78	-0.43696952
153	0xbf3cf82b	-0.73816174
154	0xbe0cfb68	-0.13767779
155	0x3f038445	0.513737
156	0xbeb503c0	-0.35354424
157	0x3ec54a09	0.38533047
158	0x3efa3e85	0.48875824
159	0x3d0462df	0.032320853
160	0xbdf5d7d4	-0.120040566
161	0x3f7e81db	0.99416894
162	0xbf0879ef	-0.53311056
163	0xbd2cf3b5	-0.042224605
164	0xbf3b822f	-0.7324552
165	0x3f12a991	0.5728999
166	0xbf9bdb71	-1.2176343
167	0x3f891f2b	1.0712637
168	0xbf77511b	-0.9660813
169	0xbe85b1fd	-0.26112357
170	0xbc8332d0	-0.01601544
171	0xbdefce12	-0.11709227
172	0xbeb535da	-0.35392648
173	0x3c41e879	0.011835211
174	0x3fce29d2	1.6106513
175	0xbf295be3	-0.66155833
176	0x3e568864	0.20950466
177	0xbe2473b4	-0.16059762
178	0xbee40c68	-0.44540715
179	0x3c2f5811	0.010702149
180	0x3dea9ce1	0.114557035
181	0xbe4b107c	-0.19830507
182	0x3f2c8e2c	0.6740444
183	0xbeb9a7c6	-0.36260813
184	0x3f38d8f1	0.72206026
185	0xbf08cfeb	-0.5344226
186	0x3e9e6938	0.3093965
187	0xbea2172a	-0.31658298
188	0x3c9dd2ec	0.019265614
189	0xbee69cbb	-0.4504145
190	0x3e279faf	0.16369508
191	0xbec00fd4	-0.37512076
192	0x3e3dc05c	0.1853041
193	0xbe5d9417	-0.21638523
194	0x3df06e1b	0.11739751
195	0xbe73095d	-0.2373404
196	0x3ec629ee	0.38703865
197	0xbd0d90a4	-0.03456177
198	0xbd067b4b	-0.032832425
199	0xbf2fa78d	-0.6861504
200	0xbf03671a	-0.51329195
201	0x3d3e6db0	0.046491325
202	0xbe6a72aa	-0.22895303
203	0xbf217968	-0.63075876
204	0xbda3d163	-0.07998922
205	0x3ef08c43	0.4698201
206	0xbec7c55d	-0.39017764
207	0x3e64f040	0.22357273
208	0xbea052b6	-0.31313103
209	0xbe2b8087	-0.16748248
210	0xbed741b5	-0.42042318
211	0x3eb0fce4	0.3456794
212	0x3c14fd02	0.009093525
213	0xbe77b788	-0.24191105
214	0xbdd03d78	-0.10167974
215	0x3dab8508	0.08374983
216	0xbe0b4c44	-0.13603312
217	0xbe746cc9	-0.23869623
218	0xbd93a5bb	-0.07209345
219	0xbe135172	-0.14386538
220	0xbebea63c	-0.37236202
221	0xbd4273f4	-0.047473863
222	0xbdb1a0b5	-0.086732306
223	0x3e0d42f0	0.13795066
224	0xbf9c9517	-1.2232999
225	0xbe137c53	-0.14402895
226	0xbee65b81	-0.44991687
227	0x3f482b34	0.7819092
228	0x3eda2a7d	0.4261054
229	0xbf40aac3	-0.7526056
230	0xbe3b24bc	-0.18275732
231	0xbebd25f2	-0.36943012
232	0x3ede8615	0.4346167
233	0x3e9ced65	0.30649868
234	0xbeb20057	-0.34765884
235	0xbe5ce262	-0.21570733
236	0xbe85e1f9	-0.26148966
237	0xbfc359af	-1.5261744
238	0xbedac480	-0.42728043
239	0xbfd926ef	-1.6965007
240	0xbc05d0dc	-0.008167472
241	0x3ead9eb8	0.33910155
242	0xbe3f0238	-0.1865319
243	0x3da56532	0.08075942
244	0xbe8c8289	-0.2744334
245	0xbf3ed0a3	-0.74537104
246	0x3d1a766f	0.037710603
247	0xbbf64c91	-0.0075164516
248	0x3e55e8d0	0.20889592
249	0xc006a653	-2.1039016
250	0x3e011bbc	0.12608236
251	0x3f629804	0.8851321
252	0xbe2eff24	-0.17089516
253	0xbefd77be	-0.4950542
254	0x3eefc9e6	0.46833724
255	0x3c808a3d	0.015690917

bias f4 [40]
0	0x3ecd7f90	0.40136385
1	0x3e105779	0.14095868
2	0x3fc3f4ec	1.5309119
3	0x3fa3f48e	1.2809007
4	0x3f3075e3	0.6892988
5	0x3f40b492	0.7527553
6	0x3f9e3c30	1.2362118
7	0x3f38dbbc	0.7221029
8	0x3f1e4de1	0.61837584
9	0x3f49e18d	0.7885979
10	0x3f6957d5	0.91149646
11	0xbe2c6f34	-0.16839296
12	0x3ee1f2f2	0.44130665
13	0x3f45e235	0.7729829
14	0x3f8db822	1.1071818
15	0x3f51760d	0.81820756
16	0x3f91f506	1.14029
17	0x3f10afc7	0.56518215
18	0x3f461153	0.77370185
19	0x3f95f9fb	1.1716913
20	0x3eeaf350	0.45888758
21	0x3f6553a3	0.89580745
22	0x3f7b3f7c	0.98143744
23	0x3f20c73d	0.62804013
24	0x3f7e6b93	0.99382895
25	0x3f28fc2c	0.66009784
26	0x3f70ecf7	0.9411158
27	0x3f4269fa	0.7594296
28	0x3eb4a5e0	0.35282803
29	0x3f1b65c2	0.60702145
30	0x3f7017aa	0.9378611
31	0x3f26167a	0.64878047
32	0x3f1dd2dc	0.6164987
33	0x3f259953	0.6468708
34	0x3f6aad0d	0.91670305
35	0x3f0a38b3	0.53992766
36	0x3f04978d	0.5179375
37	0x3ed7c41c	0.42141807
38	0x3f3ced58	0.7379966
39	0x3eef2387	0.46706793

weight f4 [30, 40]
0	0xbda3c3c2	-0.07996322
1	0x3dfaa3e3	0.1223829
2	0x3f7c97a9	0.98668915
3	0x3f7e2c8f	0.9928674
4	0x3eb9b8d3	0.36273822
5	0x3e4056c6	0.18783101
6	0x3e5fe133	0.2186325
7	0x3d2ca9d4	0.04215415
8	0x3d5e702d	0.054306198
9	0x3f794e9a	0.9738556
10	0x3e984ea2	0.29747492
11	0xbd8504f8	-0.06495088
12	0x3e5766a4	0.21035248
13	0x3dafa89e	0.08577083
14	0x3f9c5242	1.2212603
15	0x3ec1e981	0.37873462
16	0x3f29941c	0.6624162
17	0x3eb1c562	0.34720904
18	0x3e4254c5	0.1897765
19	0xbe41df46	-0.18932828
20	0x3e852298	0.26002955
21	0x3f14234d	0.57866365
22	0x3e951c39	0.29123095
23	0x3ed5b910	0.41742754
24	0x3f40cde2	0.7531415
25	0x3ebab0c2	0.3646298
26	0x3f369b6d	0.7133091
27	0x3e6fb400	0.23408508
28	0x3e4eb30d	0.2018549
29	0x3f64b338	0.89335966
30	0x3f1a21d9	0.602079
31	0x3e13c75d	0.1443152
32	0x3e2fad6c	0.17155999
33	0x3e8068f1	0.25080064
34	0x3e183c06	0.14866647
35	0xbd854968	-0.06508142
36	0x3e8c1e09	0.27366665
37	0x3e03554b	0.12825505
38	0x3eba96db	0.3644322
39	0x3e61c9cb	0.22049634
40	0xbea4cc03	-0.321869
41	0x3ce7986e	0.028270926
42	0x3f8f0472	1.1173232
43	0x3f857581	1.0426484
44	0x3ea50869	0.3223298
45	0x3e468e5a	0.1939024
46	0x3e49d0ee	0.19708607
47	0x3e3d74da	0.18501607
48	0x3d2961cb	0.04135303
49	0x3f4bedf4	0.7965996
50	0x3f094859	0.5362602
51	0xbe344395	-0.17603905
52	0x3e7d3049	0.2472545
53	0x3bfc2440	0.007694751
54	0x3f9dec42	1.2337725
55	0x3ecc3ad4	0.39888632
56	0x3f189153	0.5959675
57	0x3ead763d	0.3387927
58	0xbd864c3b	-0.065575086
59	0xbe6e17ea	-0.2325131
60	0x3e1af87a	0.15133849
61	0x3f2aa9f4	0.6666558
62	0x3cfc2fa3	0.030784434
63	0x3e613f3d	0.2199678
64	0x3f5db2e0	0.86601067
65	0x3e68b771	0.22726227
66	0x3f1e968b	0.6194846
67	0x3ed90d31	0.42392877
68	0x3d63f366	0.055652045
69	0x3f849aa1	1.0359689
70	0x3f04dcf2	0.51899636
71	0x3ec8a556	0.3918864
72	0x3e8757a4	0.26434052
73	0x3e320909	0.17386259
74	0x3e57ee08	0.21086895
75	0x3db94782	0.09046842
76	0x3e417c14	0.18894988
77	0x3e32c305	0.17457207
78	0x3ef94285	0.48683563
79	0x3e8e4cc4	0.27792943
80	0xbe917c40	-0.28415108
81	0x3d3a3ca3	0.045467984
82	0x3f8d7d9b	1.1053957
83	0x3f72c8b1	0.9483748
84	0x3e6f7f34	0.23388368
85	0x3d9bd5b8	0.07609123
86	0xbe03865b	-0.12844221
87	0xbd7415d8	-0.059591144
88	0xbb24603d	-0.0025081777
89	0x3f763e0d	0.9618843
90	0x3e8086fc	0.25102985
91	0xbe924038	-0.2856462
92	0x3e80ef08	0.25182366
93	0xbdf7ad60	-0.120936155
94	0x3f89f0a9	1.0776569
95	0x3eb8ffc4	0.36132634
96	0x3ecc755e	0.39933294
97	0x3dc5587e	0.09636019
98	0x3e2523d9	0.16126956
99	0xbe846e11	-0.25865224
100	0xbd5e2093	-0.054230284
101	0x3f1d3603	0.6141054
102	0x3e06bab0	0.13157153
103	0x3dbab0c3	0.09115746
104	0x3f621b31	0.8832274
105	0x3eb7ff65	0.35937038
106	0x3f266d07	0.6501011
107	0x3e66d7ed	0.22543307
108	0x3db95f9f	0.090514414
109	0x3f6ad283	0.91727465
110	0x3edc8fb5	0.4307839
111	0x3e6b6941	0.2298937
112	0x3e8839a6	0.26606482
113	0x3eb4caf2	0.35311085
114	0x3e4bd734	0.19906312
115	0x3c763e3f	0.015029489
116	0x3cc6442b	0.024202427
117	0x3ccdcf28	0.025123194
118	0x3e5ce0c8	0.21570122
119	0x3ebcd555	0.3688151
120	0xbda8f3b5	-0.082496084
121	0x3dfd5603	0.12369921
122	0x3f9fd564	1.2486997
123	0x3f7493dd	0.9553812
124	0x3e9b72eb	0.30361113
125	0x3ebcb039	0.36853197
126	0x3d116703	0.03549863
127	0xbcbe9b6f	-0.023267476
128	0xbdb159ee	-0.08659731
129	0x3f76ee0d	0.96456987
130	0x3eb73d17	0.35788795
131	0xbc5e1db8	-0.01355689
132	0x3e4c9b85	0.19981201
133	0xbde34791	-0.110976346
134	0x3f93ac58	1.153697
135	0x3ecc1eb5	0.39867178
136	0x3f095032	0.53637993
137	0x3e7bad33	0.24577789
138	0x3e4fa451	0.20277525
139	0xbde8d61a	-0.11368962
140	0xbce8351e	-0.02834564
141	0x3f20484e	0.6261033
142	0x3e2ddfed	0.16979952
143	0x3e4adfbd	0.19811912
144	0x3f6929e9	0.91079575
145	0x3ef7ef7f	0.4842491
146	0x3f44e254	0.7690785
147	0x3e97ed6c	0.29673326
148	0xbd392bfa	-0.045207955
149	0x3f5323a4	0.8247626
150	0x3f03e09a	0.5151459
151	0x3e937c75	0.2880589
152	0x3e1d1e65	0.15343626
153	0x3ebb74ec	0.36612642
154	0x3ea3a848	0.31964326
155	0xbd64c712	-0.05585391
156	0x3e2678a0	0.16256952
157	0x3e54940b	0.20759599
158	0x3f0236fa	0.5086514
159	0x3edc5c87	0.43039343
160	0x3de329eb	0.110919796
161	0x3e5193a1	0.20466472
162	0x3df3514d	0.11880741
163	0x3e49670f	0.1966822
164	0xbef8fe31	-0.48631433
165	0x3e1411ee	0.14459965
166	0xbeeaabb9	-0.4583414
167	0xbc5f1eb4	-0.01361816
168	0xbe08f305	-0.13373955
169	0xbca909f1	-0.020634623
170	0xbe905c7c	-0.2819556
171	0x3f5ee98f	0.8707513
172	0xbe148d40	-0.14507008
173	0xbee62557	-0.44950363
174	0x3d2a1bc1	0.041530374
175	0x3e72b037	0.23700033
176	0x3e8a0d52	0.26963288
177	0xbe4bb397	-0.19892727
178	0xbf19c3c8	-0.60064363
179	0xbf399e48	-0.72507143
180	0xbe80a6ca	-0.2512725
181	0xbd926597	-0.07148283
182	0x3f37508b	0.71607274
183	0xbe1c44e8	-0.1526066
184	0x3e9e48b7	0.30914852
185	0xbed01b53	-0.40645847
186	0x3ec43e5c	0.38328826
187	0x3d1996a4	0.037497178
188	0xbf240371	-0.6406775
189	0x3eeed1fc	0.4664458
190	0xbdf22f96	-0.118254825
191	0xbe7fe91e	-0.24991271
192	0xbe92f3f7	-0.28701755
193	0xbebdc092	-0.37060982
194	0xbe656bd5	-0.22404416
195	0xbea9bb2c	-0.33150613
196	0xbe5dc39c	-0.2165665
197	0xbcc68596	-0.02423362
198	0xbe6cf24a	-0.23139301
199	0xbe436b0a	-0.19083801
200	0xbd09c9c2	-0.033639677
201	0x3e42e669	0.19033207
202	0x3f8c65bb	1.0968546
203	0x3f5e8909	0.8692785
204	0x3e5dda68	0.21665347
205	0x3e924986	0.2857172
206	0x3e15f76b	0.14645164
207	0x3e414ec0	0.18877697
208	0x3dd5d207	0.1044045
209	0x3f83d538	1.0299444
210	0x3ee64ce0	0.44980526
211	0x3e257352	0.16157272
212	0x3d6eccc2	0.05830074
213	0x3d957580	0.07297802
214	0x3f95e34d	1.1709992
215	0x3ed4dfd3	0.41577014
216	0x3eefab5a	0.46810418
217	0x3e788c9a	0.24272385
218	0xbc6b70e2	-0.014370175
219	0xbe76896a	-0.24075857
220	0x3e80a88a	0.25128585
221	0x3f1aaeb6	0.6042284
222	0x3e83d6a4	0.25749695
223	0x3e72b31c	0.23701137
224	0x3f415db0	0.7553358
225	0x3eb4d669	0.35319832
226	0x3f23db14	0.6400616
227	0x3ec87c92	0.3915754
228	0x3e10aa18	0.14127386
229	0x3f81ae11	1.0131246
230	0x3ede4e3a	0.43419057
231	0x3ec9c7f1	0.39410356
232	0x3e548eab	0.20757549
233	0x3e6bdbce	0.23033068
234	0x3ed74df3	0.42051658
235	0x3e234140	0.1594286
236	0x3e3fc4ca	0.18727413
237	0x3d1bc5bb	0.038030367
238	0x3f1f2d40	0.6217842
239	0x3ee81c25	0.45333973
240	0xbf1a3d51	-0.6024981
241	0xbed0c7da	-0.40777475
242	0x3f85e952	1.0461829
243	0x3f455c35	0.7709382
244	0xbe0de0a6	-0.13855228
245	0xbe05945e	-0.13044879
246	0x3e8bcf66	0.2730667
247	0xbddefc65	-0.10887984
248	0xbe59f9bb	-0.21286671
249	0x3f49b9ed	0.78799325
250	0x3d6b0f5b	0.05738769
251	0xbeabcbdb	-0.33553967
252	0xbc9f3507	-0.019434465
253	0xbd89bd5e	-0.06725572
254	0x3f68f235	0.9099458
255	0x3e9d20ef	0.3068919

bias f4 [30]
0	0x3f1dd248	0.6164899
1	0x3edb234f	0.42800376
2	0x3edaea04	0.42756665
3	0x3ec5580e	0.38543743
4	0x3e048435	0.12941058
5	0x3eb6f440	0.35733223
6	0x3ebbd47d	0.36685553
7	0x3ed6ef8b	0.41979632
8	0x3e8b0dc6	0.27158946
9	0x3f014628	0.50497675
10	0x3f022f4f	0.5085344
11	0x3dc81f42	0.09771587
12	0x3f179248	0.5920758
13	0x3ef9fd20	0.48825932
14	0x3ee40fdc	0.4454335
15	0x3f0496e6	0.5179275
16	0x3e74f24a	0.23920551
17	0x3f0207b1	0.50792986
18	0x3f848ccd	1.0355469
19	0x402d6630	2.709362
20	0x3ebba88f	0.36652038
21	0x400f7a7f	2.2418516
22	0x3eb79590	0.35856295
23	0x400d82db	2.2111118
24	0x3f13920f	0.5764474
25	0x3ef33a3d	0.4750537
26	0x3ee17b36	0.44039315
27	0x3f1a2394	0.6021054
28	0x3f108d18	0.5646529
29	0x3eb5260f	0.353806

weight f4 [20, 30]
0	0xbdc06cf5	-0.09395782
1	0xbdd99f06	-0.106260344
2	0xbd3acb1b	-0.045603853
3	0x3ce84c7b	0.028356781
4	0xbe9e72b4	-0.30946887
5	0x3e02478f	0.1272261
6	0xbdd8f031	-0.10592688
7	0xbcd0d07b	-0.025490036
8	0x3dd140af	0.102174155
9	0x3e079f07	0.13244258
10	0x3dc479b8	0.095935285
11	0x3f97056c	1.179853
12	0xbdd0966a	-0.10184939
13	0x3dddc474	0.10828486
14	0xbdfde9c0	-0.123981
15	0xbc8ea242	-0.017411355
16	0x3df583c0	0.1198802
17	0x3df86920	0.12129426
18	0xbfd8a67c	-1.6925807
19	0xc04310d2	-3.0479016
20	0xbe1edda0	-0.1551423
21	0xc005dec8	-2.0917225
22	0xbdaeece5	-0.08541278
23	0xbf85abfa	-1.0443108
24	0xbd85a3cd	-0.06525383
25	0xbe1a4dc7	-0.15068732
26	0xbdf0ea6e	-0.11763464
27	0xbd22608d	-0.03964286
28	0xbce45f28	-0.027877405
29	0x3deccd0e	0.115625486
30	0x3dea0797	0.11427229
31	0x3ced0044	0.02893079
32	0x3df2a2cf	0.118474595
33	0x3ceacb7e	0.028661486
34	0xbf1567d3	-0.5836155
35	0x3e04e267	0.1297699
36	0xbe0d7540	-0.13814259
37	0x3d93d71b	0.072187625
38	0xbd549d25	-0.051907677
39	0xbd2d30e7	-0.042282965
40	0x3e89a546	0.26883906
41	0x3fc5258b	1.5402082
42	0xbc04f92f	-0.008116051
43	0x3df1792a	0.11790688
44	0x3e56fa81	0.20993997
45	0x3d11c6e9	0.035590086
46	0x3cced868	0.025249675
47	0x3e043f74	0.1291483
48	0xbf9fbdf2	-1.2479842
49	0xc0353215	-2.8311818
50	0x3c586071	0.013206587
51	0xbfdefad1	-1.7420293
52	0xbc12a082	-0.008949401
53	0xbf03be75	-0.5146249
54	0x3d8b0b51	0.06789268
55	0x3cdc607e	0.02690148
56	0x3e70214d	0.23450203
57	0xbd1e187e	-0.038597576
58	0x3d69a354	0.057040527
59	0x3cd4171b	0.025889924
60	0x3de20822	0.110367075
61	0x3e11b4d1	0.14229132
62	0x3cf2919e	0.029610451
63	0x3e350e93	0.17681341
64	0xbf609194	-0.87722135
65	0x3d9578d8	0.0729844
66	0xbd5ac0d4	-0.05340655
67	0xbd1a8a6d	-0.03772967
68	0x3e256457	0.16151558
69	0x3e7bb3cb	0.24580304
70	0xb6466db5	-2.9568157e-06
71	0x3fb95e46	1.4481895
72	0xbd3fc4cd	-0.046818543
73	0x3dea3d49	0.114374705
74	0x3e08ca8c	0.13358516
75	0x3e82a7df	0.255187
76	0x3dd282aa	0.102788284
77	0x3dd8d3c8	0.10587269
78	0xbfd43772	-1.657942
79	0xc03453d2	-2.817616
80	0xbc8365cf	-0.016039757
81	0xbff8cae0	-1.9436913
82	0xbc9ab6d6	-0.018886011
83	0xbf16c9f8	-0.5890193
84	0x3c858cf3	0.016302561
85	0x3e58321c	0.21112865
86	0x3dfcaa46	0.123371646
87	0x3e871829	0.2638562
88	0x3d98a92d	0.07454143
89	0x3e315640	0.17318058
90	0x3f0e49d9	0.5558143
91	0x3f1f347c	0.6218946
92	0x3f0be0ba	0.5463978
93	0x3f0efdb7	0.5585589
94	0xbf1cd4aa	-0.61262
95	0x3f1a98dc	0.60389495
96	0x3decef1a	0.115690425
97	0x3e870d9f	0.2637758
98	0x3eae55a7	0.34049723
99	0x3ef6e71c	0.48223197
100	0x3f05180f	0.51989836
101	0x3fc030db	1.501491
102	0x3f15506d	0.58325845
103	0x3ed93bed	0.42428532
104	0x3e78ef14	0.24309951
105	0x3efd0486	0.49417514
106	0x3e8bc268	0.27296758
107	0x3ef10953	0.47077426
108	0xbfa0bdf5	-1.255797
109	0xbfe3d761	-1.7800103
110	0x3f08fffa	0.5351559
111	0xbfc84141	-1.5644914
112	0x3e78861f	0.24269913
113	0x3f93e242	1.1553423
114	0x3f0fa368	0.56108713
115	0x3eb538f8	0.35395026
116	0x3ef35ff5	0.47534147
117	0x3f12d85f	0.57361406
118	0x3f0647f8	0.52453566
119	0x3f09016f	0.5351781
120	0x3da97a1e	0.08275245
121	0x3d9d8384	0.076911
122	0x3e47a175	0.19495185
123	0x3e4100b5	0.18847926
124	0xbf129268	-0.5725465
125	0x3be2c3c9	0.006920312
126	0x3e0837b8	0.13302505
127	0x3e9379b9	0.28803805
128	0x3ebaf50b	0.36515078
129	0x3e16faac	0.14744061
130	0x3d1cb21e	0.038255803
131	0x3fd55ae9	1.6668369
132	0x3ea7b37f	0.32754132
133	0x3e81c1fa	0.25343305
134	0x3e82d1d4	0.2555071
135	0x3d174384	0.036929622
136	0xbd441bd2	-0.047878094
137	0x3e7c9faa	0.24670282
138	0xbfb6185a	-1.4226182
139	0xc0387230	-2.8819695
140	0x3ea8e029	0.3298352
141	0xc019e9ce	-2.4048953
142	0x3e2fb19f	0.17157601
143	0xbf2a4385	-0.66509277
144	0x3ebc4b58	0.36776233
145	0x3d1d0776	0.038337193
146	0x3d9167a3	0.07099845
147	0x3cbe854a	0.023256917
148	0x3e2483c0	0.16065884
149	0x3e96e319	0.29470137
150	0xbe050d91	-0.12993456
151	0xbe0cce31	-0.13750531
152	0x3dee7293	0.11642947
153	0x3dcab338	0.098974645
154	0x3d94c3b8	0.07263893
155	0x3c890ea9	0.016730623
156	0xbd0fce65	-0.035108943
157	0x3da8130c	0.08206758
158	0x3dac3b52	0.08409752
159	0xbd57cb54	-0.052684143
160	0xbe122bef	-0.14274572
161	0xbf2b9488	-0.67023516
162	0xbe283117	-0.16424976
163	0xbe49cfd4	-0.19708186
164	0xbdd9fab2	-0.106435195
165	0x3da414a0	0.080117464
166	0x3c8b6c6f	0.017019479
167	0xbc6bc430	-0.014390036
168	0x3e5c21ff	0.21497343
169	0xbe9ee89c	-0.31036842
170	0xbe1b690a	-0.15176788
171	0xbda38581	-0.07984448
172	0xbd51256a	-0.05106107
173	0x3e619f2f	0.2203338
174	0xbe1503d2	-0.14552239
175	0x3d78d1b6	0.06074687
176	0x3d68c190	0.05682522
177	0xbe03436e	-0.12818691
178	0xbdd3818b	-0.10327443
179	0x3d173aac	0.03692119
180	0x3e8cc3b2	0.27493054
181	0x3e293933	0.16525726
182	0x3e2ddbe0	0.16978407
183	0x3ec56298	0.38551784
184	0xbef3149a	-0.47476655
185	0x3d508be8	0.050914675
186	0x3e04a6fc	0.12954324
187	0x3e204134	0.15649873
188	0x3e046340	0.12928486
189	0x3e26698e	0.16251203
190	0x3eacacea	0.33725673
191	0x3fae52cd	1.3619019
192	0x3ec9a7b9	0.39385775
193	0x3da040a9	0.07824833
194	0x3c963ef3	0.018340563
195	0x3e913bef	0.28366038
196	0x3e1b4e3b	0.15166561
197	0x3e9bb6b4	0.3041283
198	0xbfe7a2dc	-1.8096576
199	0xc038f5e3	-2.8900077
200	0x3e083cd4	0.13304454
201	0xc022357d	-2.5345147
202	0x3de47775	0.11155597
203	0xbf279547	-0.65462154
204	0x3ecd1ad0	0.4005952
205	0x3d28f017	0.041244593
206	0x3de62027	0.11236601
207	0x3ec4d6c9	0.38445118
208	0x3e421da8	0.18956625
209	0x3e142566	0.14467391
210	0x3e673e66	0.22582397
211	0x3ec4f107	0.3846514
212	0x3ed25dbd	0.41087142
213	0x3ec82a96	0.3909499
214	0xbf0e0610	-0.55478
215	0x3ec239dd	0.3793477
216	0x3d0bb187	0.03410485
217	0x3efa92fe	0.4894027
218	0x3ef65f50	0.48119593
219	0x3eb02577	0.34403583
220	0x3e5b3b4b	0.21409337
221	0x3fb295a4	1.3951917
222	0x3e820ca7	0.25400278
223	0x3ef3683d	0.47540465
224	0x3eaf51ba	0.3424204
225	0x3e8be9e9	0.27326897
226	0xbcfbeb41	-0.030751826
227	0x3ec5da4d	0.38643113
228	0xc00979dc	-2.1480627
229	0xc027fb76	-2.624723
230	0x3ec66761	0.38750747
231	0xc0450a65	-3.0787594
232	0x3ea64a9a	0.3247879
233	0xbf235fbd	-0.6381796
234	0x3e583d0f	0.21117042
235	0x3e68ea6c	0.22745675
236	0x3eb69a62	0.3566466
237	0x3ea42b4a	0.32064277
238	0x3e66d41a	0.22541848
239	0x3e80d5e6	0.25163192
240	0x3edf8909	0.43659237
241	0x3ec7920f	0.3897862
242	0x3e08be5b	0.13353865
243	0x3eb74dd6	0.35801572
244	0xbee82b1f	-0.453454
245	0x3ee75a58	0.45186114
246	0x3c7561d3	0.014976936
247	0x3ec56a82	0.38557822
248	0x3e6c3c5a	0.23069897
249	0x3e61caef	0.2205007
250	0x3ec481e9	0.38380364
251	0x3fbb5b12	1.4637167
252	0x3ecd70df	0.40125176
253	0x3ea5e1b4	0.3239876
254	0x3e9ca1bf	0.30592152
255	0x3ea0d592	0.3141294

bias f4 [20]
0	0x3ea42e7d	0.32066718
1	0x3ef20657	0.47270462
2	0x3eaca6f5	0.33721128
3	0x3f3f59df	0.7474651
4	0x3ef56fa8	0.4793675
5	0xbed9f912	-0.42572838
6	0x3e9f75e1	0.31144622
7	0x3eb0708c	0.34460866
8	0x3f03e431	0.5152007
9	0x3f22b310	0.6355448
10	0xbf139b90	-0.57659245
11	0x3eff0e02	0.49815375
12	0x3ea9a600	0.3313446
13	0xbe5577cd	-0.20846482
14	0x3f78c4b3	0.9717514
15	0x3f092c93	0.5358364
16	0x3e8c8d4b	0.27451548
17	0x3f09ebf6	0.5387567
18	0x3e9c2d3c	0.3050326
19	0x3ec0cf24	0.37658036

weight f4 [10, 20]
0	0xbb6670cd	-0.003516245
1	0xbe294aae	-0.16532394
2	0x3e045607	0.12923442
3	0xbe3b892b	-0.18314044
4	0xbd7a1699	-0.061056707
5	0x3f1e18b7	0.6175646
6	0xbd933c9e	-0.07189296
7	0x3ddf7790	0.109114766
8	0xbe0e785b	-0.139131
9	0xbd043b65	-0.032283206
10	0x3d2c3bd1	0.042049233
11	0x3e09c73a	0.13454905
12	0xbd86e597	-0.065867595
13	0x3e098562	0.13429788
14	0x3f2561a8	0.64602137
15	0x3e915e23	0.28392133
16	0xbca37cb0	-0.019956917
17	0x3e055b18	0.13023031
18	0xbe04e8fe	-0.12979504
19	0x3d0a82c7	0.033816125
20	0x3e61abbf	0.22038172
21	0x3dd78289	0.105229445
22	0x3eac96fb	0.3370894
23	0x3ed17cab	0.40915427
24	0x3ec83a8e	0.39107174
25	0x3eabd986	0.33564395
26	0x3ebb9c0e	0.36642498
27	0x3ed38814	0.41314757
28	0x3eda5159	0.42640188
29	0x3ef7b9a2	0.48383814
30	0x3e1b6b53	0.1517766
31	0x3e083e7d	0.13305087
32	0x3ece44b6	0.40286797
33	0x3d5857d2	0.052818127
34	0x3f000c6b	0.5001895
35	0x3dbbd852	0.09172119
36	0x3db5326d	0.088475086
37	0x3e5439d5	0.20725186
38	0x3e5fa754	0.21841174
39	0x3e234369	0.15943684
40	0x3c254b6a	0.010088781
41	0x3e212114	0.15735275
42	0x3e8bb1b3	0.2728401
43	0x3ee593af	0.44839236
44	0x3d49854e	0.049199395
45	0x3d46f31e	0.0485717
46	0x3ee4382b	0.44574103
47	0x3d7754d2	0.060383625
48	0x3e42c8fb	0.1902198
49	0x3ec13843	0.37738237
50	0xbe1dd0dd	-0.15411706
51	0x3e859ba2	0.260953
52	0x3eabf9cb	0.33589014
53	0x3dcff488	0.101540625
54	0x3f86bbe8	1.0526094
55	0x3f3ce366	0.7378448
56	0x3ea06183	0.31324396
57	0x3e09d7f7	0.1346129
58	0x3e9fc93e	0.31208223
59	0x3e994913	0.29938564
60	0x3eb676e3	0.35637578
61	0x3d4fafd1	0.05070478
62	0x3dc5716c	0.09640774
63	0x3eebc09b	0.46045384
64	0x3e1eae64	0.15496212
65	0xbd98f146	-0.07467894
66	0x3ef83b73	0.48482856
67	0x3ef395fe	0.47575372
68	0x3ef5764a	0.4794181
69	0x3ed74f8a	0.4205287
70	0xb9999bc4	-0.00029298489
71	0x3f01f6c1	0.5076714
72	0x3ea67509	0.32511166
73	0xbe7f0655	-0.24904759
74	0x3efaaeda	0.48961526
75	0x3dc7fa95	0.097645916
76	0x3efc21ee	0.49244636
77	0x3eb08304	0.34474957
78	0x3ec43840	0.38324165
79	0x3f06b00d	0.5261238
80	0x3e2ef344	0.17084986
81	0x3e386a07	0.18009196
82	0x3eec6e28	0.46177793
83	0x3e9e388e	0.30902523
84	0x3e802b42	0.25033003
85	0xbd84f32a	-0.06491692
86	0x3e843c55	0.2582728
87	0x3f05b291	0.52225596
88	0x3ef03b3a	0.46920186
89	0x3eccada7	0.39976236
90	0xbe06cc94	-0.13163978
91	0x3ebc169d	0.36736003
92	0x3f0b11ba	0.54323924
93	0x3dfa2b01	0.122152336
94	0x3f55504e	0.8332566
95	0x3ed31b2c	0.41231668
96	0x3e01ab97	0.12663113
97	0x3f058885	0.5216144
98	0x3efde9f9	0.4959257
99	0x3ec33320	0.38124943
100	0xbd461a96	-0.048365198
101	0xbdebb776	-0.11509602
102	0x3d72f602	0.059316643
103	0x3ee1806b	0.44043288
104	0xbc6d0a40	-0.014467776
105	0x3e8f7b7e	0.28023905
106	0x3eca4d0e	0.39511913
107	0x3e44a6f2	0.1920431
108	0x3e766167	0.24060594
109	0x3ed9ccfd	0.42539206
110	0x3d9d4117	0.076784305
111	0x3e4ad115	0.19806321
112	0x3dfd9661	0.12382198
113	0xbe116ecd	-0.14202423
114	0x3f4220a1	0.7583104
115	0x3f1beca1	0.6090794
116	0xbc85d8eb	-0.016338786
117	0x3e12d380	0.14338493
118	0x3e2a8853	0.16653566
119	0x3e1977f1	0.1498716
120	0x3e685ad6	0.22690901
121	0x3e7703b5	0.24122508
122	0x3eaff46f	0.34366176
123	0x3e61f547	0.22066222
124	0x3e8d456b	0.27592024
125	0x3cffd364	0.031228729
126	0x3ef5d13c	0.48011196
127	0x3f0ad185	0.5422595
128	0x3e6efbe0	0.2333827
129	0x3ec1fbaf	0.37887332
130	0xbdf0206b	-0.11724933
131	0x3eb397b4	0.35076678
132	0x3e81c034	0.25341952
133	0xbd88de40	-0.06683016
134	0x3efe44d0	0.49661875
135	0x3e17d669	0.14827885
136	0x3ed5ef7b	0.41784272
137	0x3eb953a6	0.3619663
138	0x3eedcf4b	0.46447214
139	0x3f0802a8	0.53129053
140	0x3d57795b	0.052605968
141	0x3e3804bc	0.17970556
142	0x3e1b8b04	0.15189749
143	0x3f0daaa5	0.5533851
144	0x3ec3dbd9	0.38253668
145	0x3e940a81	0.28914264
146	0x3e1846cb	0.14870755
147	0x3ee5b34a	0.4486335
148	0x3e5961c4	0.21228701
149	0x3ec45fda	0.3835438
150	0xbe85ef89	-0.26159313
151	0x3e51d007	0.20489512
152	0x3ed7e702	0.42168432
153	0xbd8043bf	-0.062629215
154	0x3f502113	0.8130047
155	0x3f4bcebb	0.7961232
156	0x3e5e489b	0.21707384
157	0x3e809080	0.25110245
158	0x3eacecf8	0.33774543
159	0x3e8284b9	0.25491884
160	0x3e1c2c51	0.1525128
161	0x3e1008db	0.14065878
162	0x3ecf4886	0.40485018
163	0x3e88ee31	0.26744226
164	0x3ed68650	0.41899347
165	0x3da8f71a	0.08250256
166	0x3edf5ce4	0.43625557
167	0x3e785b4f	0.24253581
168	0x3e971f53	0.29516086
169	0x3edf559f	0.4362001
170	0x3d944834	0.07240334
171	0x3ee3f1c9	0.44520405
172	0x3e5f9b0a	0.21836486
173	0x3d93e9f4	0.072223574
174	0x3f8663ca	1.0499203
175	0x3ec8c99c	0.39216316
176	0x3e4be338	0.19910896
177	0x3e9710a4	0.29504883
178	0x3dcc215d	0.09967301
179	0x3ebfdc85	0.3747293
180	0xbed21708	-0.41033196
181	0xbde13a57	-0.109974556
182	0xbea4ef5e	-0.32213873
183	0x3f74af6c	0.9558017
184	0xbdae43f1	-0.085090525
185	0xbe0d9ac7	-0.13828574
186	0xbe662ba2	-0.22477582
187	0x3ea57de0	0.32322598
188	0x3eae23b8	0.34011626
189	0x3f7ba3b3	0.9829666
190	0xbdbbcc83	-0.09169867
191	0xbd801537	-0.062540464
192	0xbcb39519	-0.021921681
193	0x3d0797c8	0.033103734
194	0x4043357d	3.0501397
195	0x3f201791	0.6253596
196	0xbeac95cc	-0.33708036
197	0xbd5a18e9	-0.053246412
198	0x3f29904a	0.6623579
199	0x3f165f5d	0.5873926

bias f4 [10]
0	0x3d2e86d9	0.04260907
1	0x3f1aa319	0.6040512
2	0x3f57c60b	0.84286565
3	0x3f3011c4	0.6877711
4	0x3f461155	0.77370197
5	0x3f0dff3e	0.55467594
6	0x3ee2bbdc	0.4428395
7	0x3f5ba6da	0.8580147
8	0x3f7c958e	0.986657
9	0x3ff7f9f2	1.9373152

weight f4 [1, 10]
0	0xbe289bc5	-0.16465671
1	0x3eaa2c81	0.3323708
2	0x3e935c4e	0.2878136
3	0x3f0510d8	0.51978827
4	0x3f0ca3ac	0.54937243
5	0x3e7b8b2d	0.2456481
6	0x3f01d328	0.50712824
7	0x3ef5d433	0.48013458
8	0x3eaa42b1	0.33254007
9	0x3fac514d	1.3462311
