mwo/models/trained_vfa_models/model_base_case_demand_relaxation_300_iters.pth (torch_old, 23388 bytes, 9 tensors)

weight f4 [40, 25]
000000 d8 01 6a be 32 63 0d 3f 24 26 0e 3f 25 b8 ad 3e
       -0.22852266 0.55229485 0.5552695 0.33929554
000010 ae 3b 06 3f a7 75 f7 3d 0c 3a 81 3e cd a4 a4 3d
       0.52434814 0.12082987 0.252396 0.08039246
000020 f4 3e 37 3e 87 ef df 3a 7a b4 f5 3e 77 f7 ad be
       0.17895108 0.0017084935 0.47989255 -0.33977863
000030 c6 72 af 3e ef 2a 78 3e a1 3e c9 3e 6d 4f 9f 3e
       0.34267253 0.24235128 0.39305595 0.31115285
000040 d5 1c a9 3e 18 a1 46 3e e9 cd ea 3e 2f f6 16 3d
       0.3302981 0.1939739 0.45860222 0.036855873
000050 aa 02 d8 3e 68 69 32 bd af 27 18 3e 9b 74 7f be
       0.42189533 -0.043557554 0.14858888 -0.24946825
000060 72 a1 37 bf 0f f0 59 bf 2c df 56 bf 12 04 14 3f
       -0.7173072 -0.85131925 -0.83934283 0.5781871
000070 9d 35 fe 3e 3a 7b f9 be fa 11 27 bf af d6 87 be
       0.4965028 -0.48726827 -0.65261805 -0.26530978
000080 52 e0 51 bd e5 46 9d be 59 a9 80 be da a5 e2 3d
       -0.05123932 -0.3071815 -0.25129202 0.1106679
000090 3b 3c 56 3e 14 20 1c bf 70 06 39 bf 76 17 05 bf
       0.20921414 -0.6098645 -0.7227545 -0.51988924
0000a0 98 cc 37 bf 4d 44 21 bd dc 82 48 be 18 1a 15 3e
       -0.7179656 -0.039371777 -0.19581169 0.14560735
0000b0 ea b5 c3 bd 64 ca 63 be 07 79 f3 3d b8 e0 2d bf
       -0.09556182 -0.22245175 0.118883185 -0.6792102
0000c0 de 86 f7 3e 8d bb d4 3d 9c f4 b6 bd 81 1e c1 3e
       0.48345083 0.10387335 -0.08933374 0.37718585
0000d0 cb 44 9c 3e 6e 5f db 3e 41 18 08 3f c7 d3 98 3e
       0.30521235 0.42846245 0.5316201 0.29849073
0000e0 a7 b9 fd 3e b2 6b 17 3d c0 80 dd 3e 2b 27 ff 3d
       0.49555704 0.03696794 0.4326229 0.124586426
0000f0 03 53 65 3e 26 a7 79 be 79 e4 bf 3e e1 2a d4 3e
       0.22394948 -0.24380168 0.37478998 0.41438964
000100 71 74 2b 3e 93 a6 7f 3e 6a fa 51 3e 0a cc 81 3e
       0.16743638 0.24965887 0.20505682 0.25350982
000110 3f a7 a6 3e e3 78 14 3e 82 1d dc 3e c7 32 8a 3e
       0.32549474 0.1449924 0.42991263 0.26991865
000120 b9 84 a1 3e 08 c3 52 be 2b a5 16 bf 35 87 a5 be
       0.31546572 -0.20582211 -0.58845776 -0.32329717
000130 4a 32 02 3f c9 d3 02 3f ec 69 be 3e 9e 41 d3 3e
       0.50857985 0.5110441 0.37190187 0.41261
000140 7a 3b d6 3d e6 6e 7d 3e ab 63 49 be f6 44 01 3e
       0.10460563 0.24749336 -0.19666927 0.12623963
000150 dc 4b 87 bc 01 59 a7 3d 6b 16 c1 3d 06 4b e0 3d
       -0.016515665 0.08171273 0.09428104 0.109518096
000160 91 95 a7 3e f5 6a c1 3e 6a a1 d7 3c 42 04 88 3e
       0.32731298 0.37776914 0.026322085 0.26565748
000170 95 64 26 3f fa 1e 8e bc 4a 07 d3 3e c5 3c 1d 3e
       0.64997226 -0.017348755 0.412165 0.15355213
000180 a3 a6 11 3e 95 ca 9d bc d0 42 e7 3d ed 26 ab be
       0.14223723 -0.019261638 0.1129204 -0.33428136
000190 7c 45 8c be ed 30 1f 3f 8e 5b e7 3e d6 86 e6 3e
       -0.27396762 0.6218403 0.45187038 0.45024747
0001a0 11 4d cd 3e e0 e1 a7 3d 9b ad 05 3f 87 30 f1 3d
       0.4009786 0.08197379 0.52218026 0.11776834
0001b0 28 1e ed 3e 48 d2 cb 3d 4e b7 e3 3e 1b 03 62 3e
       0.4631207 0.09952217 0.44475788 0.22071497
0001c0 a0 d4 8d 3e 50 f3 9c 3e c5 36 47 3e 48 55 2a 3e
       0.27701283 0.30654383 0.19454487 0.16634095
0001d0 f5 0e b4 3e 37 18 13 3e ec d2 5d 3e df 02 04 3e
       0.3516766 0.14364706 0.21662492 0.1289172
0001e0 d1 26 1a 3e 10 5d 10 3d 99 e5 53 3e 9d 90 6f 3e
       0.1505387 0.035245 0.20693053 0.2339501
0001f0 63 6e 07 bf 25 92 22 3c 77 7b 04 3f cc 40 bb 3e
       -0.5290281 0.009922539 0.5175089 0.36572874
000200 c2 e6 c3 3e 8c f8 5f 3e 86 82 3a bc 43 25 08 3f
       0.38261992 0.21872157 -0.011383658 0.53181857
000210 d9 0d 0c bd 88 67 93 3e 93 14 e1 bd f1 c4 40 3e
       -0.034192894 0.28789926 -0.10990252 0.18825127
000220 48 d7 0e 3e 9b 19 70 3e 2d 98 dd 3e 26 87 3b 3e
       0.13949311 0.23447268 0.43280163 0.18313274
000230 7e 98 ec 3d ec 54 0d 3f 06 d0 99 3e ea 2a 73 3e
       0.11552523 0.55207705 0.30041522 0.23746839
000240 1e 73 b1 bc 25 a1 ae 3d 77 cd d8 bd a1 ef 70 3e
       -0.021661337 0.0852683 -0.10586064 0.23528911
000250 31 a1 02 3d b9 49 03 bf 8c 6f d9 3d 03 b9 e3 3e
       0.031892005 -0.51284367 0.10616979 0.4447709
000260 6f 08 ec 3e 73 c2 f9 3e c8 e1 46 3e b8 33 c0 3e
       0.46100184 0.48781165 0.19422066 0.37539458
000270 49 4d dd 3e 74 fd be 3b 59 b5 eb 3e d0 6e c7 bc
       0.43223026 0.005828554 0.46036795 -0.024344832
000280 91 d1 84 3e c3 16 f5 3d a3 65 2c 3e 90 d7 04 3f
       0.25941136 0.11967232 0.16835646 0.5189142
000290 40 dc cc 3d 65 77 26 3d 5e d5 e2 3e a3 2b a5 3e
       0.10002947 0.040641207 0.4430341 0.32259855
0002a0 10 19 fc 3e fd 8a a5 3e 02 bc b3 3e 54 2f 52 3e
       0.4923787 0.32332602 0.35104376 0.20525867
0002b0 38 82 91 3e 4c bc 03 3e 29 c0 db be 78 dc 9a be
       0.28419662 0.12864798 -0.42920044 -0.3024633
0002c0 b2 5f 30 3f 9d 06 89 3e d3 4a e3 3e b0 5e 10 3f
       0.6889602 0.26762858 0.44393024 0.5639448
0002d0 7c 1b a4 3e f0 5f 03 3f 98 bb 1a bd 0a 87 83 3e
       0.3205222 0.51318264 -0.03777656 0.25688964
0002e0 fb 1b de bd 09 2d 7c 3e 43 06 ed bd be 1c dd 3e
       -0.108451806 0.24626555 -0.1157346 0.4318599
0002f0 48 5c 86 3e 53 ef d2 3e 32 a6 97 3e 6b 93 04 3f
       0.2624228 0.41198215 0.29618984 0.5178744
000300 64 c4 9f 3e f5 e8 07 3e e5 45 5e 3c 08 ce bd 3e
       0.31204522 0.1327246 0.013566469 0.37071252
000310 2d 90 74 3e f8 a4 c1 3e 45 2d 8d be 3e c7 30 bf
       0.23883124 0.37821174 -0.275736 -0.6905402
000320 15 eb c7 3d d8 04 1b 3f c7 b4 cd 3e 75 2d b2 3e
       0.09761635 0.60554266 0.40176985 0.34800306
000330 64 cd 93 3e c5 a4 b2 3d a6 c3 09 3f 5b 79 1a 3e
       0.28867638 0.087228335 0.5381416 0.15085356
000340 f9 99 30 3e 57 cb 4e 3d 54 07 ca 3e 1b f6 11 be
       0.17246236 0.05048689 0.39458716 -0.14254038
000350 fa 2d 6b 3e 35 39 7b 3e bf 31 f3 3d 70 3f 9a 3e
       0.22966757 0.24533542 0.11874723 0.30126524
000360 93 86 19 3f f3 2e e9 3e 8d b6 9e 3e 2e ab 84 3e
       0.5997097 0.45543632 0.3099865 0.2591185
000370 c7 8c ac 3e c7 1a e1 3b 61 c2 81 3e 37 05 d0 bd
       0.33701155 0.006869647 0.25343612 -0.10157245
000380 8b 39 3e bf 20 cb 41 be 43 9b e1 3e 98 a2 98 3e
       -0.74306554 -0.18925142 0.44063768 0.2981155
000390 ac 84 0b 3f c1 88 f6 3e 16 3a c3 bc e9 47 da 3e
       0.54499316 0.4815121 -0.023831408 0.42632988
0003a0 b4 ed b5 bd 8f 98 d9 3e 1f 01 86 3d 95 36 ef 3e
       -0.08883229 0.42499205 0.065431826 0.4672133
0003b0 ae 41 62 3d 6d 78 12 3e 40 6e 0a 3e cd 03 c3 3e
       0.05523842 0.14303751 0.1351862 0.38088837
0003c0 d7 22 8e ba e0 cd ba 3e d9 05 f5 3e 24 6f 18 3e
       -0.0010844123 0.36485195 0.47856024 0.14886147
0003d0 92 79 f0 3e 04 02 0e 3e 2d 6f f5 bd c5 e1 3c 3e
       0.4696775 0.13867956 -0.11984096 0.18445499
0003e0 76 d8 4e 3d 56 23 2b bf df b1 21 bd 3f 30 15 3f
       0.050499402 -0.66850793 -0.03947627 0.5827674
0003f0 6e c9 f7 3e 96 b5 ff 3e 25 3d ce 3e 38 a2 91 3e
       0.48395866 0.49943227 0.40281025 0.28444076

bias f4 [40]
000000 30 44 28 3f 47 c2 63 3f 05 d8 f5 3e 9f 47 0e 3f
       0.65729046 0.8896832 0.48016372 0.55578035
000010 2d 50 39 3f f8 b6 74 3e 79 69 18 3f 3e 3c a7 3e
       0.72387964 0.23897922 0.5953594 0.3266315
000020 ee 8d 10 3f 4d 28 1c 3f 40 89 2a 3f 09 35 26 3f
       0.5646657 0.60998994 0.66615677 0.64924675
000030 62 28 22 3f c7 da c0 3e 85 34 a6 3e 28 cf 1b 3f
       0.6334287 0.37666914 0.32461944 0.6086297
000040 00 ed 2b 3f 43 98 e2 3e 24 8c 89 3e 48 a5 1c 3f
       0.6715851 0.4425679 0.2686473 0.611897
000050 3b 14 98 3e 16 0d 31 3f 94 c4 24 3f a3 26 11 3f
       0.29702935 0.6916059 0.64362454 0.5669958
000060 e9 1a f4 3e e5 f4 17 3f 47 e2 1e 3f 4e 2a 24 3f
       0.4767678 0.59358054 0.6206402 0.6412705
000070 79 2f 4f 3f cc 05 3a 3f 69 19 c0 3e 20 1c 18 3f
       0.8093181 0.72665095 0.37519386 0.59417915
000080 6a 85 20 3f d8 e4 1f 3f 51 d2 1d 3f b0 dc dd 3e
       0.62703574 0.6245856 0.6164904 0.43332434
000090 30 51 e8 3e bd de 0c 3f 02 3c db 3e 86 1a 11 3f
       0.4537444 0.5502737 0.4281922 0.56681097

weight f4 [30, 40]
000000 ee 69 e7 3e 9e 72 49 3f 22 0b ef 3e be 4a 9f 3e
       0.45198005 0.78690517 0.4668818 0.3111171
000010 d4 83 b4 3e c8 8e bc 3e 5a 58 6a 3e f7 72 e0 3e
       0.35256827 0.36827683 0.22885266 0.4383771
000020 ef fd de 3e 75 66 5f 3e da 76 a7 3e 18 d8 b1 3e
       0.4355311 0.21816428 0.32707864 0.3473518
000030 cc 18 b1 3e b7 64 a8 3e 3c 09 8f 3e 44 c2 bb 3e
       0.3458923 0.3288934 0.27936733 0.3667165
000040 db 1e df 3e c7 71 c5 3e 6d 2f 91 3e 12 63 ca 3e
       0.43578228 0.38563368 0.28356495 0.3952871
000050 21 d7 d0 3e 1f 1d c4 3e 5f 23 b5 3e 2e e8 8f 3e
       0.4078913 0.38303468 0.35378549 0.28106827
000060 c4 e1 31 3e 8c b6 b1 3e dd fc d3 3e 6b a8 8d 3e
       0.17371279 0.34709585 0.41403857 0.27667555
000070 1e e9 1c 3f 14 03 f4 3e 1d 88 b2 3e 5b fe e5 3e
       0.6129321 0.47658598 0.3486947 0.4492062
000080 26 ee aa 3e 46 49 b7 3e 61 cf 1c 3e a2 f2 97 3e
       0.33384818 0.3579809 0.15313484 0.29677302
000090 86 0d 99 3e 5d 2e 82 3e 5d 69 2d 3e 3f 06 80 3e
       0.2989313 0.25425997 0.16934724 0.25004765
0000a0 a4 5f 3a 3d e9 c6 ef bc 6e e2 b1 bd 1e 6b b6 3d
       0.045501366 -0.029269652 -0.08685766 0.0890715
0000b0 40 b2 dc bd 9c 71 e5 bd 0f c0 11 3e 20 c4 4f 3d
       -0.10776186 -0.1120331 0.14233421 0.05072415
0000c0 49 8c a9 bd ca 3a 3d bd 64 8f dd bd 72 c1 86 bd
       -0.082787104 -0.046198644 -0.10818365 -0.065798655
0000d0 00 25 a4 3a 30 be c4 bc 20 e6 74 3c e8 55 7c 3d
       0.0012523234 -0.02401647 0.014947444 0.061605364
0000e0 84 b5 1a 3d a5 c4 96 bd 32 e8 dc 3d dc 51 d7 bd
       0.037770763 -0.07361726 0.10786475 -0.1051366
0000f0 df 9f 97 bd 5b ba 01 3e b1 14 84 bd 98 9e 75 bd
       -0.0740354 0.12668745 -0.06449259 -0.0599657
000100 dc 7e 29 bd a1 df 82 bd 44 2b 11 be 78 1a a6 bc
       -0.04138075 -0.0639031 -0.14176661 -0.020276293
000110 c1 9d 34 3d 9e 4e 05 be de f3 a0 3d ad 9d d4 bd
       0.04409576 -0.13018271 0.07859014 -0.10381637
000120 b5 3f c2 bd 5d 83 03 be 36 f7 ed bd 98 47 04 3d
       -0.094848074 -0.1284308 -0.11619417 0.03229484
000130 63 8d 88 bd 41 6c 16 be 6e 40 ca 3d 40 94 7d 3b
       -0.066675924 -0.14689733 0.0987557 0.00386931
000140 98 17 70 3e 6d 34 49 3f 2b 4f cb 3e b7 b9 f2 3e
       0.234465 0.7859562 0.39708838 0.47407314
000150 ed 14 d9 3e 12 11 e7 3e 03 1a 9f 3e 1c 1d ec 3e
       0.42398778 0.4513021 0.31074533 0.4611596
000160 cb e3 e8 3e 2b 0d b1 3e f1 d8 b4 3e e6 f3 c0 3e
       0.45486292 0.3458036 0.35321763 0.3768608
000170 8b e3 ac 3e ed d9 cb 3e cc cf ea 3e a0 9a 5a 3e
       0.33767352 0.39814702 0.4586166 0.21348047
000180 45 0b c7 3e 24 e4 90 3e 3a 3f f4 3e 8a 2d 98 3e
       0.38875785 0.28299057 0.47704488 0.29722244
000190 41 25 c6 3e cb dc a9 3e 82 97 97 3e 39 65 de 3e
       0.38700297 0.33176264 0.2960778 0.43436602
0001a0 d9 60 bc 3e 1b 19 7f 3e 28 65 02 3f 44 2d 99 3e
       0.3679264 0.2491192 0.509356 0.29917347
0001b0 ac e2 2e 3f d8 51 34 3f 97 e0 74 3e 1c 2d bc 3e
       0.68314624 0.70437384 0.23913799 0.36753166
0001c0 55 9f 1d 3e 4a d6 f2 3e 0f 85 1e 3e 29 ef 69 3e
       0.15392812 0.47429115 0.15480445 0.22845139
0001d0 f9 d8 ca 3e c7 4b 76 3e 87 bf 8a 3e da 17 f6 3e
       0.39618662 0.24052344 0.2709925 0.48065072
0001e0 08 67 ac 3e 1e 4a 3c 3f ed 40 0d 3e 5a f2 ef 3e
       0.33672357 0.73550594 0.13794298 0.46864587
0001f0 e1 47 2e 3e a9 95 c8 3e d3 e4 cb 3e 77 e0 95 3e
       0.17019607 0.39176682 0.39823017 0.29272816
000200 76 96 a4 3e 7f 7f 78 3e 1a 4b 01 3e f2 d9 10 3e
       0.32146043 0.24267386 0.12626305 0.1414564
000210 3c 20 cf 3e 6c 6b 86 3e 9f ce d2 3e f3 1a 4f 3e
       0.4045428 0.2625383 0.41173264 0.20225124
000220 45 6d e2 3e 9f 42 c1 3e 31 2a f9 3e 23 de e2 3e
       0.4422399 0.3774614 0.48665002 0.44310102
000230 05 06 52 3e 57 4e 48 3e cd 45 61 3e 89 78 d9 3e
       0.20510109 0.19561134 0.21999283 0.42474774
000240 05 9a c4 3e d0 dd de 3e 5a 10 93 3e e6 d8 8d 3e
       0.38398758 0.43528605 0.28723413 0.27704543
000250 26 9a 41 3f d5 2d 12 3f 59 91 c9 3e 21 05 d9 3e
       0.75625837 0.57101184 0.39368704 0.42386726
000260 7d 07 4d 3e 85 d1 a7 3e b6 6e 65 3e 93 8b ae 3e
       0.20022388 0.32777038 0.22405514 0.34090862
000270 d7 cf e1 3e fa 0e 75 3e ed b3 ba 3e 2d 54 51 3e
       0.44103882 0.23931494 0.36465397 0.20442267
000280 23 9a e2 3e 65 1b 1a 3f 0c 2a eb 3e 73 84 94 3e
       0.44258222 0.6019805 0.45930517 0.290073
000290 55 24 80 3e d2 5a 96 3e 38 c3 b8 3e 52 a0 e2 3e
       0.2502772 0.29366165 0.3608644 0.4426294
0002a0 a1 85 65 3e de df f3 3e 26 51 d7 3e 96 18 a6 3e
       0.22414257 0.47631735 0.420541 0.32440633
0002b0 e2 03 88 3e 5e 8d ac 3e c2 13 e5 3e f6 f5 88 3e
       0.26565462 0.33701605 0.44741637 0.26750153
0002c0 ec 7d 7d 3e 0d 8a 4c 3e ab a5 a8 3e c0 dc 7d 3e
       0.24755067 0.19974537 0.32938895 0.2479124
0002d0 57 19 63 3e df 40 8e 3e e6 d2 42 3e da 1c 8c 3e
       0.22177635 0.27783868 0.19025764 0.27365762
0002e0 6e fe d1 3e 0e 0f 94 3e 18 fe b0 3e 7b 1e 89 3e
       0.41014427 0.28917736 0.34568858 0.26781067
0002f0 4e 1b 19 3f 3f 93 2a 3f 56 50 c7 3e ff a7 f3 3e
       0.5980729 0.6663093 0.3892848 0.47589108
000300 f9 31 bd 3e 45 46 9e 3e f1 19 b7 3e 4c 06 e4 3e
       0.3695219 0.30912986 0.3576198 0.44536054
000310 99 54 90 3e 7e a7 ef 3e 2c 08 81 3e b2 82 57 3e
       0.28189543 0.46807474 0.25201547 0.2104595
000320 51 ec 3b 3e ef 98 13 3f 52 53 f1 3d 9b 92 d4 3e
       0.18351866 0.57655233 0.1178347 0.415181
000330 22 41 86 3e 79 c1 93 3e 64 70 bb 3d c9 0e 47 3e
       0.26221567 0.28858545 0.09152296 0.19439234
000340 10 ba 19 3e e2 b7 e0 3e f4 2b 03 3e 0f 52 03 3e
       0.15012383 0.4389029 0.12809736 0.12824272
000350 b2 fe b5 3e ea c4 9a 3e c5 70 03 3f 6e a3 b5 3e
       0.3554588 0.30228359 0.5134395 0.3547625
000360 96 ff 67 3e 4f ba 95 3e fa 7c b3 3e 3c f9 ca 3e
       0.22656092 0.29243705 0.35056287 0.39643276
000370 af f9 cc 3e 5a 88 81 3e b4 20 ae 3e df 3b b1 3e
       0.40034243 0.2529934 0.34009326 0.3461599
000380 13 56 49 3e 57 45 ae 3e 58 f9 9d 3e 05 f0 33 3e
       0.19661741 0.34037277 0.30854297 0.17572029
000390 13 29 4a 3f 12 df 29 3f 55 33 b4 3e 3b ad cc 3e
       0.78968924 0.66356003 0.35195413 0.39975914
0003a0 8f f4 49 3e f1 a5 bd 3e a6 31 96 3e 95 1d ac 3e
       0.19722198 0.37040666 0.29334754 0.3361632
0003b0 1d da c4 3e 63 3f 7a 3e ab 2f 8c 3e 77 6b 97 3e
       0.38447657 0.24438243 0.27380118 0.29574177
0003c0 9e 46 e9 3e 67 b6 31 3f bd 9f d7 3e 0a 9a b1 3e
       0.4556169 0.6941895 0.42114058 0.34687835
0003d0 9c a4 4e 3e 56 f6 94 3e b4 07 c9 3e e1 cc cf 3e
       0.20179981 0.2909419 0.3926369 0.40585998
0003e0 0b 8a d2 3e 91 93 93 3e bc 4d c2 3e ad 90 a4 3e
       0.41120943 0.28823522 0.37949932 0.3214163
0003f0 49 e2 72 3e a4 fe 8f 3e 07 44 b1 3e 31 ad d4 3e
       0.23719133 0.28123963 0.34622213 0.41538385

bias f4 [30]
000000 62 b9 01 3f 7e 1a 08 be 1a 49 f3 3e 97 71 06 3f
       0.50673497 -0.13291356 0.4751671 0.52517074
000010 5d 91 0f 3f 4b bc b2 3e 3a c6 dd 3e a6 4d ac 3e
       0.5608118 0.3490928 0.43315297 0.3365299
000020 66 fc 1e 3f f6 c2 af 3e 3d 07 09 3f 11 3f 93 bd
       0.6210388 0.3432843 0.5352667 -0.07189763
000030 58 a8 00 3f 9c d0 b8 3e 13 30 08 3f 49 d9 f6 3e
       0.5025687 0.36096656 0.53198355 0.4821265
000040 08 3e 02 3f 5a 06 11 3f 0a d0 33 bd c0 d3 22 3f
       0.508759 0.56650317 -0.043899573 0.63604355
000050 a2 50 d6 3e 33 95 d9 3e ae 11 88 bd b4 0f 1c 3f
       0.41858393 0.42496642 -0.06643997 0.6096146
000060 fc 28 c3 3e 67 12 93 3e 9a 3a 02 3d 1e 93 e1 3e
       0.38117206 0.28724977 0.031794168 0.44057554
000070 37 65 c8 3e d9 61 11 3f
       0.3913972 0.5678993

weight f4 [20, 30]
000000 da fd 0b be 63 07 c7 bd 6c 42 1f 3d fe ed c4 bd
       -0.13671055 -0.09718206 0.038881704 -0.09615706
000010 82 82 a1 3d c7 87 15 3d 4c 1f 04 be eb a4 eb bd
       0.078862205 0.03650644 -0.12902564 -0.11506065
000020 b5 b8 53 3d 70 a3 66 bd 3c bc a2 bd a1 ba 59 bd
       0.051689822 -0.05630821 -0.07946059 -0.0531565
000030 11 c0 ef bb 71 16 06 3e c2 cb 8d 3d 1a d2 88 3d
       -0.0073165973 0.13094498 0.06923629 0.06680699
000040 6c 6a 62 3b 56 d7 ad 3d 4c 8a 02 3d 77 73 d6 bd
       0.0034548296 0.08488338 0.03187017 -0.10471242
000050 44 28 ea bc 99 dd ef 3d 93 98 ee bd a3 cb 90 3d
       -0.028583653 0.11712188 -0.11650195 0.070700906
000060 fc 40 26 bd d3 80 5f bd 67 2f 2a 3e 65 da 08 be
       -0.040589318 -0.054566216 0.16619645 -0.13364561
000070 a9 51 26 be a6 d7 1e bd e6 42 02 3f ca 00 26 be
       -0.16242088 -0.038779877 0.5088333 -0.16211239
000080 3c 31 84 3e 89 37 88 3e a7 af 9f 3e af 40 be 3e
       0.25818813 0.2660487 0.311887 0.37158725
000090 af d9 f1 3e 97 3f 83 3e 28 0b b3 3e d8 20 e4 3e
       0.47236392 0.25634453 0.3496945 0.44556308
0000a0 1e 46 a6 3e 65 1e 94 3d 57 87 99 3e 91 c9 e5 3e
       0.3247537 0.0723236 0.2998607 0.44880345
0000b0 3b 2d 60 3e bd 55 3c 3e ac e2 c2 3e bc fb d2 3e
       0.21892254 0.18392082 0.38063562 0.41207683
0000c0 f7 84 12 be f0 1d ae 3e 0f 9c b9 3e 7c 2a 17 3e
       -0.14308535 0.34007215 0.36251876 0.147623
0000d0 6d dc 59 3d d3 db dc 3e 56 e1 26 3e 14 a1 9a 3e
       0.05318873 0.43136463 0.16296896 0.30201018
0000e0 07 ef 2c bc b0 e1 56 3e ae d9 8a 3e 70 c6 fb 3e
       -0.010555035 0.2098453 0.271192 0.49174833
0000f0 89 11 77 3e 27 14 63 bd 65 b2 f6 3e fc c3 c0 3e
       0.24127783 -0.05543914 0.4818298 0.37649524
000100 5d 7c f2 3e b1 de da 3e ce 55 7d 3e 1a 92 be 3e
       0.47360507 0.42748025 0.24739763 0.37220842
000110 8f 61 a8 3e 0e c6 8f 3e fd 1d 3d 3e 7f 43 09 3d
       0.3288693 0.2808079 0.18468471 0.033511635
000120 8a e6 61 3e ef 50 e3 3e 52 14 eb 3e 42 0f d7 3e
       0.220606 0.44397685 0.4591394 0.42003828
000130 30 94 0a 3f 8c 4a 5a 3e 48 de ff bd 1b 9d a1 3e
       0.54132366 0.213175 -0.12493569 0.31565174
000140 5d 57 ec 3e 5c a0 5d 3e 8e bd 63 3e 41 52 9f 3e
       0.46160403 0.21643203 0.22240278 0.31117442
000150 fb 92 9b 3e a0 69 d3 3e 6e d1 84 bd b0 7a 4b 3e
       0.30385575 0.41291523 -0.06485258 0.1987102
000160 94 f3 84 3e 20 96 e0 3e 78 3e 7c 3e 2c 2a 9d 3b
       0.25967085 0.43864536 0.24633205 0.004796287
000170 d5 a8 83 3e cf 6e d7 3e d2 84 27 3e 36 93 9f 3e
       0.25714746 0.42076728 0.1635926 0.31167
000180 0a 1a ad 3e 56 91 e2 3d 5e f4 52 3e e6 1a 26 3e
       0.3380893 0.11062877 0.20601031 0.16221198
000190 14 11 d4 3e 72 99 3f 3e 31 53 d4 3e 79 e6 2d 3e
       0.4141928 0.18710878 0.4146972 0.1698245
0001a0 e9 df 6d 3e 60 a1 0a 3e f4 93 ec 3e f3 6d 38 3e
       0.23229946 0.13538122 0.4620663 0.18010692
0001b0 12 b2 fb 3d 71 e8 b2 3e 73 be e7 3e d1 cb c0 3e
       0.122898236 0.34942964 0.4526249 0.376555
0001c0 f5 9e d9 bd ec b3 cc 3e aa 95 bd 3e a6 5f cd 3e
       -0.10626022 0.3998102 0.37028247 0.40112036
0001d0 ad 87 f9 bd ed c2 17 3e 49 85 02 3f c1 0d 74 3e
       -0.12184081 0.14820452 0.50984627 0.23833372
0001e0 93 48 9f 3e bb a5 e3 ba c9 3a ec 3e c3 9a bd 3e
       0.31110057 -0.0017368117 0.461386 0.37032136
0001f0 8f b7 ea 3e f9 d8 df 3e 57 f7 ec 3e 94 47 c0 3e
       0.4584317 0.43720224 0.46282455 0.3755461
000200 a6 27 09 3f 55 c0 a6 3e ae f1 4a 3e 3a ad 05 be
       0.53576124 0.32568613 0.19818756 -0.13054362
000210 73 7c 8f 3e e6 0b f3 3e 30 13 94 3e 35 6a c4 3e
       0.28024635 0.47470015 0.2892089 0.3836228
000220 a0 6d 94 3e a9 0d 48 3e 15 d4 d2 3d 2a e8 41 3e
       0.28989887 0.19536461 0.10294358 0.1893622
000230 d8 21 cd 3e 05 6b ef 3e 7c b0 01 be 4c 97 f6 3e
       0.40064883 0.46761337 -0.1266498 0.48162305
000240 46 b6 93 3e fd 3b e6 3d 74 39 c0 3d af fa b4 3e
       0.2885 0.112419106 0.09385958 0.35347506
000250 b2 b4 c5 3e 23 2d fb 3e f4 a5 ce 3e ec 64 08 be
       0.38614422 0.49057874 0.40360987 -0.13319749
000260 d3 86 b0 3e bc 4c b0 3e d9 99 01 3f ec 29 4b 3e
       0.34477863 0.34433544 0.5062538 0.1984021
000270 c6 ff fc 3e 0c ce 38 3e 7c ad 6d 3e 20 e6 73 3e
       0.4941389 0.1804735 0.2321071 0.23818254
000280 e3 e6 81 3e c8 88 14 be 59 e4 74 3e 4a fd 74 3e
       0.25371465 -0.14505303 0.23915233 0.23924747
000290 3e a1 b6 3e bd c6 f1 3e 9f 2a e3 3e 72 f5 3a 3e
       0.35669893 0.47221938 0.44368455 0.18257692
0002a0 7a a8 d7 bd b9 23 04 3f 51 bd 2a 3e 89 f3 df 3e
       -0.10530181 0.5161701 0.16673781 0.4374049
0002b0 1f d4 a3 bd 31 af 06 3f 1f 77 a8 3e c2 18 fa 3d
       -0.07999443 0.5261107 0.32903382 0.122117534
0002c0 d9 5a 90 3c 75 4a db 3e 16 52 45 3e 7c c3 04 3f
       0.017621445 0.42830244 0.19269595 0.51860785
0002d0 54 1a d2 3e 9b 5f 18 bd 12 9b e4 3e 22 fd 5c 3e
       0.41035712 -0.03720055 0.4464956 0.21580938
0002e0 22 22 84 3e a3 a0 9c 3e 86 24 03 3f c5 48 83 3e
       0.2580729 0.30591306 0.51227605 0.25641456
0002f0 df ba 82 3e 10 dc 99 3e cc 0c 53 3e 76 5d 1b bc
       0.25533196 0.30050707 0.2061035 -0.009482732
000300 22 f1 d9 3e b6 ac cb 3e 94 e0 02 3f e5 c0 06 3f
       0.42566782 0.39780205 0.5112393 0.52638084
000310 1a 08 8a 3e 84 1b 04 3f 3d ae 55 3c 1c 93 b9 3e
       0.26959306 0.51604486 0.01304203 0.36245048
000320 74 1e d3 3e 69 0a 9a 3e 86 41 59 bd aa 37 85 3e
       0.4123417 0.30086067 -0.053041004 0.2601903
000330 aa b7 d4 3e cd 9d c5 3d b4 b4 c7 3d 5b cc f2 3e
       0.41546375 0.09649239 0.09751263 0.47421536
000340 68 ab ab 3e b5 05 07 3f 5f e4 aa 3e a0 e5 dd bb
       0.3352921 0.52743083 0.33377358 -0.006771758
000350 43 23 a0 3e 38 d3 d5 3e b5 99 97 3e 9c 66 5b 3e
       0.31276903 0.4176271 0.29609457 0.21425861
000360 bf 95 13 3d 8a 9f 2c 3d 4d b7 04 3e 63 03 75 3e
       0.03603148 0.042144336 0.12960549 0.23927073
000370 2b 84 35 3e cc 35 1f be 00 45 48 3d 92 cd 9f 3e
       0.177262 -0.15547866 0.04889393 0.31211525
000380 46 0b 77 3e 1f f7 2d 3e 45 c0 78 3e 68 07 19 3e
       0.24125394 0.169888 0.24292095 0.14944232
000390 e3 90 43 3d c5 80 47 3d da 50 97 3e c9 11 01 3e
       0.047745597 0.04870679 0.29553872 0.12604441
0003a0 20 b6 2c 3c a8 cf 37 3e 56 62 74 3e d9 c6 a2 3e
       0.010541469 0.17950308 0.23865637 0.31792334
0003b0 7d c5 57 3c 9c 87 df 3d 69 8b ac 3e b0 96 9f 3e
       0.0131696435 0.10914537 0.33700112 0.31169653
0003c0 d1 3a cb 3e 97 cc 18 be 24 0a c4 3e ef a2 ca 3e
       0.3969331 -0.14921795 0.38288987 0.39577433
0003d0 b7 5c 90 3e e0 2f da 3e 37 49 81 3e 65 b4 c4 3e
       0.28195736 0.4261465 0.2525117 0.3841888
0003e0 4f ef da 3e 87 88 d4 3e e3 7c e4 3e 56 77 f1 bd
       0.42760703 0.41510412 0.4462653 -0.1179034
0003f0 d3 95 e2 3e 9f 2b 0c 3e 4a c5 8c 3e aa 00 dc 3e
       0.44254932 0.13688515 0.2749427 0.42969257

bias f4 [20]
000000 41 46 ba 3c 00 28 f2 3e ec 04 0c 3f b2 ab 00 3f
       0.022738578 0.47296143 0.5469501 0.50261986
000010 7b bd da 3e 42 27 11 3f 8f 7f d6 3e 56 14 ee 3e
       0.42722687 0.5670053 0.41894194 0.4649989
000020 de 4a d8 3e aa 16 16 3e 40 7f a9 3e 7c fd 12 be
       0.4224462 0.14657083 0.33104897 -0.14354509
000030 28 37 db bd 72 c8 f7 3d 85 a4 d4 3e 63 77 c7 bd
       -0.107038796 0.12098779 0.41531768 -0.09739568
000040 c6 62 81 3e 42 5c 4c be 81 3e 80 3e 66 00 c9 3e
       0.2527067 -0.19957069 0.25047687 0.39258116

weight f4 [10, 20]
000000 be d2 74 bd 03 4d b3 3c a7 94 1a be d4 ad e7 bd
       -0.059771292 0.021887308 -0.15095769 -0.11312452
000010 70 54 41 bd c3 1f 1e be d4 fb 25 3e 47 25 d0 3d
       -0.047199667 -0.15441804 0.16209346 0.1016336
000020 5c fe f1 3d f8 4a 4f 3e 57 c3 36 3e b4 95 ba 3d
       0.11816093 0.20243442 0.17847954 0.09110585
000030 34 1f 07 3e 2a f3 ed bd a3 04 ec bd f4 40 8d bd
       0.13195497 -0.116186455 -0.11524322 -0.068971545
000040 c6 76 91 bd e0 08 bd 3d 42 48 74 be 4f d9 b6 bd
       -0.07102732 0.092302084 -0.23855689 -0.08928167
000050 7a d7 57 be de 12 07 be 86 ee 95 bd 84 99 58 be
       -0.21078292 -0.13190791 -0.07320885 -0.21152312
000060 48 2b 15 be 73 b0 3d be a0 bb 15 3d 30 16 c7 3d
       -0.14567292 -0.18524341 0.036555886 0.09721029
000070 b5 d7 e4 bd 08 f6 76 3d 76 3c 24 3e 70 b1 48 3d
       -0.11173955 0.060293227 0.16038689 0.048997343
000080 40 48 07 be 52 ed 28 3e 58 19 bb 3d 74 3f c2 3d
       -0.13211155 0.1649678 0.09135693 0.09484759
000090 94 48 83 3d a8 29 1c 3e c0 57 70 bb 18 9d b1 3d
       0.064103276 0.15250266 -0.0036673397 0.086725414
0000a0 e0 8c b5 bd ca f7 0a 3f 47 f6 63 3e f3 98 11 3f
       -0.088647604 0.54284346 0.22261916 0.56874007
0000b0 58 00 7a 3e 0b 20 91 3e 7f c3 ca 3e 6d 93 5a 3e
       0.24414194 0.2834476 0.39602277 0.21345301
0000c0 3f 67 0a 3f cc 1f 95 3d 63 46 f9 3e 9d 74 40 be
       0.5406379 0.072814554 0.48686513 -0.18794484
0000d0 6b 9e bf 3c 22 66 c8 3c ea c4 a9 3e 54 37 00 bd
       0.02339097 0.024462763 0.33158046 -0.031302765
0000e0 51 cf 02 3f ef 1b ba bd f7 0a 07 3f 95 cf df 3e
       0.5109759 -0.09087359 0.52751106 0.4371306
0000f0 48 23 9b 3c e4 69 70 3d 1d 89 65 3d 74 69 70 bd
       0.018937722 0.058694735 0.056038965 -0.058694318
000100 95 34 4a be 31 6e 45 be 7f 82 64 be b6 6a 26 be
       -0.19746621 -0.19280316 -0.22315405 -0.16251644
000110 85 9d 1f be 94 b5 31 3e f2 48 78 be 26 39 80 3d
       -0.15587433 0.17354423 -0.24246576 0.062609
000120 76 99 12 be aa 71 66 bd 5f dc 72 bd 2a 66 8d bd
       -0.14316353 -0.056260742 -0.059292194 -0.06904252
000130 a5 ae 4e be 3b e2 25 3e 97 17 a0 bd 01 2a f2 bd
       -0.20183809 0.16199581 -0.078169994 -0.11824418
000140 84 6c 21 3e 50 90 59 bc 6a 7d 20 be 70 5f 60 be
       0.15764052 -0.013279036 -0.15672842 -0.21911407
000150 f0 d3 ee 3c 78 61 48 3d 2c 74 ca bd 98 ce 81 bd
       0.029153794 0.04892108 -0.09885439 -0.06338233
000160 fa 19 4d 3e 20 c5 4e bc f0 80 b0 3c dc 5c 59 bd
       0.2002944 -0.01262024 0.021545857 -0.053067073
000170 32 81 e2 bd 80 24 af 3d 20 7e 5c be 58 83 b7 3c
       -0.11059798 0.08551884 -0.21532488 0.022401497
000180 78 17 b2 3c 70 36 44 bd fe 7a a5 bd f1 65 5c be
       0.021739706 -0.04790348 -0.080800995 -0.21523263
000190 17 33 80 be 1e 41 26 be 24 21 13 be d6 35 48 3d
       -0.25038978 -0.16235778 -0.14368111 0.048879467
0001a0 cc 9d 8e bd 4d c1 d5 3d 37 c9 e5 3c 1f e5 81 3d
       -0.06963691 0.1043726 0.028050048 0.063425295
0001b0 37 ae 63 be 33 a0 6e 3d b0 b0 c1 bd e7 ea f9 3d
       -0.22234426 0.058258247 -0.094575286 0.12203007
0001c0 f7 0a ea 3d 63 fa 02 bd 19 3c 6a be 0f 79 fd bd
       0.11427873 -0.03197707 -0.22874488 -0.12376606
0001d0 88 5b 8a 3d 06 2f 7a be 97 56 ff bd 63 39 77 bd
       0.067557395 -0.24432 -0.124676876 -0.060357463
0001e0 14 3f 06 be ba d9 e6 3e 14 81 ce 3e 86 4a f3 3e
       -0.1311 0.45087987 0.40332854 0.47517794
0001f0 0a 75 83 3e 63 d6 cc 3e 95 ce 79 3e 96 61 74 3e
       0.2567523 0.40007314 0.24395211 0.23865351
000200 a0 b2 82 3e 9e 02 6c be 6b e0 e7 3e a3 e7 33 bc
       0.25526905 -0.23047873 0.45288405 -0.0109805195
000210 5b b1 92 bc d2 92 fc b9 bd b3 e4 3e 08 e6 08 bd
       -0.017906835 -0.00048174575 0.4466838 -0.0334225
000220 d0 09 f9 3e a5 bf 5c be 79 a5 4b 3e 14 c7 36 3e
       0.486403 -0.21557482 0.19887342 0.1784938
000230 0a a5 31 3e b0 4b d5 bd 0c 0a b7 3d 40 14 44 3b
       0.17348114 -0.10414827 0.08937463 0.0029919297
000240 00 88 5c bc 54 da 03 3e f6 bf 25 be 97 5e 04 be
       -0.013460159 0.12876254 -0.16186509 -0.12926708
000250 98 71 2a be bc 0c 2f 3e 16 9e 30 3e a2 f2 2e be
       -0.16644895 0.17094702 0.17247805 -0.17084745
000260 e0 3f 0f 3d 10 7f 18 be 20 79 52 be 00 a1 61 3d
       0.034973025 -0.1489222 -0.20554018 0.055085182
000270 d0 f4 56 3d 68 ba 37 3e 60 92 14 be 1d 3a fd bd
       0.052479565 0.17942202 -0.14508963 -0.123646
000280 c0 83 e1 bb b4 3c 14 3f 22 8a 03 3f 5c 7d dc 3e
       -0.006882161 0.57905126 0.5138265 0.43064392
000290 77 fc d1 3e ed 9f e1 3e 5e d4 e8 3e 27 6d 7d 3e
       0.41012928 0.44067326 0.45474523 0.2474867
0002a0 8b 44 04 3f 75 8b aa 3d 0e 23 d3 3e 12 db 0b be
       0.5166709 0.083273806 0.41237682 -0.13657787
0002b0 4a 45 1d be 25 7b fa bd 10 68 cc 3e 16 eb 3e be
       -0.15358463 -0.12230519 0.39923143 -0.18644366
0002c0 4f f4 f6 3e 2d 84 b1 bd 82 3a 00 3f cc 20 da 3e
       0.48233268 -0.08667789 0.50089276 0.42603147
0002d0 1e ec d7 bd 8e b5 a9 3d 8e 88 f7 bd 01 a8 4e be
       -0.10543083 0.08286582 -0.120865926 -0.20181276
0002e0 df 7e 3a be 2e 33 08 bd 33 6a 9a 3d 4f 55 52 3e
       -0.1821246 -0.033251934 0.07539787 0.20540355
0002f0 83 2d 33 3e 24 d5 5b bd 2e c8 5d be c2 f4 3c 3e
       0.1749783 -0.053670064 -0.21658394 0.18452743
000300 7c 1f 2a 3e 91 52 56 3d 5e 44 50 3e 34 96 50 3e
       0.16613573 0.052324835 0.2033858 0.20369798
000310 4e 9f 09 be 60 94 03 3e 72 6c b2 3d 70 e1 4c be
       -0.13439676 0.1284957 0.087120906 -0.20007873

bias f4 [10]
000000 d6 c3 eb bd 28 1c 81 bd 86 3b f0 3d d7 35 1f 3e
       -0.11511962 -0.063041985 0.11730103 0.15547882
000010 2f 3c 3b be 3a 30 30 3e 3d db ad 3e 5a 31 e8 bd
       -0.18284677 0.17205897 0.33956328 -0.11337538
000020 5e d8 03 3f 84 95 3b be
       0.51502025 -0.18318754

weight f4 [1, 10]
000000 a1 68 53 be e0 1c 92 3d b5 14 1f 3f 8e 3a 7b be
       -0.20645382 0.07134414 0.6214097 -0.24534056
000010 21 f0 8c 3e 16 94 d6 bd c4 14 a4 3e 22 c8 d8 bd
       0.27526954 -0.10477464 0.32047093 -0.10585047
000020 78 99 20 3f 8b ba 6f be
       0.62734175 -0.23411004
