mwo/models/trained_vfa_models/model_horizon_120_adp_15k_greedy_17k.pth (torch_old, 17104 bytes, 7 tensors)

weight f4 [30, 25]
00000000: 8577 19bf 646a 1940 21dd 1c40 33b3 da3f
00000010: 4057 433f cd66 0a3f 6a4a 513f b3fa 80bf
00000020: 6c58 a13f 38b8 babf a7b7 8d3f aae9 91bf
00000030: 006b 943f 9730 1b3f 578b 87bf b8ba 06bf
00000040: 28f8 17bf 57ab babf caac 483f 25c5 12bf
00000050: b0a1 a53e dc57 4bbf 09be 12c0 4918 1cc0
00000060: cf37 20c0 c3dd 19bf cd87 1140 230c 4c40
00000070: 16ff 0440 d0f9 4b3f 58c1 193e 31ee 5b3f
00000080: 01ed 503c 924d 463f cb7f 46bf fa6a 7d3e
00000090: f0a1 70bf 421d ce3f da3f 353d d8ac 1abd
000000a0: 6abe 8dbd 9253 503f 5abd f4be ea4e d13d
000000b0: 7009 6dbe d43f 373f 2fd7 08bf 22a7 eabe
000000c0: f027 b33c a7e8 3dc0 ee24 a9be 2015 fd3f
000000d0: 299c 4d40 51fc 0240 73c3 4d3f a932 debe
000000e0: aa8b ed3e 7056 59bf 445c 7b3f 2fcc 5fbf
000000f0: fbf1 833e 3b2c 5cbf 9b6f a03f 7845 c13c
00000100: cc58 043e fe5a 5ebe ed35 8b3f 238b 90be
00000110: 2d18 5b3f f531 3dbe 5b1c 833f 786b a9be
00000120: 3e84 d93d 5a79 bbbe a844 37c0 f8dd 53bd
00000130: cb94 1a40 c75f 3440 d042 e63f 9c72 813f
00000140: fc09 413e c9f7 633f 1d2d afbe e1de bc3f
00000150: 5d57 b2be f822 9b3f 0aad 8bbe d138 d73f
00000160: 3d60 383f d328 ff3e 267f 323e 3f7e f33e
00000170: 3f67 34bf 0b6a 193f 9198 9bbe d721 603f
00000180: f05b 70be 99e6 20bf 51d8 d5bd ed38 46c0
00000190: f03f 2e3e f3cb 2540 2504 3040 df88 d43f
000001a0: a726 683f 0b9a 813f a587 4d3f 319c 0dbe
000001b0: 0e0a f73f 059f babe 98fb 8d3f 3a24 c0be
000001c0: ec0b ec3f fbd7 4c3f d02e dd3e 1cb2 a6be
000001d0: b727 b33e 6c87 48bf 6fa6 923f 08cb 6cbd
000001e0: d527 633f d785 47bd 6243 f6be 8ace 71be
000001f0: eb86 53c0 bf59 6dbd 23c9 2240 5b77 2340
00000200: 4de2 c53f 556e 4d3f 6251 023f cc3d 973f
00000210: d66b 91be 77ac f33f 0d45 f8be 430d a73f
00000220: c1ce 67bf 0d04 d33f e613 503f d686 1d3f
00000230: 8232 cdbe 129c e43e 5c3a a7be 6122 e8bd
00000240: 2a29 073e 60af 7e3f e260 bdbe 4316 b13d
00000250: 338a 44bf efe1 42c0 7eac e3c0 7007 84c0
00000260: f451 023e e8da ac3f 5c1e cdbe 8f99 893f
00000270: e0e9 ffbf 5f5e ecbd 8018 1fc0 4cd6 38be
00000280: 4e91 a2bf 65a4 b63f 59c6 06bf ae1d afbf
00000290: 0ab0 383f e298 aa3f c537 81bf 3c1f a83e
000002a0: 74e7 48bf 4faa 6e3e 7d22 a7be 9faa 65bf
000002b0: 5df2 3cc0 4b51 4340 f61c 42c0 7f25 e2c0
000002c0: 6e8d bbc0 73ed 06bf 64e2 d93f 109b 14bf
000002d0: 27cb d73f 4681 f23d f2a6 0e3f 1e19 c9bf
000002e0: 2004 813f 8dd5 22c0 6333 d63e 008b 8a3e
000002f0: bbc6 70c0 1ff2 d23f 5594 0140 f355 99bf
00000300: 1e43 3c3e d8f9 c7bf 99ec 44bd 63d4 aabe
00000310: c143 0dc0 a7d5 c8bf adac f63f a29b 94c0
00000320: 00b1 4f39 e523 2640 4d12 3f40 f3f8 d93f
00000330: c3f2 433f 9b9b d73d 64da 963f 6878 b8be
00000340: a033 cd3f 2abf 3ebf 5eed 533f 3002 2fbf
00000350: cd8a d23f f273 553f 8bbe 4b3f 2342 64bd
00000360: ada3 933f 0335 1fbf b4dd be3e 5352 923e
00000370: 0b14 253f ba66 98be 2ab7 04bf ca09 d1bf
00000380: 000d 4bc0 7c34 9ac0 5c14 d4c0 efb8 3940
00000390: d055 5c40 0f0c 8c3f 7f73 8e3f 5073 663e
000003a0: 6527 0d40 a52e 4f3d e0ce 823f 428f b4bf
000003b0: d8f2 7d3f 25a7 723f 55e5 a1c0 bacd 1bbf
000003c0: b61b 903f 6ee6 09c0 eafc ab3f 1b2c 86bf
000003d0: 5c03 bf3f d9b6 cfbe 9ead 51bf 3729 23c0
000003e0: 6117 0040 8645 a9c0 4dad aabe 49f6 e73f
000003f0: 1fd1 4540 63d2 0240 367a 223f c4db 823c
-0.59948 2.3971186 2.4509966 1.7085937 0.7630501 0.5406311 0.8175417 -1.0076507
1.2605109 -1.4587469 1.1071671 -1.1399434 1.1595154 0.6062102 -1.0589398 -0.5262866
-0.5936303 -1.4583539 0.78388655 -0.5733207 0.3234992 -0.7943094 -2.2928488 -2.4389822
-2.5034063 -0.60104007 2.2739136 3.1882408 2.0780692 0.7967806 0.15015161 0.85910326
0.012751819 0.7746211 -0.77538747 0.2474784 -0.93997097 1.6102679 0.044250347 -0.037762493
-0.06921084 0.8137752 -0.47800714 0.1022013 -0.23148131 0.7158177 -0.53453344 -0.45830637
0.02186963 -2.967325 -0.33035988 1.9772072 3.2126563 2.0466502 0.80376357 -0.43398026
0.46395618 -0.8489752 0.9818766 -0.87420934 0.25770554 -0.8600499 1.2534059 0.023592696
0.12924498 -0.21714398 1.0875832 -0.28231153 0.85583764 -0.18476088 1.0243028 -0.33089805
0.10620926 -0.3661602 -2.8635654 -0.051725358 2.4153316 2.8183458 1.798914 1.0113101
0.18851465 0.89049965 -0.34214106 1.4755517 -0.34832278 1.2120047 -0.27280456 1.6814214
0.7202185 0.49835834 0.17431316 0.47557256 -0.7047004 0.59927434 -0.30389836 0.87551636
-0.23472571 -0.62851864 -0.1044165 -3.0972245 0.17016578 2.590573 2.750253 1.660427
0.9068398 1.0125135 0.802851 -0.13829114 1.9299943 -0.36449447 1.1092405 -0.3752764
1.8441138 0.8001706 0.43199778 -0.32557762 0.34991238 -0.7833164 1.1457042 -0.057810813
0.88732654 -0.048711624 -0.48098284 -0.23613945 -3.3051097 -0.057946917 2.5435264 2.5541599
1.5459687 0.8024648 0.5090543 1.1815734 -0.28402585 1.9037007 -0.48490182 1.3050922
-0.90549856 1.6485611 0.8128036 0.6153387 -0.40077597 0.44650322 -0.32661712 -0.11334682
0.13199297 0.9948635 -0.36987978 0.08646824 -0.76773375 -3.04504 -7.114806 -4.125908
0.12726575 1.3504305 -0.40062225 1.0749987 -1.9993248 -0.11541437 -2.4858704 -0.18050498
-1.2700593 1.4268919 -0.52646405 -1.3680933 0.72143614 1.3327906 -1.0095145 0.3283633
-0.7847817 0.23307155 -0.326435 -0.8971347 -2.9522927 3.0518367 -3.0330176 -7.067077
-5.8610144 -0.5270607 1.7022214 -0.58049107 1.6858872 0.11841063 0.5572349 -1.571079
1.0079384 -2.544284 0.4183608 0.27059174 -3.7621295 1.648014 2.0246785 -1.1979355
0.18384978 -1.5623121 -0.0480772 -0.33365163 -2.2072604 -1.5690202 1.9271446 -4.643998
0.00019806996 2.5959408 2.985492 1.7029098 0.765423 0.10527726 1.1785398 -0.36029363
1.603138 -0.74510443 0.8278407 -0.6836271 1.6448609 0.83380044 0.7958762 -0.055727135
1.1534325 -0.62190264 0.3727852 0.28578433 0.6448371 -0.29765874 -0.51841986 -1.6331112
-3.1726685 -4.818907 -6.6274853 2.9019125 3.4427376 1.094118 1.1128997 0.22504926
2.2055295 0.050581593 1.0219383 -1.4106219 0.99198675 0.9478629 -5.0592446 -0.6086079
1.1258457 -2.1546893 1.3436558 -1.048221 1.49229 -0.4056919 -0.81905544 -2.5493906
2.001427 -5.2897367 -0.33335343 1.8122035 3.0908887 2.044091 0.6346773 0.015973933

bias f4 [30]
00000000: 3964 e240 1f72 f240 ff98 e340 9570 d340
00000010: 9096 d540 28aa c240 bcd0 0c40 d4b6 e040
00000020: e238 ca40 8db5 0941 9bf8 f240 d11c 1641
00000030: 487e ad40 5564 0341 e3fe f940 4273 bf40
00000040: 30fa 5c40 67a6 9140 6ea2 c140 59d8 2c41
00000050: 4718 bb40 c1aa d240 1e48 8240 47b7 2b41
00000060: 9161 ec40 0355 d240 850c b740 c1d4 ca40
00000070: d5a1 b540 c34a ef40
7.074734 7.576431 7.1124263 6.607493 6.674629 6.083271 2.2002401 7.022318
6.3194437 8.606824 7.5928473 9.382035 5.421665 8.211995 7.812364 5.9828196
3.4527702 4.551563 6.051078 10.802819 5.8467135 6.583344 4.0713034 10.732245
7.38691 6.5728774 5.7202783 6.338471 5.676005 7.477876

weight f4 [20, 30]
00000000: 6b9a ab3f 9065 a83f 1d49 9b3f 02d2 963f
00000010: 6942 b13f f528 8f3f 7fe7 54be 0efd 8fbd
00000020: 4b50 863f 70bb d03f 8020 933f c30e ab3f
00000030: 5491 8d3f 2774 a03f 7ea6 933f e436 ba3d
00000040: 68c4 edbe 36c3 a0bd a159 bf3c 720c 1240
00000050: 1338 663f b499 a13f b640 06c0 d66d f73f
00000060: 816f 5a3f 7676 953f ba16 a13f de2c 903f
00000070: b84f 7b3f 2ea5 8f3f ec25 c53f 3570 953f
00000080: e4ca a63f b9e2 9d3f e8ba a63f f7a6 a13f
00000090: 1346 fabd 864b 6bbd 5dea a63f 10cb f43f
000000a0: 9389 823f 3a6d 8f3f 355d 8e3f 108a ae3f
000000b0: c8be 963f a89d 343e 43a3 dbbe cc1b 3abe
000000c0: bc47 d63d e20c 1e40 6bf5 7d3f 16f5 a63f
000000d0: 75c1 cdbf c4c4 ed3f 799a 483f 8ffa 843f
000000e0: c2ff 8c3f 53c1 833f 6d64 823f 3356 943f
000000f0: a22e a2be 1875 34be 6efb ffbd 6ccf 20be
00000100: cfa2 6c3d 762a 7fbe bb7d ffbd ff27 bfbe
00000110: 2f42 77be 2fe4 953f 3979 95be 7d44 cc3e
00000120: bec4 8fbc e357 9f3e 5c64 88be 5e49 4cbf
00000130: 8384 86be e76e 2ebf 1696 47bf 5106 8a3f
00000140: 016a a3be 1712 853d 799d 8dbe d124 873f
00000150: 04e7 0dbe c82e babe 25f0 1dbe 085f 6fbe
00000160: 87c0 92be beac f1bd af58 8b3f d907 503f
00000170: 377a 253f e285 7d3f 1d85 863f 0b06 333f
00000180: 1ae7 b43d 6e08 15bf d716 8a3f b7cc 8c3f
00000190: b60f 233f 9abc e63e 65ee 783f d985 0c3f
000001a0: 2be1 503f e9cb f5be fadd 94bf 9782 8d3d
000001b0: 0bde 9dbe 1430 bc3f c74f 1b3f ee7a a63f
000001c0: 5355 2dc0 24eb 813f eedc 1b3f ea4e 463f
000001d0: f36a 933f 9963 9e3f 0707 473f 85aa 243f
000001e0: c7af 2abf 416b 44bf 9774 40bf 303b 47bf
000001f0: a22e eebe 2054 dbbe dab9 11bf 529b 41bf
00000200: 9e59 2dbf 69ca 1fbf 2cdb 3bbf a31e 10bf
00000210: 102b e8be 93ae 01bf 2cc1 1cbf 7519 e8be
00000220: f2b1 09bf 8956 febe 4ff8 04bf 3af9 14bf
00000230: 67bf eebe cf5a 15bf aac5 20bf 97e6 02bf
00000240: 1431 1bbf 1242 f2be 4858 2abf 6cc4 f6be
00000250: 3022 37bf 15bd f3be 953c fdbe d1c0 dabe
00000260: a5ef 18bf a6da 34bf a3fe 26bf 256e 11bf
00000270: e182 05be 3365 0fbf b0a3 25bf 5023 21bf
00000280: f486 0abf 1e33 28bf db9e d2be 3ebe dabe
00000290: 0dc8 fcbe 42b3 0cbf fe71 26bf 78b1 21bf
000002a0: 6630 0abf d882 dabe e46a 5a3d c48c f4bd
000002b0: 51a9 34bf 7f28 debe 5562 3abf 2077 a7bb
000002c0: 1467 09bd 287d bebc 58eb b93c aa69 1abf
000002d0: cd51 c03f dfbf 9c3f 4afb 7b3f 51c7 a73f
000002e0: 5f8e a53f 82ba 733f ea17 96be 30c3 ee3d
000002f0: 5d59 9d3f d143 e03f 997f 933f b718 7f3f
00000300: 0954 a03f 26b1 853f a2d6 a23f adaf f23d
00000310: bb78 16bf a831 b2bc abb8 193d cacd 1340
00000320: 4efb 553f 8739 973f f345 e0bf 0b97 f03f
00000330: d68d 3e3f 855a 993f 1ef2 a33f cb0b 8e3f
00000340: 6d9a 7e3f 9cf4 7b3f 6974 c23f 827e 8a3f
00000350: 7728 9b3f bc04 813f c848 9e3f aa09 803f
00000360: 1eab 81be 77ae b7bd ee79 863f f7bf c93f
00000370: 2095 7e3f 954d 973f c0a4 a33f 8a6b a63f
00000380: bfd1 943f 3570 883d ed13 e9be b25c 513c
00000390: a82d ef39 3b73 1540 6426 9e3f cd13 883f
000003a0: 5472 0cc0 6dd2 dc3f 8d25 6c3f 1e97 8a3f
000003b0: 2d52 8d3f 6808 ad3f 6aa5 893f b27e 883f
000003c0: d0cf fabe 2f30 31bf 97cf 3cbf 76c2 f4be
000003d0: 806f 02bf 23c6 0bbf 0e50 1cbf def3 d7be
000003e0: 8edc 02bf 2ec2 12bf 222a 48bf 7673 37bf
000003f0: dd6f 48bf 684c f1be 8d0e 37bf acdf 26bf
1.34065 1.3155994 1.2131687 1.1782839 1.3848392 1.1184374 -0.20791434 -0.07030688
1.0493253 1.6307201 1.1494293 1.336388 1.1059976 1.2535447 1.1535184 0.09092501
-0.4643891 -0.078497335 0.023358168 2.2820096 0.8992931 1.2625031 -2.0976996 1.9330394
0.8532639 1.1676776 1.2585061 1.1263692 0.98168516 1.1222284 1.5402198 1.1674868
1.3030667 1.2334815 1.3025789 1.2629079 -0.12220397 -0.05744507 1.3040272 1.912447
1.0198234 1.1205208 1.1122195 1.3635883 1.1776972 0.17638266 -0.42897996 -0.18174666
0.10462901 2.4695363 0.99202603 1.3043544 -1.6074663 1.8575673 0.78360707 1.0388964
1.1015551 1.0293373 1.0186898 1.1588806 -0.31676203 -0.17622793 -0.12499128 -0.15704125
0.057772454 -0.24918541 -0.12475153 -0.37335202 -0.24146341 1.1710261 -0.29194048 0.39896002
-0.017549869 0.3112174 -0.26639068 -0.7979945 -0.26272973 -0.68137974 -0.7796339 1.0783178
-0.31916812 0.06497591 -0.27659205 1.055811 -0.13857657 -0.36363816 -0.15423639 -0.23376095
-0.28662512 -0.11800526 1.0886439 0.81261975 0.6463961 0.99032414 1.0509373 0.69931096
0.088331416 -0.5821599 1.078822 1.0999974 0.6369585 0.45065767 0.9723876 0.54891735
0.8159358 -0.48007134 -1.1630242 0.06909674 -0.30833468 1.4702172 0.60668606 1.3006265
-2.7083328 1.0149884 0.60883987 0.77464163 1.1517013 1.2374145 0.777451 0.6432269
-0.66674465 -0.76726156 -0.751779 -0.7782469 -0.46519953 -0.4283762 -0.5692421 -0.75627625
-0.6771487 -0.6241823 -0.73381305 -0.5629675 -0.45345354 -0.50657004 -0.61232257 -0.45331922
-0.5378715 -0.49675396 -0.5194139 -0.5819279 -0.46630403 -0.5834169 -0.6280161 -0.511331
-0.6062176 -0.47316033 -0.66540956 -0.48196733 -0.7153654 -0.47605196 -0.49460283 -0.42725232
-0.5974067 -0.7064613 -0.65232295 -0.5680869 -0.13038208 -0.5601379 -0.6470289 -0.6294451
-0.5411217 -0.65703 -0.41136822 -0.42723268 -0.49371377 -0.54961026 -0.6501769 -0.6316142
-0.539801 -0.4267795 0.053324595 -0.119409114 -0.70570856 -0.4339027 -0.7280629 -0.0051106364
-0.03354557 -0.023253039 0.022695228 -0.6031748 1.5024964 1.2246054 0.9843031 1.3107702
1.2934073 0.95206463 -0.2931512 0.11658323 1.2292897 1.7520696 1.1523315 0.99647087
1.2525645 1.0444686 1.2721751 0.11849914 -0.5877797 -0.021752194 0.03752963 2.3094354
0.83586586 1.1814431 -1.7521347 1.8796095 0.74435174 1.1980749 1.2808263 1.1097349
0.99454385 0.9842012 1.5191776 1.0819857 1.2121724 1.007957 1.2365961 1.0002949
-0.25325865 -0.089688234 1.050596 1.5761708 0.99446297 1.1820551 1.2784653 1.3001568
1.162651 0.06662027 -0.45523015 0.012778448 0.0004561965 2.335158 1.2355466 1.0631043
-2.194478 1.7251717 0.922448 1.0827367 1.1040703 1.351819 1.0753605 1.0663664
-0.48986673 -0.6921415 -0.73754257 -0.47804612 -0.50951385 -0.5459921 -0.61059654 -0.42178243
-0.5111779 -0.57327545 -0.7818929 -0.71660554 -0.7829569 -0.47128606 -0.7150658 -0.65185046

bias f4 [20]
00000000: f5e5 e940 9141 e540 37d3 6a40 eac5 ce40
00000010: 5c3d 01bf 421b 1fbf e877 df40 4b94 e040
00000020: 4175 e3be 2009 39bf 160b e240 d598 1abf
00000030: 9a86 2ebf d960 15bf 69cd 2cbf 80b5 35bf
00000040: 5c04 ea40 39cc 47bf 0c7c eb40 b19f c940
7.309321 7.1642537 3.6691415 6.4616594 -0.5048425 -0.6215097 6.983387 7.018102
-0.44425395 -0.7227955 7.0638533 -0.60389453 -0.68174136 -0.583509 -0.6750093 -0.7098007
7.313032 -0.78045994 7.3588924 6.3007436

weight f4 [10, 20]
00000000: ee45 803f 0475 823f c481 203e be7c 6c3f
00000010: 7e4c 323f dd4c 103f a82e 603f cecd 593f
00000020: f5ae 093f ce4e e03e 11f3 503f 82a8 0b3f
00000030: 2705 d83e 5844 123f d89c 263f 68c1 ee3e
00000040: 6f38 903f 6cde 333f 2e12 943f 3645 e43e
00000050: 80e0 e3be b9dd 0dbf 897d 52bf 1184 0dbf
00000060: 9da9 03bf 16e5 00be 60e7 d2be 82dc 26bf
00000070: addc e0be 9e34 383e 8ac8 1fbf 0fa2 febe
00000080: 8df6 43bf 5e5c 0fbf 5caa 20bf e268 31bf
00000090: f970 22bf 8acb cbbe 917f 04bf d0d9 063d
000000a0: 88a2 3d3f 8d69 6c3f 16e4 5f3d d097 313f
000000b0: 5e78 82bd 4708 f93e 5dcc 6d3f ff7c 333f
000000c0: b4c1 e0bd 62dc e53e 4bfd 353f 3007 713c
000000d0: 608d 1abd 9ccf 003e 2043 23bc a095 483d
000000e0: 7659 163f 54ec e33d 83a1 4b3f 7eb1 b73e
000000f0: b47a 953f d609 923f 5c39 113e 61d3 293f
00000100: 42db fe3e 2dec af3e a057 8e3f 0139 8b3f
00000110: d819 013f 6461 ea3e 110d 973f d66a 2e3f
00000120: 717b 0f3f 6a59 0d3f 143b ff3e 9963 513f
00000130: 0d91 993f 1a7f dc3e 79f3 8e3f 7ff5 2d3f
00000140: 253c 46bf eca3 43bf 51c1 35bf e0b4 febe
00000150: 0874 22bf 08ab a1bc bc97 26bf 1f7c 1abf
00000160: e4a3 1bbf e8c1 813d 3c79 22bd df46 05bf
00000170: cc57 f5be e291 ddbe 786b f1be 9a00 d5be
00000180: 75fb 4bbf a397 fabe 9c0a f0be 6a55 95bd
00000190: 1f27 22bf f89b cebe 08b1 14bf 54d7 30bf
000001a0: 9fb9 fbbe d868 093d 318b f9bd b2a3 18be
000001b0: 84d7 dcbe f2c5 ccbd 56b4 36bf 2cff d0be
000001c0: 70e3 ddbe f26f e0be d29d febe 885a 0dbf
000001d0: 457e 0ebf 746f cfbe 048b 2bbf 90b8 033c
000001e0: 11ed 4c3f 4c93 4f3f 5f8e 893e 7a7f 2d3f
000001f0: 949b 143f 3792 403f 769f 423f 4226 7f3f
00000200: d033 2e3f bc8e df3e 2e8f 4d3f 157f 133f
00000210: 02ea 1d3f 446a 8e3d 1477 f13e c97d 073f
00000220: 6b7d 653f 4339 503f b5df 783f 56be 223f
00000230: 28a9 4a3e e825 d73d f342 debf 14e6 61bd
00000240: 3a8b 053e 10e7 96bd f419 05be 8eb3 61be
00000250: 8865 5d3d b4f1 89bd d096 1abe 5ce4 0ebd
00000260: cceb 493e 9809 0b3d f476 033e 8efb 2d3e
00000270: d622 b5bd c07a 35bb 3dbf f9bf f01f f43c
00000280: 6914 dfbe f1ce 35bf cae9 4dbf 8c11 2ebf
00000290: 8873 d0be 6ab6 1a3e eea7 47bf 843f 3cbf
000002a0: 092b 4dbf f0c7 4b3e 0a81 c3be cab5 f9be
000002b0: 0fd4 08bf 66ce 4bbf 6bca 2cbf b587 cdbe
000002c0: bfce e0be 0847 f8be 82ba dcbe d28f a0bd
000002d0: 5632 b3be 47e3 f4be c148 41bf 38ef 34be
000002e0: 3037 98bc 3812 763d b777 0abf 1408 cabe
000002f0: 8e2c 5fbe d84d 5f3e 5282 16bf adc1 d9bd
00000300: dcec b73d 8037 573c 005a 4f3e a8f1 8d3c
00000310: 5e5a 32bf cb7e d2bd 6a1d 45bf 7ff4 f6be
1.0021341 1.019196 0.15674502 0.9237784 0.6964797 0.56367284 0.8757119 0.8507966
0.5378259 0.43810123 0.8162089 0.54554 0.4219143 0.57135534 0.65083075 0.46631932
1.1267222 0.70261264 1.1568048 0.44584054 -0.44507217 -0.55416447 -0.822228 -0.5527964
-0.51430684 -0.1258739 -0.4119215 -0.6518022 -0.43918362 0.17988822 -0.62415373 -0.49733016
-0.7654808 -0.56000316 -0.6275995 -0.69300663 -0.6345363 -0.39803725 -0.5175715 0.032922566
0.7407613 0.9234856 0.05466088 0.6937227 -0.063706145 0.48639128 0.9288996 0.70112604
-0.10974446 0.448947 0.7108962 0.014711186 -0.037732482 0.12579197 -0.009964734 0.04897082
0.58730257 0.111290604 0.7954332 0.35877603 1.1678071 1.1409252 0.14182037 0.66338164
0.49776655 0.34359875 1.1120491 1.0876771 0.5043006 0.45777428 1.1800863 0.6813177
0.5604773 0.5521456 0.4984976 0.817926 1.1997391 0.4306572 1.1168052 0.6795272
-0.77435523 -0.76422 -0.709981 -0.49747372 -0.634583 -0.019734874 -0.6507528 -0.60345644
-0.6079695 0.06335813 -0.0396664 -0.52061266 -0.47918546 -0.43275362 -0.47152305 -0.4160202
-0.7968057 -0.48943815 -0.46883094 -0.07291682 -0.63340944 -0.4035337 -0.5808263 -0.69078565
-0.49165055 0.033547252 -0.12184752 -0.14906195 -0.43133175 -0.099986926 -0.7136892 -0.4081968
-0.43337584 -0.43835407 -0.49729782 -0.55216265 -0.5566142 -0.4051472 -0.67008996 0.008039609
0.80049235 0.8108413 0.26866433 0.6777264 0.58049893 0.75223106 0.7602457 0.9966775
0.6804781 0.43663585 0.802966 0.57615787 0.6168519 0.06953862 0.47161162 0.5292631
0.896445 0.81337374 0.9721635 0.6357168 0.1979109 0.10505277 -1.7364181 -0.05515106
0.13041392 -0.073682904 -0.12998182 -0.22041151 0.054051906 -0.06735554 -0.15096593 -0.03488575
0.19718856 0.033944696 0.12838346 0.16990492 -0.08844535 -0.0027691573 -1.9511486 0.029800385
-0.4357026 -0.7101889 -0.8043486 -0.67995524 -0.40713143 0.15108648 -0.77990615 -0.7353442
-0.8014379 0.19900489 -0.38184386 -0.48771507 -0.53448576 -0.79611814 -0.67496365 -0.401426
-0.43907735 -0.48491693 -0.43111044 -0.078399315 -0.3499934 -0.4782965 -0.7550164 -0.1766938
-0.018581003 0.06007597 -0.5408892 -0.39459288 -0.2179434 0.21807039 -0.58792603 -0.10632644
0.08980724 0.013135791 0.20249176 0.017327145 -0.6966914 -0.1027809 -0.7699801 -0.4823341

bias f4 [10]
00000000: fc31 e540 12f4 0cbf 0e2b d940 ba5c de40
00000010: 4f46 0ebf 5377 36bf 809e d740 0870 febf
00000020: b167 01bf e3e7 2fbf
7.1623516 -0.5505992 6.7865057 6.948819 -0.5557603 -0.71275824 6.738098 -1.9877939
-0.50548846 -0.68713206

weight f4 [1, 10]
00000000: d5cb 7f3f cdba 0f3f ebc3 3c3f a1aa 953f
00000010: a0a6 dc3e 89d6 db3e 0449 653f b869 e13f
00000020: 20f0 053f 0c11 f63e
0.999204 0.5614441 0.7373645 1.1692697 0.43095875 0.42937115 0.8956454 1.7610388
0.52319527 0.4805988
