mwo/models/trained_vfa_models/model_500_iters_base_case.pth (torch_old, 23388 bytes, 9 tensors)

weight f4 [40, 25]
-0.38906208 0.6739399 0.48758358 0.22357611 0.4623278 -0.005302694 0.33607647 -0.18212245
0.119670995 -0.2281368 0.44085371 -0.21082713 0.45028502 0.1923182 0.15517709 0.16348302
0.44884112 0.41157916 0.16691579 0.3386444 0.35502586 -0.44814485 0.26352242 -0.12277177
-0.7871565 -0.33213174 0.5728727 0.44322845 0.20878081 0.24616297 0.13740207 0.21717282
-0.387066 0.27425152 -0.047645308 0.104772635 -0.18449053 0.22745205 0.20116645 0.23737548
0.24235208 0.43160173 0.3089934 0.25024495 -0.017923577 0.47517577 -0.081595086 0.27333426
-0.11299846 -0.6722876 -0.4793978 0.73390913 0.29456952 0.386743 0.21462584 -0.1758921
0.3124434 -0.21442945 0.257891 -0.37017077 0.15782143 -0.22248575 0.41953433 0.38012323
0.31546342 0.19096273 0.18992844 -0.08869009 0.45342615 -0.27055013 0.15093477 -0.34168085
0.30064073 -0.18565938 -0.8501197 -0.60735613 0.73161304 0.28089035 0.41008765 0.34490156
0.24094984 0.48536187 -0.22403848 0.3126754 -0.028626941 0.4181137 -0.19780625 0.2989492
0.14278859 0.26483846 -0.07362949 0.46227673 0.3520447 0.13885544 0.3558962 0.28963855
-0.33462584 0.29768685 0.13244022 -0.92537135 -0.47267193 0.40143618 0.45164725 0.45773247
0.4156169 0.050786767 0.4591315 -0.33125508 0.1959569 -0.32498512 0.3339903 -0.28186685
0.122314736 0.26901394 0.37699637 0.07155893 0.18585418 0.0329215 0.030666275 -0.20965004
0.2868216 -0.47835374 0.35943028 -0.11153689 -0.8460133 -0.34296107 0.2979933 0.35293126
0.37662995 0.13173501 -0.1679913 0.16925643 -0.06350511 -0.083034545 -0.36027816 0.04164125
0.08046544 0.046837743 -0.2090987 0.009654096 -0.406926 0.40375262 0.2527191 -0.014349157
0.0032431781 0.05475175 -0.24768583 0.26409554 0.1103828 -0.6943386 -0.6546129 0.35902706
0.37167558 0.36183858 0.44915587 -0.08557625 0.32156667 -0.43747064 0.18435076 -0.09608021
0.066438906 -0.31882286 0.16373986 0.32228103 0.3573187 0.049991034 0.26031077 0.3539997
0.1668024 -0.07718272 0.3174524 -0.27972344 0.24811846 -0.045521084 -0.5669592 -0.52862906
0.6894354 0.3210718 0.14162132 0.5412721 0.09531106 0.25516382 -0.14572294 0.33570337
-0.18289848 0.19629538 -0.027390905 0.104197666 0.2862658 0.34043553 -0.023172555 0.18805987
0.37789392 0.05248535 0.43681273 0.13332424 -0.09820773 0.04432949 0.13142845 -0.623672
-0.40587795 0.40356392 0.5055593 0.329649 0.5373033 0.06929629 0.18361549 -0.0693808
0.028019302 -0.31513175 0.19397637 0.059160437 0.2631723 0.30926317 0.1905702 0.23278762
0.38271675 0.4481188 0.2637169 -0.0332041 0.39109185 -0.4394722 -0.07198039 -0.17829046
-0.8286719 -0.50868547 -0.46136242 0.28927758 0.24116395 -0.13070461 -0.08726408 0.09131601
0.14202978 -0.0553719 0.1705813 -0.0604076 0.20303099 -0.46773964 -0.5736755 -0.088932075
-0.22647476 0.08343529 0.0058149737 -0.31958523 0.2637395 -0.024309859 0.16782947 0.18443824
0.099230275 -0.40454602 -0.8102712 -0.8896831 0.7542466 0.656421 0.22009787 -0.53695416
00000000: 2533 c7be 5387 2c3f 8ea4 f93e 23f1 643e
00000010: 3bb6 ec3e 39c2 adbb 3712 ac3e 4f7e 3abe
00000020: 1116 f53d b19c 69be 94b7 e13e 11e3 57be
00000030: c28b e63e 10ef 443e bee6 1e3e 1868 273e
00000040: 81ce e53e 81ba d23e f9eb 2a3e cc62 ad3e
00000050: f3c5 b53e 3e73 e5be 69ec 863e c46f fbbd
00000060: 1783 49bf 2c0d aabe c9a7 123f d7ee e23e
00000070: a3ca 553e 2512 7c3e 21b3 0c3e 8d62 5e3e
00000080: 842d c6be b26a 8c3e ba27 43bd 0993 d63d
00000090: 16eb 3cbe 31e9 683e 94fe 4d3e 8f12 733e
000000a0: 252b 783e e7fa dc3e 6234 9e3e 1b20 803e
000000b0: 77d4 92bc 3d4a f33e 531b a7bd 78f2 8b3e
000000c0: bd6b e7bd 0a1b 2cbf a173 f5be 78e1 3b3f
000000d0: d1d1 963e 2e03 c63e e0c6 5b3e 0f1d 34be
000000e0: 95f8 9f3e 6593 5bbe 4a0a 843e 0687 bdbe
000000f0: f19b 213e 4ed3 63be 34cd d63e 839f c23e
00000100: 6c84 a13e bc8b 433e 9a7c 423e 26a3 b5bd
00000110: 7927 e83e 8c85 8abe a58e 1a3e cbf0 aebe
00000120: 95ed 993e 7e1d 3ebe 72a1 59bf b17b 1bbf
00000130: fe4a 3b3f dcd0 8f3e 02f7 d13e f096 b03e
00000140: 8ebb 763e 5a81 f83e 586a 65be fd16 a03e
00000150: 0c83 eabc 0013 d63e b98d 4abe df0f 993e
00000160: 2c37 123e e898 873e 0fcb 96bd 89af ec3e
00000170: 343f b43e 1f30 0e3e 0738 b63e 814b 943e
00000180: 1454 abbe 696a 983e 699e 073e 23e5 6cbf
00000190: 0e02 f2be 0b89 cd3e 4f3e e73e e95b ea3e
000001a0: bdcb d43e c905 503d 4913 eb3e 449a a9be
000001b0: eda8 483e 7364 a6be c700 ab3e da50 90be
000001c0: 2680 fa3d 32bc 893e ab05 c13e 7d8d 923d
000001d0: 8f50 3e3e b2d8 063d d737 fb3c 80ae 56be
000001e0: 48da 923e c8ea f4be 3f07 b83e 746d e4bd
000001f0: 5494 58bf 9898 afbe 9492 983e 68b3 b43e
00000200: a4d5 c03e 8be5 063e e905 2cbe 8f51 2d3e
00000210: f80e 82bd 040e aabd 6176 b8be 0490 2a3d
00000220: 11cb a43d efd8 3f3d f81d 56be 372c 1e3c
00000230: 9b58 d0be aab8 ce3e 6664 813e ba18 6bbc
00000240: 808b 543b 5f43 603d 5ba1 7dbe 8837 873e
00000250: 6110 e23d 2dc0 31bf b694 27bf 65d2 b73e
00000260: 434c be3e e842 b93e c2f7 e53e 9a42 afbd
00000270: 63a4 a43e 27fc dfbe 72c6 3c3e b3c5 c4bd
00000280: 1f11 883d c03c a3be 6cab 273e 0502 a53e
00000290: 7af2 b63e 66c3 4c3d 7447 853e 733f b53e
000002a0: 40ce 2a3e f911 9ebd 1f89 a23e e937 8fbe
000002b0: c412 7e3e 5174 3abd 3d24 11bf 3c54 07bf
000002c0: d77e 303f 8663 a43e 2e05 113e cf90 0a3f
000002d0: 7232 c33d d5a4 823e 6538 15be 50e1 ab3e
000002e0: bd49 3bbe a801 493e e462 e0bc 9665 d53d
000002f0: 6e91 923e 914d ae3e 5fd4 bdbc c492 403e
00000300: 507b c13e e1fa 563d eba5 df3e 2686 083e
00000310: 2221 c9bd d792 353d 2e95 063e f8a8 1fbf
00000320: 3ccf cfbe ee9f ce3e 566c 013f c1c7 a83e
00000330: b68c 093f 37eb 8d3d b305 3c3e 8517 8ebd
00000340: bc88 e53c f358 a1be bea1 463e 3752 723d
00000350: 85be 863e be57 9e3e d624 433e e15f 6e3e
00000360: 73f3 c33e d46f e53e e705 873e 0601 08bd
00000370: 313d c83e 8002 e1be 746a 93bd c691 36be
00000380: d723 54bf 3639 02bf b237 ecbe 311c 943e
00000390: aff3 763e 6ed7 05be 83b7 b2bd e303 bb3d
000003a0: 4170 113e a5cd 62bd ddac 2e3e f66d 77bd
000003b0: 5be7 4f3e 927b efbe 66dc 12bf 0522 b6bd
000003c0: 00e9 67be 1fe0 aa3d 898b be3b ada0 a3be
000003d0: dd08 873e 7825 c7bc 7ddb 2b3e 61dd 3c3e
000003e0: 3e39 cb3d a820 cfbe ef6d 4fbf 46c2 63bf
000003f0: 4e16 413f 350b 283f 5661 613e d475 09bf

bias f4 [40]
0.51323473 0.4370362 0.46881324 0.65823126 0.37865108 0.89898306 0.67896974 0.37408206
0.3836689 0.8535286 0.5193881 0.6470688 0.6444291 0.39759216 0.3709139 0.49123588
0.84226584 0.75088406 0.5603541 0.7454242 0.6578973 0.59607023 0.34962997 0.8034237
0.5273981 0.48444834 0.42083758 0.7218098 0.53860956 0.40878218 0.60111547 0.6781824
0.6743518 0.47184494 0.56677556 0.5088694 0.7403228 0.5993593 0.5942979 0.7276012
00000000: 5a63 033f 35c3 df3e 4a08 f03e d881 283f
00000010: 8ede c13e c123 663f f6d0 2d3f af87 bf3e
00000020: 4070 c43e da80 5a3f 9ef6 043f 4da6 253f
00000030: 4ef9 243f 3391 cb3e 6de8 bd3e 4583 fb3e
00000040: bc9e 573f f039 403f 5e73 0f3f 1fd4 3e3f
00000050: f56b 283f 0f98 183f b302 b33e 2dad 4d3f
00000060: 9003 073f 9d09 f83e 0678 d73e 87c8 383f
00000070: 51e2 093f e64b d13e b4e2 193f 5d9d 2d3f
00000080: 52a2 2c3f a995 f13e 3418 113f 4445 023f
00000090: cc85 3d3f 9c6f 193f e823 183f 1244 3a3f

weight f4 [30, 40]
0.012754874 0.06896443 -0.06307238 -0.06884698 -0.021177081 -0.17960554 0.07705434 -0.17099407
-0.19414906 -0.23463622 0.07631681 0.10589539 -0.35699072 0.029656343 -0.10664854 -0.11225039
-0.024260815 -0.13046026 -0.17111725 0.06853459 -0.012950619 0.0023609018 0.041114096 -0.04169819
-0.13711996 -0.24086247 -0.20510139 0.29413614 0.40597525 0.014440555 0.369069 0.00460309
0.028672324 0.034478188 0.17056304 -0.2332912 0.096409164 -0.12627518 -0.07489833 -0.049437102
0.20263392 0.023699041 0.21611306 0.24593274 0.20382775 0.4273583 0.25752166 0.17278533
0.12405837 0.18181156 0.45072314 0.51836777 0.39734507 0.05592848 0.0875791 0.104487956
0.04569589 0.17455888 -0.023566857 0.010976208 0.25589016 0.28022248 0.24444833 0.36883074
0.15726551 0.024678677 0.32670906 0.17531696 0.69169855 0.06708314 0.33020914 0.47245774
0.24465002 0.041453768 0.16924524 0.23859309 0.066004634 0.22807157 0.122327454 0.15886047
-0.06541704 2.126458e-05 0.11586939 -0.063718356 0.030087085 0.122697055 -0.0070511247 0.0034140428
-0.107979074 0.0055697174 -0.042457465 -0.16243953 0.02330148 -0.003966242 0.04196408 -0.026983768
-0.03871555 -0.08963687 -0.08125458 -0.0970881 0.05044075 0.10805013 0.014984364 0.037847802
-0.09988637 -0.1590577 -0.082403265 -0.07130299 0.09592933 -0.016913496 -0.17073992 0.12772858
0.0051249303 0.029392632 0.050232552 0.009939113 -0.07511007 -0.11676644 -0.07572806 0.0020561474
0.29907513 0.2990606 0.4798349 0.5296288 0.25536045 0.66901445 0.36153504 0.451802
0.2814458 0.4883196 0.5768777 0.46184874 0.31712 0.46776247 0.20518622 0.20730932
0.4091043 0.45435196 0.21549474 0.28158584 0.51473945 0.29889944 0.32742262 0.51488686
0.4481933 0.3245392 0.5512888 0.64551073 0.6658441 0.22425498 0.3799731 0.5659511
0.38584262 0.40405744 0.42811978 0.4293011 0.354323 0.2807037 0.4663478 0.578413
0.36801526 0.36483154 0.16931757 0.38742486 0.34264848 0.3579203 0.4467315 0.45322707
0.18496187 0.25700095 0.57930577 0.43091142 0.28519636 0.41982964 0.18170553 0.35797545
0.2180864 0.27731714 0.2545316 0.41556576 0.22309108 0.44763097 0.45607293 0.37094086
0.3075139 0.38261792 0.25473276 0.55291325 0.5405149 0.22309555 0.2870087 0.4148721
0.113309205 0.2072374 0.28264523 0.10140532 0.21777275 0.0836419 0.100128286 0.24471782
-0.11454075 0.10780816 -0.09767332 -0.13091245 -0.08944979 -0.11894557 -0.11790172 0.09308524
-0.10794613 0.09343062 -0.12229532 -0.15066858 0.052823734 0.106950045 -0.021033583 -0.07925367
-0.025430614 0.057200927 -0.053142715 -0.11766639 -0.15409228 -0.005601882 0.027418286 0.122794606
-0.13762335 -0.059336994 0.088338174 -0.16942446 -0.05012525 -0.07050714 0.063350074 -0.0817111
-0.16936871 0.06741278 -0.05220496 -0.063721344 0.1053985 -0.09104588 -0.09166607 -0.16347161
0.6376357 0.7664281 0.6586522 0.8891664 0.58636904 0.4467776 0.67903566 0.79274386
0.80829656 1.1848651 0.9941991 0.96543086 1.3510756 0.6931775 0.85252523 0.93227357
00000000: d2f9 503c 393d 8d3d 182c 81bd a5ff 8cbd
00000010: 8f7b adbc 84ea 37be aace 9d3d 1219 2fbe
00000020: 03cf 46be 7a44 70be fd4b 9c3d afdf d83d
00000030: 7dc7 b6be dcf1 f23c 8d6a dabd 88e3 e5bd
00000040: 9ebe c6bc 6097 05be 5c39 2fbe dd5b 8c3d
00000050: d52e 54bc 5cb9 1a3b 4167 283d b9cb 2abd
00000060: 2d69 0cbe a7a4 76be 1906 52be 0399 963e
00000070: fddb cf3e 1498 6c3c 9df6 bc3e 85d5 963b
00000080: 39e2 ea3c 0039 0d3d 14a8 2e3e e3e3 6ebe
00000090: 2b72 c53d 484e 01be 4c64 99bd 8f7e 4abd
000000a0: 447f 4f3e 7e24 c23c be4c 5d3e cbd5 7b3e
000000b0: 39b8 503e b5ce da3e e1d9 833e a3ee 303e
000000c0: 5112 fe3d cf2c 3a3e 2fc5 e63e c0b3 043f
000000d0: d070 cb3e 4315 653d ac5c b33d c8fd d53d
000000e0: 9d2b 3b3d 90bf 323e 480f c1bc 8ed5 333c
000000f0: 0904 833e 5279 8f3e aa50 7a3e 62d7 bc3e
00000100: 360a 213e f02a ca3c 6946 a73e 4a86 333e
00000110: 2813 313f e362 893d 2c11 a93e fbe5 f13e
00000120: 8985 7a3e 6dcb 293d a04e 2d3e bf51 743e
00000130: 702d 873d 988b 693e d186 fa3d 52ac 223e
00000140: 5ef9 85bd 5661 b237 ee4c ed3d c57e 82bd
00000150: 3179 f63c 9848 fb3d 1f0d e7bb 22be 5f3b
00000160: 2224 ddbd 2d82 b63b e1e7 2dbd 8c56 26be
00000170: bfe2 be3c 40f7 81bb 87e2 2b3d 100d ddbc
00000180: 3294 1ebd 8993 b7bd cd68 a6bd 20d6 c6bd
00000190: f69a 4e3d 6349 dd3d fa80 753c 4c06 1b3d
000001a0: 3a91 ccbd 06e0 22be 0bc3 a8bd 4d07 92bd
000001b0: 9976 c43d 2c8e 8abc 72d6 2ebe 48cb 023e
000001c0: 08ef a73b d1c8 f03c a6c0 4d3d a9d7 223c
000001d0: 4fd3 99bd 3e23 efbd 5017 9bbd 6ec0 063b
000001e0: 6020 993e 791e 993e ecac f53e c195 073f
000001f0: 9bbe 823e 8844 2b3f 1f1b b93e 9752 e73e
00000200: aa19 903e 0705 fa3e 42ae 133f 7077 ec3e
00000210: 8d5d a23e 907e ef3e 561c 523e e548 543e
00000220: 1e76 d13e d2a0 e83e a7aa 5c3e 052c 903e
00000230: f7c5 033f 5909 993e f0a3 a73e a0cf 033f
00000240: 9879 e53e 012a a63e 4321 0d3f 3140 253f
00000250: c274 2a3f 19a3 653e d68b c23e 2ce2 103f
00000260: 2a8d c53e 9ee0 ce3e 8432 db3e 5bcd db3e
00000270: d369 b53e 65b8 8f3e 24c5 ee3e e012 143f
00000280: 7f6c bc3e 33cb ba3e 9661 2d3e 8d5c c63e
00000290: 9f6f af3e 5441 b73e feb9 e43e 610d e83e
000002a0: a566 3d3e a195 833e 624d 143f 6ca0 dc3e
000002b0: 4205 923e e9f3 d63e 0411 3a3e 8f48 b73e
000002c0: 0b52 5f3e 83fc 8d3e f751 823e 09c5 d43e
000002d0: fd71 643e e32f e53e 6482 e93e f6eb bd3e
000002e0: 7672 9d3e 7fe6 c33e 556c 823e b98b 0d3f
000002f0: 2f5f 0a3f 2973 643e cef2 923e 1e6a d43e
00000300: a80e e83d 0a36 543e e0b6 903e 98ad cf3d
00000310: d2ff 5e3e 724c ab3d 0f10 cd3d 4f97 7a3e
00000320: 5794 eabd 86ca dc3d f308 c8bd ea0d 06be
00000330: 7431 b7bd bc99 f3bd 7576 f1bd 79a3 be3d
00000340: dc12 ddbd 8e58 bf3d f875 fabd dd48 1abe
00000350: b35d 583d a008 db3d 9f4e acbc c04f a2bd
00000360: dd53 d0bc 854b 6a3d 2dac 59bd 14fb f0bd
00000370: 5eca 1dbe fe8f b7bb 509c e03c bd7b fb3d
00000380: 23ed 0cbe 590b 73bd a5ea b43d 9b7d 2dbe
00000390: 2250 4dbd 0c66 90bd afbd 813d 2658 a7bd
000003a0: fe6e 2dbe b60f 8a3d ded4 55bd 5680 82bd
000003b0: 2bdb d73d 4376 babd 6cbb bbbd 1a65 27be
000003c0: 183c 233f a234 443f 6e9d 283f 69a0 633f
000003d0: 481c 163f 09c0 e43e 48d5 2d3f 43f1 4a3f
000003e0: 86ec 4e3f a9a9 973f d583 7e3f 7a26 773f
000003f0: 0cf0 ac3f 1574 313f 183f 5a3f 7ba9 6e3f

bias f4 [30]
0.16966765 0.26010036 -0.047826644 0.3461025 0.30617228 0.11917919 1.2600185 0.37906936
0.36915237 0.31410873 0.747612 0.43493983 0.3277232 0.35329592 0.16828372 0.27902636
0.31215104 0.29417384 0.3101357 0.5322542 0.30749735 0.39087287 0.24866301 0.48759252
0.44547504 0.24044108 0.26948312 0.27980655 0.53807676 -0.18978085
00000000: 5bbd 2d3e e02b 853e dfe5 43bd 5934 b13e
00000010: 9dc2 9c3e 3814 f43d 4948 a13f 6115 c23e
00000020: 8a01 bd3e dcd2 a03e 8063 3f3f 6fb0 de3e
00000030: 56cb a73e 34e3 b43e 9152 2c3e 8bdc 8e3e
00000040: 43d2 9f3e f49d 963e 1bca 9e3e d041 083f
00000050: 4b70 9d3e 7d20 c83e 84a1 7e3e baa5 f93e
00000060: 4e15 e43e 3036 763e b1f9 893e ce42 8f3e
00000070: 66bf 093f e955 42be

weight f4 [20, 30]
0.21702458 0.28638175 -0.13993253 0.53151625 0.3547496 -0.01050424 -0.7815121 0.19843632
0.27337772 0.3987617 -0.45737717 0.27242342 0.47888318 0.5643134 0.33500016 0.32214215
0.45483533 0.2004956 0.34011683 0.5474726 0.25978482 0.41179156 0.24293338 0.2848795
0.55523443 0.570742 0.45143843 0.5304166 0.5073792 0.0326973 -0.025590641 0.39133322
-0.16517481 0.43554544 0.43557474 0.06312784 -1.0772103 0.4716013 0.20647848 0.39807114
-0.54411834 0.3473851 0.3278247 0.47930035 0.18129762 0.27507138 0.44516236 0.2629773
0.38083535 0.43737948 0.295304 0.30536512 0.33356172 0.17230411 0.4592372 0.43322542
0.31964874 0.33967477 0.21327966 0.01947749 0.088885024 0.37101457 -0.023032868 0.3771347
0.34507877 0.09155393 -1.1348053 0.53236973 0.48490483 0.50426435 -0.5247454 0.5244064
0.5311703 0.33372036 0.07451218 0.5464195 0.48253468 0.4568555 0.21927804 0.23806325
0.2528993 0.48539856 0.42474893 0.4069795 0.4698688 0.54910356 0.23553945 0.565236
0.40228227 -0.043365583 -0.0072607067 0.32891232 0.10455067 0.46135485 0.35078642 0.00684797
-1.05951 0.5236894 0.33849144 0.5038864 -0.66897917 0.38832793 0.3847724 0.36542055
0.063134745 0.43629614 0.4897754 0.30359918 0.26417515 0.5451934 0.29359856 0.3243659
0.26513228 0.43073 0.4128893 0.2620139 0.4462846 0.43970346 0.4684118 0.03378991
0.056312226 -0.14976582 -0.1966617 -0.19439994 -0.014684645 -0.06155039 0.14979084 -0.11847255
0.010450808 -0.06934687 -0.19942702 -0.00802541 -0.06880326 -0.108928956 -0.014578276 0.014561041
-0.12569979 0.12613419 -0.027822834 0.011400056 -0.024367467 -0.01925436 0.03314134 -0.17448996
0.10516569 -0.07514667 -0.08084297 0.0047332617 0.09756938 0.1608037 0.21682619 0.24924555
-0.08122429 0.51900417 0.3858096 0.08798276 -1.1252246 0.263552 0.33901742 0.5416017
-0.6438563 0.45289367 0.570823 0.35243908 0.102800705 0.55155647 0.329897 0.43434227
0.47522458 0.5741508 0.3870359 0.43108752 0.5223219 0.31227538 0.30322567 0.22719921
0.42550284 0.24478371 0.3913751 -0.08029239 -0.008494959 -0.03539651 -0.050601043 -0.08196383
0.051054813 -0.010747169 0.12530646 0.16197598 -0.1926553 0.13658403 -0.0926916 -0.0086157555
-0.009261859 0.06911522 0.13201126 -0.17292367 -0.058660742 0.11650184 -0.17855355 -0.02425425
-0.06751534 0.0347357 0.12444404 -0.07372241 -0.1877471 0.056005992 -0.11379235 0.10166596
-0.014546949 -0.078672476 0.11864021 -0.023261264 0.06626865 0.061498586 0.10401264 0.10377231
0.017437637 -0.009834708 -0.10197965 -0.089258984 -0.0906212 -0.005550042 0.16812514 0.012347619
0.14797476 0.070519626 -0.06323483 0.04590577 -0.10264805 0.10743387 -0.04644589 -0.18505383
-0.056024976 -0.15182252 -0.07243005 -0.17092659 -0.14132275 -0.07899204 -0.16882357 -0.090270124
-0.016091755 0.22622572 -0.06323792 0.5167733 0.28888682 0.061414294 -0.91343033 0.17317508
0.28244182 0.18427905 -0.6691352 0.3742646 0.41553783 0.4995551 -0.008119766 0.3396213
00000000: b13b 5e3e a1a0 923e 794a 0fbe 7311 083f
00000010: bda1 b53e fa19 2cbc 2d11 48bf e432 4b3e
00000020: 2af8 8b3e 7e2a cc3e 572d eabe 157b 8b3e
00000030: 2d30 f53e d876 103f 2485 ab3e d1ef a43e
00000040: 2de0 e83e b84e 4d3e cb23 ae3e 2a27 0c3f
00000050: 8402 853e 58d6 d23e 87c3 783e badb 913e
00000060: d823 0e3f 261c 123f f022 e73e 62c9 073f
00000070: 9ae3 013f 9bed 053d 77a3 d1bc d45c c83e
00000080: 9623 29be d0ff de3e a703 df3e 2b49 813d
00000090: 07e2 89bf ba75 f13e 186f 533e fbcf cb3e
000000a0: 574b 0bbf 76dc b13e a4d8 a73e db66 f53e
000000b0: 15a6 393e 28d6 8c3e 52ec e33e f6a4 863e
000000c0: dafc c23e 34f0 df3e 1632 973e d158 9c3e
000000d0: 9ac8 aa3e 7d70 303e 2321 eb3e b9cf dd3e
000000e0: 00a9 a33e dae9 ad3e fc65 5a3e 428f 9f3c
000000f0: 5a09 b63d 9ff5 bd3e 6daf bcbc cd17 c13e
00000100: 2aae b03e a080 bb3d 4d41 91bf 6249 083f
00000110: 7245 f83e 7817 013f b755 06bf 7f3f 063f
00000120: c7fa 073f 65dd aa3e d899 983d 26e2 0b3f
00000130: c90e f73e f7e8 e93e 6c8a 603e dac6 733e
00000140: 047c 813e 2986 f83e b178 d93e 9e5f d03e
00000150: a592 f03e 0d92 0c3f 4131 713e 4eb3 103f
00000160: f1f7 cd3e 1ca0 31bd 39eb edbb 3267 a83e
00000170: a91e d63d b436 ec3e 479a b33e f064 e03b
00000180: 069e 87bf 8210 063f c04e ad3e b3fe 003f
00000190: 3842 2bbf ebd2 c63e e300 c53e 6718 bb3e
000001a0: ca4c 813d 3562 df3e d7c3 fa3e 5a71 9b3e
000001b0: f741 873e cb91 0b3f 8d52 963e 4a13 a63e
000001c0: 6bbf 873e a488 dc3e 3a66 d33e b026 863e
000001d0: 6a7f e43e d020 e13e acd3 ef3e 4a67 0a3d
000001e0: a6a7 663d 365c 19be af61 49be c710 47be
000001f0: de97 70bc 431c 7cbd c562 193e bca1 f2bd
00000200: de39 2b3c bb05 8ebd 9936 4cbe 027d 03bc
00000210: b9e8 8cbd 2516 dfbd b9d9 6ebc 6f91 6e3c
00000220: 72b7 00be 5229 013e b6ec e3bc 4dc7 3a3c
00000230: 489e c7bc 52bb 9dbc 37bf 073d 7fad 32be
00000240: 1c61 d73d 7fe6 99bd 0091 a5bd 7a19 9b3b
00000250: 75d2 c73d baa9 243e af07 5e3e 3a3a 7f3e
00000260: ec58 a6bd 75dd 043f d688 c53e 4e30 b43d
00000270: 5c07 90bf 4af0 863e b193 ad3e 69a6 0a3f
00000280: c4d3 24bf aee1 e73e 7521 123f e572 b43e
00000290: 2d89 d23d ce32 0d3f 42e8 a83e 1c62 de3e
000002a0: a350 f33e 8cfb 123f 9229 c63e 81b7 dc3e
000002b0: e3b6 053f 8fe2 9f3e 6540 9b3e e9a6 683e
000002c0: 82db d93e 95a8 7a3e 5162 c83e 5670 a4bd
000002d0: 712e 0bbc eefb 10bd 0a43 4fbd a7dc a7bd
000002e0: da1e 513d e514 30bc 5650 003e 08dd 253e
000002f0: 6e47 45be afdc 0b3e 18d5 bdbd 1929 0dbc
00000300: 0dbf 17bc 488c 8d3d f62d 073e e712 31be
00000310: 3f46 70bd 8498 ee3d bed6 36be d9b0 c6bc
00000320: 7c45 8abd 0547 0e3d 84dc fe3d c6fb 96bd
00000330: c740 40be 8a66 653d f70b e9bd 3e36 d03d
00000340: 5456 6ebc 091f a1bd a3f9 f23d 688e bebc
00000350: dcb7 873d f1e5 7b3d 9404 d53d 9486 d43d
00000360: 60d9 8e3c c121 21bc b5da d0bd 6acd b6bd
00000370: 9c97 b9bd 20dd b5bb ff28 2c3e ab4d 4a3c
00000380: b286 173e 986c 903d 4381 81bd b007 3c3d
00000390: 2439 d2bd 4a06 dc3d 0c3e 3ebd c07e 3dbe
000003a0: 727a 65bd 5d77 1bbe 3556 94bd 6107 2fbe
000003b0: e9b6 10be 94c6 a1bd 16e0 2cbe 8bdf b8bd
000003c0: dbd2 83bc b7a7 673e e282 81bd 414b 043f
000003d0: f9e8 933e 8e8d 7b3d 92d6 69bf cf54 313e
000003e0: 379c 903e a6b3 3c3e 724c 2bbf 9c9f bf3e
000003f0: 60c1 d43e b0c5 ff3e c408 05bc d8e2 ad3e

bias f4 [20]
0.3973425 0.09846956 0.106704034 0.22009066 0.022341346 0.1253657 0.16041936 0.0012849984
0.37088585 0.15706117 0.18196595 0.39082366 -0.03376369 -0.1276254 0.23562184 0.22064134
-0.030286124 -0.0003539447 -0.037184894 -0.13064821
00000000: 7a70 cb3e 69aa c93d a587 da3d 725f 613e
00000010: 3305 b73c de5f 003e f944 243e 646d a83a
00000020: c0e4 bd3e a5d4 203e 4855 3a3e 0a1a c83e
00000030: cc4b 0abd 3cb0 02be da46 713e ceef 613e
00000040: 9b1a f8bc a791 b9b9 304f 18bd a5c8 05be

weight f4 [10, 20]
-0.21694265 -0.015380922 -0.031581737 0.16692656 0.0009498561 -0.081582814 0.17130496 -0.20622715
0.17516357 -0.078997426 0.1509122 0.017153226 -0.075611874 0.20975485 -0.15914202 0.0480464
-0.23800616 -0.04359041 -0.025115937 -0.055799127 -0.074516594 0.044968035 0.17138249 -0.12102013
-0.019831557 -0.23956175 0.11085904 0.10703319 0.09290388 -0.101838365 -0.15478659 -0.11687331
-0.031949744 0.19018552 -0.0017735998 -0.2214134 0.019771902 -0.21021982 -0.20926075 0.075862885
0.58259267 0.46995375 0.33301675 0.19996333 -0.11269174 0.29391044 -0.08913956 0.16784282
0.5138121 0.2173304 0.40275943 0.47107 0.006515437 -0.16796276 0.3690017 0.46593997
-0.08159757 -0.1378325 -0.03398852 0.08422363 -0.018965965 0.076974995 0.13566488 -0.09244881
0.07475505 -0.059078965 0.011879884 -0.10790114 -0.120879136 0.03923051 -0.17146748 0.17855914
0.06508285 0.032990456 -0.091643125 -0.073071614 -0.06984587 0.14506546 0.05309382 -0.17439106
0.2651565 0.5120675 0.44722044 0.58477896 -0.017452404 0.15551768 -0.2055863 0.11128467
0.59463286 0.4925194 0.56867135 0.2875252 0.14921623 -0.055581674 0.40168318 0.16586052
-0.19267759 0.000619202 0.0075914413 -0.14612317 -0.17107031 0.002440239 -0.12863128 -0.12174236
-0.23580196 0.124667816 0.1860725 0.089525595 -0.019551238 -0.15188105 0.00018465598 0.18239084
-0.11752704 -0.05881624 -0.18443373 0.13016997 0.088005275 -0.15008011 0.03982213 0.023357406
0.35231966 0.26569927 0.5526516 0.5432299 -0.1779758 0.6192125 -0.117079504 -0.18310834
0.32230738 0.60598767 0.42120546 0.41124797 -0.1349208 -0.1002055 0.34453496 0.5650322
-0.10655869 -0.014232011 -0.10799828 -0.10702717 0.34108326 0.5182474 0.37533778 0.35636014
0.014096411 0.38547236 -0.00062530854 -0.22833392 0.4715667 0.5486332 0.45600167 0.59535044
0.005328509 0.0867562 0.30118236 0.4874909 -0.15002674 -0.029207438 0.15822178 -0.16838671
-0.062033787 0.020355972 0.0032166734 0.118125275 0.040138066 -0.14491302 -0.20934384 -0.124898404
-0.19200994 0.09634831 -0.04140912 0.12772764 -0.003012374 0.013925493 -0.18766375 0.1645829
-0.1307393 0.064425595 -0.11536187 0.019973397 -0.001771539 -0.20238286 -0.14227326 -0.15331614
0.04560266 0.03914179 0.12966377 0.036307164 -0.09498667 -0.079278804 0.15153648 -0.0015494007
0.17613553 0.18057993 -0.07486615 0.16901119 -0.19786163 0.14046861 0.024231404 0.07246083
00000000: 3726 5ebe 4300 7cbc da5b 01bd ccee 2a3e
00000010: c4ff 783a e414 a7bd 916a 2f3e 362d 53be
00000020: 145e 333e 67c9 a1bd ba88 1a3e ec84 8c3c
00000030: 66da 9abd fac9 563e 20f6 22be 4dcc 443d
00000040: e3b7 73be dc8b 32bd f0bf cdbc a08d 64bd
00000050: 289c 98bd 6730 383d e47e 2f3e 67d9 f7bd
00000060: ca75 a2bc ad4f 75be 100a e33d 3834 db3d
00000070: 6444 be3d a290 d0bd 6080 1ebe 465b efbd
00000080: bcdd 02bd febf 423e 2278 e8ba 32ba 62be
00000090: aff8 a13c dd43 57be 7348 56be 005e 9b3d
000000a0: cb24 153f c79d f03e 2c81 aa3e 30c3 4c3e
000000b0: edca e6bd 6e7b 963e cd8e b6bd fdde 2b3e
000000c0: 3189 033f dc8b 5e3e 7c36 ce3e 1630 f13e
000000d0: 727f d53b 6efe 2bbe caed bc3e af8f ee3e
000000e0: a01c a7bd f623 0dbe 8c37 0bbd 707d ac3d
000000f0: 835e 9bbc 11a5 9d3d bceb 0a3e cd55 bdbd
00000100: 2d19 993d c9fc 71bd d8a3 423c 46fb dcbd
00000110: 7b8f f7bd 2cb0 203d 2c95 2fbe 35d8 363e
00000120: 284a 853d 0021 073d 64af bbbd 92a6 95bd
00000130: 5a0b 8fbd 0a8c 143e e878 593d 9293 32be
00000140: 98c2 873e db16 033f 14fa e43e 13b4 153f
00000150: 58f8 8ebc 0740 1f3e 3785 52be 38e9 e33d
00000160: dc39 183f 812b fc3e 7294 113f 8136 933e
00000170: 24cc 183e 9ca9 63bd 6ba9 cd3e 57d7 293e
00000180: 464d 45be f151 223a a0c1 f83b 50a1 15be
00000190: 0e2d 2fbe 6bec 1f3b ebb7 03be 0f54 f9bd
000001a0: 1276 71be d751 ff3d ca89 3e3e 3259 b73d
000001b0: eb29 a0bc b586 1bbe 36a0 4139 aac4 3a3e
000001c0: 04b2 f0bd 4ce9 70bd 32dc 3cbe 474b 053e
000001d0: 1c3c b43d 9aae 19be 881c 233d 0858 bf3c
000001e0: 3e63 b43e bc09 883e 937a 0d3f 1d11 0b3f
000001f0: 4a3f 36be b684 1e3f 61c7 efbd c180 3bbe
00000200: 7905 a53e 0222 1b3f 3ea8 d73e 188f d23e
00000210: ae28 0abe 8b38 cdbd e366 b03e f3a5 103f
00000220: 713b dabd 612d 69bc 342e ddbd 1031 dbbd
00000230: 77a2 ae3e ddab 043f 462c c03e d674 b63e
00000240: a2f4 663c a25c c53e bfeb 23ba 5ed0 69be
00000250: 3171 f13e 3a73 0c3f 0d79 e93e e368 183f
00000260: c69a ae3b 3cad b13d 9334 9a3e 6898 f93e
00000270: 9ca0 19be 7044 efbc e404 223e 916d 2cbe
00000280: 2417 7ebd 91c1 a63c d3ce 523b aaeb f13d
00000290: d067 243d 1464 14be 3b5e 56be bcca ffbd
000002a0: 419e 44be 4352 c53d 9c9c 29bd 09cb 023e
000002b0: 406b 45bb c027 643c ed2a 40be 6b88 283e
000002c0: 86e0 05be 91f1 833d d842 ecbd 409f a33c
000002d0: fc32 e8ba 743d 4fbe 15b0 11be e8fe 1cbe
000002e0: dbc9 3a3d 2453 203d 94c6 043e d2b6 143d
000002f0: 5f88 c2bd ed5c a2bd 612c 1b3e 4315 cbba
00000300: df5c 343e f2e9 383e 6d53 99bd 4511 2d3e
00000310: 3d9c 4abe 01d7 0f3e f080 c63c 5866 943d

bias f4 [10]
0.0073529077 0.074618846 0.23130035 -0.15229143 -0.020576334 -0.016902838 0.2908245 0.2657322
-0.1911393 0.046023943
00000000: a9f0 f03b c4d1 983d 00da 6c3e 49f2 1bbe
00000010: b38f a8bc d277 8abc f3e6 943e 0d0e 883e
00000020: 05ba 43be 9a83 3c3d

weight f4 [1, 10]
-0.28897876 0.005508486 0.5185951 -0.18100551 0.50905055 -0.23671293 0.6427399 0.40118384
-0.16667947 -0.026078772
00000000: 06f5 93be 8880 b43b a6c2 043f 8259 39be
00000010: 2351 023f e064 72be 9a8a 243f f867 cd3e
00000020: 06ae 2abe 26a3 d5bc
