mwo/models/trained_vfa_models/model_horizon_120_between_greedy_and_naive.pth (torch_old, 12582 bytes, 7 tensors)

weight f4 [10, 25]
0	0xc0a1ffd3	-5.0624785
1	0xc05f82ed	-3.492366
2	0x408995dc	4.2995434
3	0x403c820a	2.945437
4	0x3e996a96	0.2996413
5	0x40304a0c	2.7545195
6	0xbe9686b9	-0.2939966
7	0xbe7c01e1	-0.24610092
8	0x3ec4a2c7	0.3840544
9	0xbe581f9e	-0.21105811
10	0x3f03f980	0.5155258
11	0xbed3ece2	-0.41391665
12	0x3f117457	0.56818146
13	0xc0158b15	-2.336614
14	0x400a9a84	2.165681
15	0xbf4ddd19	-0.80415493
16	0xbf5c07b1	-0.85949236
17	0x3d33ec40	0.043926477
18	0x3fbdc5c5	1.482598
19	0x3dee0722	0.11622454
20	0xbf7994c3	-0.9749262
21	0x3ecbea67	0.39827272
22	0xc0093ebd	-2.1444542
23	0xbf1cdd2d	-0.6127499
24	0xbfc964aa	-1.5733845
25	0x3e54aa8a	0.2076818
26	0x3fb764ec	1.4327674
27	0x4087882e	4.2353735
28	0x4063d5b1	3.5599177
29	0x4036f6f2	2.8588223
30	0x40662d55	3.5965168
31	0x3fec614d	1.8467194
32	0x3f9d0beb	1.2269262
33	0x40350b54	2.8288164
34	0x40033f75	2.050748
35	0x3fe1683f	1.7609938
36	0x3f463a0f	0.7743234
37	0x408599a3	4.1750045
38	0x4032ef30	2.7958488
39	0x3ffb362f	1.962591
40	0x3fb19fd2	1.3876898
41	0x40517234	3.2725954
42	0xbdadfc83	-0.084954284
43	0x401750a0	2.364296
44	0x3df28602	0.11841966
45	0x404f7a22	3.2418294
46	0x3e2b0de4	0.16704518
47	0x3f725a67	0.94669193
48	0x3f918c76	1.137099
49	0xc0531051	-3.2978709
50	0xc0911ed9	-4.5350156
51	0xc078ac4b	-3.885516
52	0x405ce199	3.4512694
53	0x4003409b	2.0508182
54	0xbf0b7214	-0.54470944
55	0x3fd900e9	1.6953403
56	0xbdcde12c	-0.10052714
57	0xbd69f8da	-0.05712209
58	0x3e241f93	0.1602767
59	0xbdeeeb4a	-0.116659716
60	0x3f4ed978	0.8080058
61	0xbf266230	-0.6499357
62	0xbee0b697	-0.43889305
63	0xbfbaea05	-1.4602667
64	0x3fc96803	1.5734867
65	0xbf791c02	-0.9730836
66	0xbec8bddb	-0.39207348
67	0xbc574680	-0.013139367
68	0x3f26cea5	0.65159065
69	0xbe1add43	-0.15123467
70	0xbfa56b4e	-1.2923372
71	0x3f28e61a	0.6597611
72	0xbfc0b14b	-1.5054106
73	0xbf08f8ea	-0.5350481
74	0xbf69a658	-0.91269445
75	0xc0c68b29	-6.2044873
76	0xc0b737fb	-5.7255836
77	0x4048b4a1	3.1360247
78	0x3ff8a8cf	1.9426516
79	0xbff16840	-1.885994
80	0x3f362d73	0.711631
81	0xbd29be1b	-0.041441064
82	0xbf6a59dd	-0.9154337
83	0x3ef94646	0.48686427
84	0xbf530063	-0.82422465
85	0xbd0bd1ff	-0.034135815
86	0xbecd95fa	-0.40153486
87	0xbf9d7217	-1.2300442
88	0xc03c324f	-2.9405706
89	0xbed866ac	-0.42265832
90	0xc03355c5	-2.80211
91	0xbf6fed2f	-0.9372129
92	0xbc7573b0	-0.014981195
93	0x3fed0a2a	1.8518727
94	0xbdf553c7	-0.1197887
95	0xbfcc7ca3	-1.5975536
96	0x3f3ba3df	0.7329692
97	0xbfd66531	-1.6749631
98	0x3f3311db	0.6994912
99	0xbdf00d97	-0.11721342
100	0x3eac4c03	0.33651742
101	0x3fcc778f	1.5973986
102	0x4089129f	4.283523
103	0x4065150a	3.5794091
104	0x40475ab1	3.1149104
105	0x4076f94d	3.858966
106	0x3fe38b6c	1.7776923
107	0x3facc142	1.3496478
108	0x405336df	3.300224
109	0x40043840	2.0659332
110	0x3ff3e554	1.905436
111	0x3f3c7843	0.73621005
112	0x40817a80	4.0462036
113	0x4033a942	2.8072057
114	0x400430dd	2.0654824
115	0x3fc7406f	1.5566539
116	0x405199a4	3.2750025
117	0xbe2a4d63	-0.16631083
118	0x400fd1bb	2.247176
119	0xbe308647	-0.17238723
120	0x404fcae6	3.246759
121	0xbc8314f4	-0.016001202
122	0x3f81552d	1.0104119
123	0x3f73021c	0.94925094
124	0xc044fe54	-3.078023
125	0x3e3d5b76	0.18491921
126	0x3fd18d6d	1.6371285
127	0x407e6f9a	3.9755616
128	0x40636d0f	3.5535314
129	0x4035533d	2.8332055
130	0x406abbef	3.6677206
131	0x4003aa77	2.0572793
132	0x3f939d8a	1.1532452
133	0x4050d13f	3.2627714
134	0x3feec0d7	1.86526
135	0x40004c37	2.0046518
136	0x3f3db644	0.7410624
137	0x408ce113	4.402475
138	0x402e1061	2.7197497
139	0x3ff3d701	1.9049989
140	0x3fad4c81	1.3538972
141	0x4055cc9a	3.340613
142	0xbdccc090	-0.09997666
143	0x40011c86	2.017366
144	0xbdee357a	-0.116312936
145	0x4058d6a0	3.3880997
146	0x3e0092e6	0.12556037
147	0x3f855494	1.0416436
148	0x3fa0d419	1.2564727
149	0xc0588b6f	-3.3835104
150	0xc0abacd0	-5.3648453
151	0xc08d7b03	-4.421266
152	0x40648ea8	3.571207
153	0x40214ea4	2.5204248
154	0xbe4f77af	-0.202605
155	0x4000073e	2.000442
156	0x3f11d1a9	0.5696054
157	0xbdfe1746	-0.12406783
158	0x3f01d4f3	0.5071556
159	0xbd26d71f	-0.0407325
160	0x3f12c7fa	0.5733639
161	0x3d3f0cd4	0.046643093
162	0x3f0bcaf1	0.5460654
163	0xc010a988	-2.2603474
164	0x3eb7f4cf	0.35928962
165	0xbfb6520a	-1.4243786
166	0xbf0e263d	-0.55527097
167	0xbe17412b	-0.14770953
168	0x3d470a91	0.04859406
169	0xbe181e33	-0.1485527
170	0xbf1c4f4e	-0.6105851
171	0x3f946ceb	1.1595739
172	0xbf733c05	-0.9501346
173	0xbf532362	-0.82475865
174	0xbfdc127a	-1.7193139
175	0x3e40f6e8	0.18844187
176	0x3fde2c25	1.7357222
177	0x4061e318	3.5294857
178	0x4047f972	3.1246
179	0x402e3d96	2.722509
180	0x4055d9b5	3.3414128
181	0x3fd7d6ca	1.6862423
182	0xbd32d067	-0.04365578
183	0x403064a7	2.7561433
184	0x3faba985	1.3411108
185	0x3f9525e9	1.1652194
186	0xbe702418	-0.23451269
187	0x40812ec6	4.0369596
188	0x40201eff	2.5018919
189	0x3fb36cdd	1.4017597
190	0x3f9f1767	1.2429017
191	0x405d3b0f	3.4567297
192	0xbe43bc17	-0.1911472
193	0x3fe32b6f	1.774763
194	0xba74a200	-0.0009332001
195	0x402695a8	2.6028843
196	0xbd536db5	-0.051618297
197	0x3ecce1f8	0.4001615
198	0x3f19d7e0	0.60095024
199	0xc033e454	-2.810811
200	0xc103ea68	-8.244728
201	0xc0ff34dc	-7.9752026
202	0x403e6783	2.9750679
203	0x401368bf	2.3032682
204	0xc016d957	-2.3570154
205	0xbe42850d	-0.18996067
206	0x3fc82e2c	1.563909
207	0x40222bae	2.533916
208	0x3fea7843	1.8317951
209	0x3f848e8d	1.0356003
210	0x3f91557d	1.1354214
211	0x40329522	2.7903523
212	0x3f1d67b6	0.61486375
213	0xc04d3df9	-3.2069075
214	0xc08fcfa5	-4.494097
215	0xc06416b2	-3.5638852
216	0x3e5e0c62	0.21684411
217	0x3e0b3013	0.13592558
218	0xbfba9add	-1.457851
219	0x3e214cc5	0.15751942
220	0xbf09aa9a	-0.5377594
221	0x3f0ddefb	0.55418366
222	0x3d273788	0.040824443
223	0x4026ee76	2.6083045
224	0xbeeb40be	-0.45947832
225	0x3e4c42a6	0.199473
226	0x3fc8627f	1.5655059
227	0x40891821	4.2841954
228	0x4060794c	3.5074034
229	0x4033b4ce	2.8079104
230	0x406eaab8	3.7291698
231	0x3ffe2881	1.9856111
232	0x3fa171b7	1.2612828
233	0x4050ea1f	3.2642896
234	0x3ff7d68a	1.9362347
235	0x3ff24ad9	1.8929092
236	0x3ee44896	0.4458663
237	0x408c2619	4.3796506
238	0x40292c78	2.6433392
239	0x400a7bf0	2.1638145
240	0x3fc785f6	1.5587757
241	0x40525d91	3.2869608
242	0xbcf48b28	-0.029851511
243	0x40011e2c	2.0174665
244	0xbd8b596c	-0.06804165
245	0x4044c425	3.0744717
246	0x3e2713cb	0.16316144
247	0x3f79c4e2	0.97566044
248	0x3f99fb50	1.202982
249	0xc0554ca4	-3.3328028

bias f4 [10]
0	0x40be9e4b	5.956823
1	0x409edd5d	4.964522
2	0x409dbc01	4.9291997
3	0x40cb5d88	6.3551674
4	0x409f5c11	4.9799886
5	0x40a87d7d	5.2653184
6	0x40b8c239	5.773709
7	0x407a82f9	3.914244
8	0x40f9080d	7.7822328
9	0x40a0c1c1	5.0236516

weight f4 [10, 10]
0	0xbf4c81a6	-0.7988533
1	0xbd99c2ca	-0.07507856
2	0xbf6e2cd0	-0.9303713
3	0xbf0128ee	-0.5045308
4	0xbe2afe64	-0.16698605
5	0xbfc233e6	-1.5172088
6	0xbf28443f	-0.65729135
7	0x3e1d13f2	0.1533964
8	0xbe548f34	-0.20757753
9	0xbe3806f6	-0.17971405
10	0xbf348214	-0.70510983
11	0xbeaecd14	-0.34140837
12	0xbf34cc20	-0.7062397
13	0xbf2df3eb	-0.67950314
14	0xbf21a9b1	-0.63149554
15	0xbf630bfc	-0.8869016
16	0xbeb79de3	-0.35862646
17	0xbf3f2106	-0.74659765
18	0xbeda1827	-0.42596552
19	0xbf05a737	-0.52208275
20	0x3fc7ff27	1.5624741
21	0x404363e1	3.0529711
22	0x3f88ef85	1.0698096
23	0x3fc3d356	1.529887
24	0x4046d5a3	3.1067894
25	0x404544ab	3.0823162
26	0x3fad0e5a	1.3520005
27	0x40141f95	2.3144276
28	0x40892968	4.2863045
29	0x4048aec3	3.1356666
30	0x40036e7a	2.053618
31	0x400d1b39	2.2047865
32	0x3f9ef6fa	1.2419121
33	0x3fc7e93c	1.5618052
34	0x40039285	2.0558178
35	0x4011bbb5	2.2770817
36	0x3fc70ee0	1.5551414
37	0x400a4d98	2.160986
38	0x408aa183	4.332216
39	0x4019304b	2.3935726
40	0x4000f0a6	2.014688
41	0x403d1d1e	2.9549022
42	0x3fb04ea1	1.3773996
43	0x3fe79794	1.8093133
44	0x403e3d4d	2.9724915
45	0x4040d699	3.013098
46	0x3fc03ef6	1.5019214
47	0x401d239c	2.4552984
48	0x40814608	4.0397987
49	0x40475f9b	3.1152103
50	0xbf01a17a	-0.5063702
51	0xbf684bb6	-0.90740526
52	0xbeb8f214	-0.3612219
53	0xbf45a070	-0.77197933
54	0xbeac18ca	-0.33612663
55	0xbec9be93	-0.3940321
56	0xbf58cab9	-0.8468433
57	0xbedd75b1	-0.43253854
58	0xbf238431	-0.63873583
59	0xbf52439b	-0.8213441
60	0x3ff64758	1.9240522
61	0x401f2946	2.4868941
62	0x3fb6333f	1.4234389
63	0x3f9f2a49	1.243478
64	0x403e892c	2.9771223
65	0x404572c7	3.0851305
66	0x3fa2cfda	1.2719681
67	0x4019b3d4	2.4016008
68	0x408f14ba	4.47128
69	0x40344726	2.8168426
70	0xbf2dc2ee	-0.67875564
71	0xbe4575cf	-0.19283222
72	0xbe8424c0	-0.25809288
73	0xbf1e20e8	-0.6176896
74	0xbdbd24f4	-0.09235564
75	0xbe1ff2a0	-0.15619898
76	0xbeec3e1d	-0.4614114
77	0xbef04d55	-0.46934
78	0xbef0ce75	-0.47032514
79	0xbdfa00b4	-0.12207165
80	0x3fe979e1	1.824032
81	0x4047e715	3.1234791
82	0x3fa4e6aa	1.2882893
83	0x3feceb16	1.8509243
84	0x403224cf	2.7834966
85	0x4039d0d7	2.9033716
86	0x3fd90197	1.695361
87	0x4018d26a	2.3878427
88	0x40846ae8	4.13805
89	0x40377a16	2.8668265
90	0x3fdf7ffa	1.746093
91	0x4038ca96	2.8873649
92	0x3f515323	0.8176748
93	0x3fd9ad64	1.700604
94	0x401aaa51	2.4166453
95	0x4030f00c	2.7646513
96	0x3fbe894e	1.4885652
97	0x4027b1ae	2.6202197
98	0x408ad042	4.337922
99	0x4031a79c	2.775855

bias f4 [10]
0	0xc00d9963	-2.212487
1	0xbeae8f4a	-0.34093696
2	0x40ac4483	5.3833632
3	0x40a3a44f	5.113807
4	0x40b8deeb	5.7772117
5	0xbecec6f7	-0.40386173
6	0x40aa3e3f	5.3200984
7	0xbec3b53e	-0.38224214
8	0x40b9123c	5.783476
9	0x40a64673	5.1960998

weight f4 [10, 10]
0	0xbe767fb8	-0.24072158
1	0x3efd4b9a	0.49471742
2	0x40473c38	3.1130505
3	0x402b3ea6	2.6756988
4	0x40483ee2	3.128838
5	0x3f4ceacc	0.8004577
6	0x4031d2d1	2.7784922
7	0x3f05f1cb	0.5232207
8	0x4031406f	2.7695577
9	0x402cd3ae	2.70042
10	0xbefb3303	-0.49062356
11	0x3ec41518	0.38297343
12	0x403f845e	2.992454
13	0x4031b955	2.7769368
14	0x4035672b	2.8344219
15	0x3ee91f44	0.45531666
16	0x4038b522	2.8860555
17	0x3f0040f7	0.5009913
18	0x40447ccd	3.0701172
19	0x402f50d0	2.7393074
20	0x3e55645e	0.20839068
21	0xbf005934	-0.50136113
22	0xbef4dfc7	-0.4782698
23	0xbe1fc9e4	-0.15604359
24	0xbf3c34d1	-0.7351809
25	0xbf237f30	-0.6386595
26	0xbf67107f	-0.90259546
27	0xbf41fc12	-0.75775254
28	0xbf3694f9	-0.71321064
29	0xbd3d0c98	-0.04615459
30	0x3e1f068c	0.15529841
31	0xbe7e2a32	-0.24820784
32	0xbe1746c6	-0.14773092
33	0xbf08ee7e	-0.5348891
34	0xbf27c193	-0.65529746
35	0xbc855cd0	-0.016279608
36	0xbf3adf3c	-0.7299688
37	0xbdf84ef6	-0.121244356
38	0xbf0067f2	-0.5015861
39	0xbe8da5af	-0.2766547
40	0x3d89cd0c	0.06728563
41	0xbe843b03	-0.25826272
42	0xbd3f0690	-0.046637118
43	0xbe96ee86	-0.29478854
44	0xbe0e7227	-0.13910733
45	0xba290600	-0.00064477324
46	0x3d4a9c48	0.049465448
47	0x3e68d292	0.22736576
48	0xbddab796	-0.106795475
49	0xbe95432e	-0.29152817
50	0xbe4812f5	-0.19538482
51	0xbef84279	-0.48488215
52	0xbf59be8b	-0.8505637
53	0x3efc6138	0.49292922
54	0xbe880365	-0.2656509
55	0xbf10c6fb	-0.5655362
56	0x3abe3be5	0.00145137
57	0xbf450a05	-0.76968414
58	0xbe2125b0	-0.15737033
59	0x3eea7713	0.4579397
60	0xbd92c056	-0.071655914
61	0xbebebe16	-0.372544
62	0xbf04011d	-0.515642
63	0xbe879a55	-0.26484933
64	0xbf69c074	-0.91309285
65	0xbf274720	-0.65342903
66	0xbefac7b7	-0.48980495
67	0xbf5a322f	-0.85232824
68	0xbf3bebe3	-0.7340681
69	0x3e8764f3	0.26444206
70	0x3e1728f0	0.1476171
71	0xbe396c00	-0.18107605
72	0xbe7c6ad6	-0.2465013
73	0x3e910273	0.2832218
74	0xbecf69f6	-0.4051053
75	0xbe8b6ec3	-0.27232942
76	0xbf3a33e7	-0.72735447
77	0x3e6f5d56	0.23375449
78	0xbf4d254e	-0.8013505
79	0xbef092cc	-0.46986997
80	0xbc8ae6f0	-0.016955823
81	0x3e9a6345	0.30153862
82	0xbe84085a	-0.25787622
83	0xbe929500	-0.28629303
84	0xbe4eb8a8	-0.20187628
85	0xbe46b760	-0.1940589
86	0xbd61e1b8	-0.055146903
87	0x3e786416	0.2425693
88	0x3e68d38e	0.22736952
89	0x3dc0cad0	0.094136834
90	0xbcf01600	-0.029307365
91	0xbf574cd2	-0.84101593
92	0xbf169a63	-0.58829325
93	0x3e01169a	0.12606278
94	0xbed1afda	-0.40954477
95	0xbeaf0d8c	-0.34190023
96	0xbf42f579	-0.7615581
97	0xbf5f6ade	-0.8727244
98	0xbf432a91	-0.76236826
99	0xbe85425c	-0.2602719

bias f4 [10]
0	0x40a92cb5	5.2867074
1	0x40ac0e4c	5.376745
2	0xbf048e04	-0.517792
3	0xbeee2271	-0.46510652
4	0xbe0b292a	-0.13589922
5	0xbe8efdc2	-0.27927977
6	0xbeec4818	-0.46148753
7	0xbf5cc64f	-0.86240095
8	0xbe4c13ee	-0.19929478
9	0xbef82b34	-0.4847046

weight f4 [1, 10]
0	0x403fb92b	2.9956768
1	0x403cd273	2.9503448
2	0x3f07961d	0.5296343
3	0x3f01bb2f	0.50676244
4	0x3e71bf0e	0.23608038
5	0x3f0d429d	0.5517977
6	0x3f0cfea2	0.5507604
7	0x3ece9b26	0.40352744
8	0x3e5a2bde	0.21305797
9	0x3f096f72	0.5368568
