mwo/models/trained_vfa_models/model_horizon_120_adp_500_better_than_greedy_last_ver.pth (torch_old, 17104 bytes, 7 tensors)

weight f4 [30, 25]
0	0x4007a725	2.1195767
1	0x40001b0f	2.0016515
2	0x400fa9be	2.2447352
3	0x3fd3c618	1.6544828
4	0x4007da69	2.1227057
5	0x3e86be41	0.26317027
6	0x3f8eb660	1.1149406
7	0xbad4d770	-0.0016238522
8	0x3f2c96ed	0.67417794
9	0xbf4dd04a	-0.8039595
10	0x3f31275a	0.6920067
11	0xc04fa504	-3.2444468
12	0x3fca2558	1.5792646
13	0xbf1465cd	-0.57967836
14	0x3ff37f8f	1.9023303
15	0x3fc5926c	1.543531
16	0x3fc40200	1.531311
17	0x3dbbb28a	0.09164913
18	0xbeffaf1e	-0.4993829
19	0x3daebdb2	0.08532275
20	0x3ef6881f	0.48150727
21	0xbe5afcda	-0.21385518
22	0x3f97a9e6	1.1848724
23	0xbeb6ba2d	-0.35688916
24	0xc041143a	-3.0168595
25	0x40046dea	2.0692086
26	0x3fce6382	1.6124117
27	0x403d6d47	2.9597948
28	0x4014054c	2.3128233
29	0x4007a774	2.1195955
30	0x3e388688	0.1802007
31	0x3fc1e55a	1.5148118
32	0x3e884b2c	0.26619852
33	0x3e585357	0.21125542
34	0xbf3956b1	-0.72397906
35	0x3f34688b	0.7047202
36	0xc06dd2c8	-3.71599
37	0x3fbe0698	1.4845762
38	0xbf438058	-0.7636771
39	0x40085fa9	2.1308386
40	0x3fc2118a	1.5161602
41	0x400e39d0	2.2222786
42	0x3d9c3972	0.07628144
43	0xbf1e4384	-0.6182177
44	0x3dd1efae	0.102507934
45	0x3f113765	0.5672515
46	0xbe790c2b	-0.24321048
47	0x3e932e23	0.28746137
48	0x3f977b3a	1.1834481
49	0xc06dd12f	-3.7158926
50	0x3d94db2e	0.07268368
51	0xbfd09d43	-1.6297992
52	0x40040c46	2.063249
53	0x3fc85eef	1.5653971
54	0x3fb36951	1.4016515
55	0x3fa475b1	1.2848417
56	0x405e8b43	3.4772499
57	0x3f90536f	1.1275462
58	0x40772d23	3.86213
59	0x3f2094fd	0.6272734
60	0xbeaea525	-0.3411037
61	0x3f0e1f0c	0.55516124
62	0xbf7aea32	-0.98013604
63	0xc103739a	-8.215723
64	0xbf14a535	-0.58064586
65	0x3f62fe00	0.88668823
66	0x3ff5d290	1.9204884
67	0x3da08e6a	0.07839663
68	0xc07e628d	-3.974765
69	0xbdac9f30	-0.084288
70	0xc09779d8	-4.7336235
71	0xbfe05b3d	-1.7527844
72	0x40a0ddea	5.027089
73	0x4002da6f	2.0445821
74	0xc1236125	-10.211217
75	0x400d423b	2.2071674
76	0x401dab3d	2.4635766
77	0x4043eb99	3.0612547
78	0x400fde97	2.2479608
79	0x400945b6	2.1448798
80	0x3ea4ae9a	0.3216446
81	0x3f9fa6e4	1.2472806
82	0x3f36d87e	0.7142409
83	0x3e771951	0.24130751
84	0xbfab1f95	-1.3369013
85	0x3f74e2a3	0.9565832
86	0xc082e208	-4.0900917
87	0x3fff02ff	1.9922789
88	0xbf4d24f0	-0.8013449
89	0x400b588d	2.1772797
90	0x3f8f180d	1.1179215
91	0x3fe1c3c4	1.7637868
92	0xbd6db780	-0.058036327
93	0xbf22b039	-0.63550144
94	0xbdd725f3	-0.10505285
95	0x3fa02b70	1.2513256
96	0xbefb02f9	-0.49025705
97	0xbe46aad4	-0.19401103
98	0xbefb0fc4	-0.49035466
99	0xc0564526	-3.3479705
100	0xc013bbb0	-2.3083305
101	0xc09ba3be	-4.863738
102	0x40942e3e	4.630645
103	0x409dd8e9	4.9327283
104	0x4073f20c	3.8116484
105	0xc06547c5	-3.5825055
106	0x40969463	4.7056136
107	0xbf6e227e	-0.9302138
108	0x40a26818	5.0752068
109	0xc04b117b	-3.172942
110	0xbf27020e	-0.6523751
111	0x3fe61d07	1.7977608
112	0x3fadb3c7	1.3570489
113	0xc11e221c	-9.8833275
114	0xbf51536c	-0.81767917
115	0xc03bd8b4	-2.9351015
116	0x3f886f53	1.0658973
117	0xbd7aeb60	-0.061259627
118	0xc08097ac	-4.0185146
119	0x3ca89080	0.020576715
120	0xbf537e8c	-0.8261497
121	0xc0963c6c	-4.6948757
122	0xc10ea620	-8.915558
123	0x40ac7225	5.3889337
124	0xc0898f18	-4.2987175
125	0x401a0c52	2.407002
126	0x400c5680	2.1927795
127	0x400672c1	2.100754
128	0x3fe8f027	1.8198289
129	0x3ff140b0	1.8847866
130	0x3edbc4ab	0.42923483
131	0x3f4ba3b9	0.79546696
132	0xbe23462d	-0.15944739
133	0x3f2dce83	0.67893237
134	0xbf879161	-1.0591241
135	0x3ead913d	0.3389987
136	0xc089546c	-4.2915554
137	0x3fd01583	1.6256565
138	0xbebf73f7	-0.37393162
139	0x40108f0d	2.2587311
140	0x3f853e27	1.0409592
141	0x3f85662e	1.0421808
142	0x3c37b750	0.011213139
143	0xbead76f8	-0.33879828
144	0x3e1a8177	0.1508845
145	0x3e99d4d2	0.30045182
146	0xbe975865	-0.29559627
147	0x3f610287	0.8789448
148	0xbed71be0	-0.42013454
149	0xc04de22f	-3.2169302
150	0x4009a8c2	2.1509252
151	0x3fb1e838	1.3898993
152	0x403ecb50	2.9811592
153	0x400c53f1	2.1926234
154	0x3ff32dca	1.8998349
155	0x3e8d170b	0.27556643
156	0x3fbaf68a	1.4606488
157	0x3d3d0042	0.046142824
158	0x3d365482	0.044514187
159	0xbf97060c	-1.179872
160	0x3f0b0ed5	0.54319507
161	0xc05a0db9	-3.4070876
162	0x3fbcc153	1.4746498
163	0xbee649d2	-0.44978195
164	0x3ff0dddf	1.881771
165	0x3fbfd1fb	1.4985956
166	0x40227087	2.5381181
167	0x3d8c62c2	0.06854774
168	0xbf5cdb32	-0.86271966
169	0x3c0e1ad0	0.008673385
170	0x3f1bfd0a	0.6093298
171	0xbeb8cd53	-0.3609415
172	0x3e861b07	0.26192495
173	0x3fec0734	1.8439698
174	0xc06af001	-3.6708987
175	0x3eab7d2e	0.33493942
176	0xc00978f3	-2.1480072
177	0x3f072473	0.5278999
178	0x3fa5f811	1.2966329
179	0x3f0af89c	0.542856
180	0xbf6d7911	-0.9276286
181	0x406e083f	3.7192533
182	0x3ed6618c	0.41871297
183	0xbdfda59a	-0.123851016
184	0x3f3c4fcb	0.73559254
185	0x3f7682c7	0.962933
186	0xbeb7198c	-0.35761678
187	0x3fd95f69	1.6982242
188	0xc0183d1b	-2.3787296
189	0x3ee8f294	0.45497572
190	0x3ff8d574	1.9440141
191	0x40427ff6	3.03906
192	0x3e29286b	0.16519324
193	0xc1064cce	-8.393751
194	0x3e17a8ed	0.14810534
195	0xc0732880	-3.799347
196	0x3f440598	0.76571035
197	0x40face86	7.8377104
198	0x3f953bdd	1.1658894
199	0xc0f0d0ae	-7.5254736
200	0xc0075da4	-2.1150904
201	0xbefb3e27	-0.49070856
202	0x3fcab242	1.583565
203	0x402d91f6	2.7120337
204	0xc06d9e68	-3.7127934
205	0x40a07abc	5.014982
206	0x40ab97be	5.362273
207	0x404140f9	3.0195906
208	0xc04d1e05	-3.2049572
209	0x40ac5b32	5.3861322
210	0x4003f205	2.0616467
211	0xc0f78d7d	-7.7360215
212	0x40632d15	3.5496266
213	0x40769593	3.8528793
214	0x3e06a0ec	0.13147324
215	0x3fdfb1d2	1.7476141
216	0xc07decd0	-3.967579
217	0xbd8ff170	-0.070284724
218	0xc0a0a3ae	-5.0199804
219	0xbe0e0f58	-0.1387304
220	0x414f9a63	12.975192
221	0x3e855e5c	0.26048553
222	0xc1cf0d48	-25.881485
223	0x3fcf4b3b	1.6194834
224	0xbf80e20e	-1.0068986
225	0x400d2f9d	2.206031
226	0x40054c1f	2.082771
227	0x4019df34	2.4042482
228	0x3fee3e2c	1.8612723
229	0x4002fe37	2.046766
230	0x3eb48518	0.35257792
231	0x3f75e9e8	0.9606004
232	0xbbd94810	-0.006630905
233	0x3eb261e0	0.34840298
234	0xbf9f17fa	-1.2429192
235	0x3eef22fb	0.46706375
236	0xc0981ec9	-4.753758
237	0x3ff6c73a	1.9279549
238	0xbf1d0f6a	-0.61351645
239	0x4013aa1f	2.3072584
240	0x3fad98c4	1.3562245
241	0x3fbf79e9	1.4959079
242	0x3e3fda61	0.18735649
243	0xbf6a20f3	-0.91456527
244	0x3e005a77	0.1253451
245	0x3f1372c4	0.57596993
246	0xbee39718	-0.44451213
247	0x3f0ebf2c	0.55760455
248	0xbf6d86f3	-0.9278404
249	0xc04092e5	-3.0089657
250	0xbffd165f	-1.9772452
251	0xc069ed2b	-3.6551006
252	0x40d1f905	6.561648
253	0x4020a3be	2.509994
254	0x409f5f88	4.9804115
255	0xbfe11344	-1.7584004

bias f4 [30]
0	0x401bc6e9	2.4340155
1	0x40880a7a	4.251279
2	0x406f9635	3.743543
3	0x406a2a0b	3.658816
4	0x3fbd9323	1.4810528
5	0x40033f83	2.0507514
6	0x408c7695	4.3894753
7	0x405a6873	3.412625
8	0xc0cc3251	-6.381142
9	0x4032254f	2.7835271
10	0x4135be78	11.359001
11	0x4058e89a	3.3891969
12	0x4087a959	4.2394223
13	0x404f60b5	3.2402775
14	0x4080c4f7	4.0240436
15	0x3ffed1cc	1.9907775
16	0x407317c9	3.7983267
17	0x406f3805	3.7377942
18	0x406870d9	3.6318877
19	0x40261ca1	2.5954974
20	0x401f1923	2.4859092
21	0x4061bfa4	3.5273218
22	0x40969464	4.705614
23	0x4097c550	4.742836
24	0x40b5c943	5.680818
25	0x3fdd0162	1.7266047
26	0x3fb8c9b1	1.4436551
27	0x4089921b	4.299085
28	0x4084fe23	4.1560225
29	0x40d46e88	6.6384926

weight f4 [20, 30]
0	0xc053cb09	-3.3092673
1	0xbfb68965	-1.426068
2	0xbf76fa9a	-0.9647614
3	0xc007ecf3	-2.1238372
4	0xbef60198	-0.4804809
5	0xc075a7b0	-3.8383598
6	0x3d8ea3ba	0.06964822
7	0xc0391701	-2.892029
8	0xc044b478	-3.073515
9	0xc05f016a	-3.4844613
10	0xbe6dcb29	-0.2322203
11	0xc05bbcda	-3.4334016
12	0xbf074029	-0.52832276
13	0xc055db02	-3.3414922
14	0x3f86799a	1.050586
15	0xbf763492	-0.96173966
16	0xc037a16e	-2.869228
17	0xbf3aacea	-0.72920096
18	0xc072d091	-3.79398
19	0xc0802007	-4.0039096
20	0xbf9ab02e	-1.2085016
21	0xbfea45fb	-1.8302606
22	0xbe33ce5a	-0.17559186
23	0x3eda4c9d	0.42636576
24	0xc029fdeb	-2.656123
25	0x3d8e1b7c	0.06938836
26	0xbf8ab038	-1.0835028
27	0xbe04144f	-0.12898372
28	0xbf572f34	-0.840564
29	0x3e174178	0.14771068
30	0x3f2242a8	0.6338296
31	0x3f4fe9fb	0.812164
32	0xbefd4b1c	-0.49471366
33	0x3f5dced6	0.8664373
34	0x3ebdddad	0.37083188
35	0x3f3dc053	0.7412159
36	0x3f367931	0.71278673
37	0x3ef31e50	0.47484064
38	0xc0f175e0	-7.545639
39	0x3f587625	0.84555274
40	0x400436fa	2.0658555
41	0x3efb4612	0.49076897
42	0xbf049d3c	-0.5180242
43	0x3f10382c	0.5633571
44	0x3f27293e	0.65297306
45	0x3e3c40ac	0.18384045
46	0x3f4fc729	0.8116327
47	0x3f1543ee	0.5830678
48	0x3f4e26fe	0.8052825
49	0x3f2b508f	0.669198
50	0x3f091a55	0.53555804
51	0x3efda458	0.49539447
52	0x3e8faf8d	0.28063622
53	0xbeedff11	-0.46483663
54	0x404fcd45	3.2469037
55	0x3f2fce95	0.68674594
56	0xbd9655bc	-0.07340571
57	0x3f280213	0.65628165
58	0xbf21c046	-0.6318401
59	0xbf251e5b	-0.64499444
60	0xbfc06516	-1.5030849
61	0xbf91f4e6	-1.1402862
62	0xc0cb3991	-6.350777
63	0x3e0b7932	0.13620451
64	0xc09c3e20	-4.8825836
65	0xbf9ec43a	-1.2403634
66	0xbf80d406	-1.0064704
67	0xc1029cd8	-8.163292
68	0x4173c296	15.235006
69	0xbfb547df	-1.4162558
70	0x404c39e5	3.1910336
71	0xbf92a9d5	-1.1458079
72	0xc1109337	-9.035941
73	0xbf5bc7b9	-0.8585163
74	0xc12770e2	-10.465059
75	0xc0134e75	-2.3016636
76	0xbf273411	-0.6531382
77	0xbda312d1	-0.07962573
78	0x3f1c996d	0.6117161
79	0xbf8613cb	-1.047479
80	0x3ec78a0d	0.38972512
81	0xbf1edc87	-0.6205525
82	0xc0e36533	-7.1061034
83	0xc0c93dd9	-6.2888
84	0xc005f8d8	-2.0933132
85	0xc08bddf1	-4.3708425
86	0xc1057038	-8.339897
87	0xbf5cfd82	-0.8632432
88	0xc0072526	-2.1116424
89	0xbf3e9fa3	-0.74462336
90	0x3b33cf00	0.0027436614
91	0xbdf94da8	-0.12173015
92	0x3e0f3192	0.13983753
93	0xbacb2780	-0.0015499443
94	0xbdfd24d8	-0.12360543
95	0xbdefecf5	-0.11715118
96	0x3d826efc	0.06368825
97	0x3c508dd0	0.012729123
98	0xbfe0eeac	-1.7572837
99	0xbf066400	-0.5249634
100	0xbfe71eb1	-1.8056241
101	0xbd6a8eb0	-0.057264984
102	0xbf30e481	-0.6909867
103	0xbf1bcb01	-0.60856634
104	0xbf1becbb	-0.609081
105	0xbf051a85	-0.5199359
106	0xbe35dfde	-0.1776118
107	0x3df2a9d4	0.118487984
108	0x3d78f764	0.060782805
109	0xbeda7a36	-0.42671365
110	0xbbab7ec0	-0.0052336156
111	0xbf25b3e4	-0.64727616
112	0xbe2fb645	-0.17159374
113	0xbf174a62	-0.59097874
114	0xbf430dd7	-0.7619299
115	0xbf22203e	-0.6333045
116	0xbf32670c	-0.6968849
117	0xbf36935d	-0.7131861
118	0x3c93bce0	0.018034399
119	0xbe35a701	-0.17739488
120	0x3de54a1b	0.11195775
121	0x3e56d2c6	0.20978841
122	0xbfaf3562	-1.3688166
123	0x3e4210c1	0.18951704
124	0xbec28cfe	-0.37998194
125	0x3d361520	0.04445374
126	0x3cc8cec5	0.024512658
127	0xbfae29b8	-1.3606482
128	0x40644ada	3.5670686
129	0x3d747e15	0.059690554
130	0x4067bdf4	3.6209688
131	0x3e38e4f3	0.18056087
132	0xbfaa95da	-1.3326981
133	0x3d85b949	0.06529481
134	0xbffa2a82	-1.9544222
135	0x3eb6324a	0.35585243
136	0x3d47a1d6	0.048738323
137	0x3d0f8bfa	0.0350456
138	0x3ea9eff1	0.33190873
139	0x3c208867	0.009798146
140	0xbd920014	-0.07128921
141	0xbdb8bc77	-0.09020322
142	0xbfa7485e	-1.306896
143	0xbfe502a6	-1.7891433
144	0x4060cb02	3.5123906
145	0xbf7235fa	-0.9461361
146	0xbfaa8b01	-1.3323671
147	0x3de33541	0.11094142
148	0xbfcab594	-1.5836663
149	0xbedc0797	-0.4297454
150	0xc03f090f	-2.984928
151	0xbeeef1ad	-0.4666876
152	0xc09892e2	-4.76793
153	0xbf833e65	-1.0253416
154	0xbe3198cc	-0.17343444
155	0xc01b45b3	-2.426129
156	0x3f46229c	0.7739656
157	0xc052e69f	-3.295326
158	0xc08987e7	-4.2978396
159	0xc0036538	-2.053053
160	0x404e21fc	3.2208242
161	0xc06e8f3f	-3.727493
162	0xc10874eb	-8.528544
163	0xc06f14ae	-3.7356372
164	0xc0b2ea27	-5.591083
165	0xc0b903f7	-5.781734
166	0xc06a780d	-3.6635773
167	0x3eae5879	0.34051874
168	0x3e9749d4	0.29548514
169	0xc052c671	-3.293362
170	0x3f6e689f	0.9312839
171	0xbffdc0ad	-1.9824425
172	0xc0ad43b3	-5.414514
173	0xc0ca1a61	-6.31572
174	0x3f4d93ad	0.8030346
175	0xc0878007	-4.2343783
176	0xbe98c427	-0.29837152
177	0x3f4163ca	0.7554289
178	0xc1482e99	-12.511376
179	0xc0dcb8b5	-6.8975472
180	0xbee6bf5a	-0.45067865
181	0xbf17cec8	-0.592999
182	0xbf23346f	-0.6375188
183	0xbf0d7d05	-0.5526889
184	0xbf236a71	-0.6383429
185	0xbf40f7d1	-0.7537814
186	0xbf1c2f7d	-0.6100996
187	0xbefcd40f	-0.49380538
188	0xbedcba1c	-0.4311074
189	0xbf2e05eb	-0.6797778
190	0xbf1ae6d1	-0.6050845
191	0xbf1ea470	-0.6196966
192	0xbf3bbcd7	-0.7333502
193	0xbed638f6	-0.41840333
194	0xbf370e06	-0.71505773
195	0xbdb3aae0	-0.08772826
196	0xbf342ff8	-0.70385695
197	0xbf02715d	-0.5095423
198	0xbf0f8461	-0.5606137
199	0xbf03d07d	-0.5149
200	0xbe060070	-0.13086104
201	0x3e200002	0.15625003
202	0xbf3eaf28	-0.7448602
203	0xbf142e41	-0.5788308
204	0xbf298d66	-0.6623138
205	0xbf1e9c01	-0.61956793
206	0xbf3bdff4	-0.733886
207	0xbed94f99	-0.4244354
208	0xbf01857e	-0.5059432
209	0xbf208187	-0.62697643
210	0xbf317a8f	-0.69327635
211	0xbf2d188c	-0.6761558
212	0xbed658cb	-0.4186462
213	0xbf13d03e	-0.5773963
214	0xbf19b623	-0.60043544
215	0xbf3ad2fc	-0.72978187
216	0xbf025fc0	-0.5092735
217	0xbf0f20f8	-0.5590968
218	0xbee68f00	-0.45030975
219	0xbf06d2fe	-0.526657
220	0xbf159a9b	-0.58439034
221	0xbf0e2856	-0.555303
222	0xbf0dcbf0	-0.5538931
223	0xbf28dfe4	-0.6596663
224	0xbf2622f1	-0.64897066
225	0xbefff80d	-0.49993935
226	0xbf0e81e7	-0.55666965
227	0xbf27c2e0	-0.6553173
228	0xbf2457fe	-0.64196765
229	0xbee5b24a	-0.44862586
230	0xbe2262bd	-0.15857978
231	0xbf36f0bf	-0.714611
232	0xbf09df9d	-0.5385683
233	0xbee491c8	-0.44642472
234	0xbf280204	-0.65628076
235	0xbed86bd2	-0.4226976
236	0xbeeb8614	-0.4600073
237	0xbf45eb23	-0.77311915
238	0xbee11c38	-0.43966842
239	0xbf27bf07	-0.6552586
240	0x3f5e60e9	0.86866623
241	0x3f91866f	1.1369151
242	0x3f95b372	1.1695387
243	0x3f9a8707	1.2072457
244	0x4017880f	2.3676794
245	0x3f550da8	0.8322396
246	0x3f9df2b5	1.2339693
247	0x3f2bf45f	0.67169756
248	0x402893a0	2.6340103
249	0x3f8b0f5c	1.0864062
250	0x408cbb5d	4.3978715
251	0x3f99ad72	1.2006056
252	0xbeb2f60e	-0.3495335
253	0x3f6488d9	0.8927131
254	0x3f3fba59	0.7489372
255	0x400aeb3a	2.170607

bias f4 [20]
0	0xc06ac261	-3.668114
1	0x40aa2b0b	5.3177543
2	0x3fa2ed26	1.2728622
3	0xbf1a8cc5	-0.6037105
4	0x40dac776	6.8368483
5	0x40be6e48	5.950962
6	0xbf1dd2c3	-0.6164972
7	0xbf14b47d	-0.58087903
8	0x40cc7071	6.3887258
9	0xbf328f42	-0.69749844
10	0x40cf0984	6.4699116
11	0x40b092a8	5.5179024
12	0x40d311dc	6.59593
13	0xbf2e4eb6	-0.68088853
14	0xbf96e657	-1.1789044
15	0x40d3598c	6.604681
16	0xbeebf216	-0.46083134
17	0x40a3de82	5.1209116
18	0x40c169e4	6.044176
19	0xbef9248e	-0.48660702

weight f4 [10, 20]
0	0xbef03493	-0.4691511
1	0x3f4740ee	0.7783345
2	0x40d7ac9f	6.739822
3	0x3ec7aab8	0.38997436
4	0x3f209615	0.62729007
5	0x3ee46b9a	0.44613343
6	0x3ee775b6	0.45206994
7	0x3f375a07	0.71621746
8	0x3fab0861	1.3361932
9	0x3ef57ae0	0.4794531
10	0x3fda11d9	1.7036697
11	0x3f41be5e	0.756811
12	0x3fc41364	1.5318418
13	0x3f3fa059	0.74854046
14	0xbf3314b0	-0.6995344
15	0x3fdbf77f	1.7184905
16	0x3f06b3d3	0.5261814
17	0x407ef6c9	3.9838126
18	0x3f8fc184	1.1230931
19	0x3ee9d132	0.45667416
20	0xbfca2034	-1.5791078
21	0xbf3db726	-0.7410759
22	0xbf3d94e4	-0.74055314
23	0xbf4293a0	-0.7600651
24	0xbf0b572f	-0.54429907
25	0xbee76b3e	-0.45199007
26	0xbf3cf84c	-0.7381637
27	0xbf053773	-0.52037734
28	0xbf358ff5	-0.70922786
29	0xbb814e40	-0.0039460957
30	0xbf23cca6	-0.63984144
31	0x3d824acc	0.063619226
32	0xbef3dad8	-0.47627902
33	0xbec9417b	-0.3930777
34	0xbfd72e09	-1.6810924
35	0xbecdfe17	-0.40232918
36	0xbf0c0d63	-0.54707927
37	0xbf498894	-0.78724027
38	0xbf146f81	-0.5798264
39	0xbecf5705	-0.40496078
40	0xbf32fd74	-0.6991799
41	0x3ec0f9be	0.37690538
42	0x40a61a79	5.1907315
43	0xbfe88a19	-1.8167144
44	0x3f153d33	0.5829651
45	0x3deb0695	0.11475865
46	0xbbd74f20	-0.0065707117
47	0xbe3aaa10	-0.18228936
48	0x3f2b0837	0.6680941
49	0x3eecdae0	0.46260738
50	0x3f8a70e5	1.0815703
51	0x3ea6c231	0.3257003
52	0x3f694103	0.91114825
53	0x3b956500	0.0045591593
54	0xbf3b9cc7	-0.732861
55	0x3f9fc941	1.2483293
56	0x3e4c5226	0.19953212
57	0x406c26c7	3.6898668
58	0x3f4b16f6	0.7933191
59	0xbdd259ff	-0.10271072
60	0xbf2119e4	-0.6293013
61	0x3ef6630e	0.48122448
62	0x40b99df8	5.8005333
63	0xbfe03b7b	-1.7518152
64	0x3ea00365	0.3125259
65	0x3f6a3297	0.91483444
66	0x3f40d084	0.7531817
67	0x3edeff78	0.43554282
68	0x3f59cc18	0.8507705
69	0x3ef1afdd	0.47204486
70	0x3f61dee8	0.8823075
71	0x3ee02889	0.43780926
72	0x3f9032c9	1.1265498
73	0xbe520b84	-0.20512205
74	0xbf0f66a4	-0.5601599
75	0x3f7b509a	0.98169863
76	0x3f42364e	0.7586411
77	0x409236d3	4.5691924
78	0x3f4bd2a0	0.79618263
79	0x3f2343dd	0.63775426
80	0xbfe5afbc	-1.7944255
81	0xc0222a81	-2.5338442
82	0x3f2c1300	0.6721649
83	0xbd707c7c	-0.058712468
84	0xbe51f6ce	-0.20504305
85	0x403855a6	2.8802276
86	0x3e4717f6	0.19442734
87	0x3e36d648	0.1785518
88	0xc04229af	-3.0337942
89	0xbde06ed8	-0.10958642
90	0xc07f7051	-3.9912302
91	0xc02c0b93	-2.6882064
92	0xc07d69c3	-3.9595802
93	0xbd8d1af0	-0.068899035
94	0xbe9f017b	-0.31055817
95	0xc080c381	-4.023865
96	0xbdb0b21e	-0.08627723
97	0xbee3c5fc	-0.44486988
98	0x3f78dd79	0.9721294
99	0xbdd2dc71	-0.10295952
100	0xbe2c7473	-0.16841297
101	0xbf2bd8fd	-0.6712797
102	0xbf3032e1	-0.68827635
103	0xbec21708	-0.37908196
104	0xbf24f9ec	-0.6444385
105	0xbf02485d	-0.5089167
106	0xbf008962	-0.5020963
107	0xbec34f99	-0.38146666
108	0xbef9fbac	-0.48824823
109	0xbe2f5b02	-0.1712456
110	0xbf058789	-0.52159935
111	0xbdf48edf	-0.11941313
112	0xbf2c09ea	-0.6720263
113	0xbedbeece	-0.4295563
114	0xbd107e78	-0.03527686
115	0xbf12aa77	-0.5729136
116	0xbf279c36	-0.65472734
117	0xbf0d4eb0	-0.5519819
118	0xbf47d12a	-0.78053534
119	0xbf406810	-0.75158787
120	0x3c41c160	0.011825889
121	0xbf2e9414	-0.681947
122	0xbeef47f4	-0.46734583
123	0xbed688fc	-0.41901386
124	0xbec8e919	-0.3924034
125	0xbf1818aa	-0.59412634
126	0xbf41640c	-0.75543284
127	0xbedd0060	-0.4316435
128	0xbf4ef811	-0.8084727
129	0x3e2b7dfe	0.16747281
130	0xbf321369	-0.6956087
131	0xbd5817f0	-0.052757204
132	0xbf2b6bb4	-0.66961217
133	0xbf191a46	-0.59805715
134	0xbe2447ee	-0.16043064
135	0xbf17edfb	-0.59347504
136	0xbf004062	-0.5009824
137	0xbe1665f6	-0.14687333
138	0xbe0bfd96	-0.13670954
139	0xbee2c7c9	-0.4429305
140	0xbd1e9434	-0.038715556
141	0xbd212940	-0.03934598
142	0x3e1eaee4	0.15496403
143	0xbc90a5b0	-0.017657131
144	0xbde23e85	-0.11047081
145	0xbd185c74	-0.037197545
146	0x3ddadff8	0.1068725
147	0x3dc465c8	0.09589726
148	0x3e2de8b0	0.16983294
149	0x3d438e10	0.047742903
150	0x3ccc4ad8	0.024938032
151	0x3e51e2be	0.20496652
152	0xbe01c26e	-0.12671825
153	0x3d755300	0.059893608
154	0xbb894900	-0.0041896105
155	0xbe5e4f74	-0.21709996
156	0x3dba3214	0.09091583
157	0xbe365f90	-0.17809892
158	0xbe3d0094	-0.18457252
159	0xbdec1785	-0.115279235
160	0xbf016f18	-0.5056014
161	0xbee191ca	-0.4405654
162	0xbe4683a0	-0.19386148
163	0x3dfb6568	0.12275201
164	0xbeff9b9f	-0.49923417
165	0xbe5aa333	-0.21351318
166	0x3ddcc7e8	0.107803166
167	0x3d809364	0.062781125
168	0xbf180fb3	-0.59398955
169	0xbee5d508	-0.44889092
170	0xbf39dab1	-0.7259932
171	0xbf1c36d8	-0.61021185
172	0xbec5a8f0	-0.38605452
173	0xbd3aa88c	-0.045570895
174	0xbedb8737	-0.42876598
175	0xbeca80f5	-0.3955151
176	0xbdea8b75	-0.114523806
177	0xbe476bfa	-0.19474784
178	0xbec8c250	-0.3921075
179	0xbda09fc0	-0.0784297
180	0xbfd35197	-1.6509274
181	0xbff2c61a	-1.8966706
182	0xbd3dae98	-0.046309084
183	0x3d3c18d8	0.04592213
184	0xbe1778fa	-0.14792243
185	0xbc4925e0	-0.0122770965
186	0x3cca78f0	0.02471587
187	0x3d7bcd48	0.06147507
188	0xbff2c04c	-1.8964934
189	0xbe081cfe	-0.1329231
190	0xbfd6c44f	-1.6778659
191	0xbfc01e67	-1.5009278
192	0xc019f487	-2.4055498
193	0x3db4da4c	0.08830699
194	0xbfb6c98a	-1.4280255
195	0xc0427a55	-3.0387166
196	0xbde85699	-0.11344642
197	0xbe5c4a16	-0.21512637
198	0xbff66d81	-1.9252168
199	0xbe4d072b	-0.20022266

bias f4 [10]
0	0x4103bdf7	8.233878
1	0xbf25e7b8	-0.648067
2	0x40f08603	7.516359
3	0x40f837d8	7.756817
4	0x3e5826b4	0.21108514
5	0xbf0a640d	-0.54058915
6	0xbf2b026e	-0.6680058
7	0xbe1987a4	-0.14993149
8	0xbf44cf87	-0.7687916
9	0xc0531805	-3.298341

weight f4 [1, 10]
0	0x3fba0029	1.4531299
1	0x3eec5bf5	0.46163908
2	0x3f6c5438	0.9231601
3	0x3f6594f9	0.8968044
4	0x400bc3ac	2.1838179
5	0x3edbf6f2	0.42961842
6	0x3ed3fdbc	0.4140452
7	0x3a912900	0.0011074841
8	0x3ea7a650	0.32744074
9	0x3eea20cf	0.45728156
