mwo/models/trained_vfa_models/model_hypothetical_adp_best.pth (torch_old, 23388 bytes, 9 tensors)

weight f4 [40, 25]
0.8427418 0.09251702 0.42778373 -0.27665097 0.4358949 -0.4468679 -0.09797917 0.13262436
0.3860209 -0.20208219 0.3447462 -0.23952235 0.27469215 -0.80914307 0.57379204 -0.056254555
-0.30052543 0.043246105 0.036378358 0.39798075 0.39590493 -0.17531893 0.30285966 0.17105386
-0.20127301 0.6904464 0.2125505 0.32242987 -0.42296672 0.4773604 -0.54960203 -0.11606688
-0.020572377 0.10194915 0.033238832 -0.12549582 -0.39715105 0.14963494 -0.39259973 0.10756455
0.29561195 -0.06043066 0.49257436 0.28999624 0.57202375 0.046723004 0.17649439 -0.13035522
1.0717794 -0.6706328 -0.7113916 -0.815435 0.44558147 -0.67925155 0.47853962 0.59721565
-0.11147534 0.4020801 0.27786645 0.52051866 0.4216013 0.24151452 -0.7327079 0.5999498
-0.5319789 0.063855775 0.15575331 -0.21699022 -0.16906342 -0.24150296 -0.56372255 -0.07647781
-0.56036776 -0.22554055 -1.7075208 0.6806885 0.2863431 0.5855851 -0.03704378 0.38960648
0.2833372 0.24197863 -0.026262866 0.5121958 -0.31148434 0.18524398 -0.06219218 0.60853386
-1.027638 0.43415838 -0.32353672 -0.14794122 0.0010397529 -0.015239457 0.19689251 0.22030571
-0.4451572 0.2527721 0.49435633 -0.016092159 0.50861984 0.26721978 0.38379297 -0.13960704
0.35148382 -0.16319573 -0.12839417 0.22714166 0.21206272 -0.27464363 0.33755758 0.12664667
0.50016695 -0.6411483 0.5811522 -0.58532184 -0.17808533 0.10236268 -0.01673714 0.8548028
0.39724416 -0.4826215 0.2550949 0.2802745 -0.5990145 0.6231129 0.42413044 0.56149226
0.16129105 0.5084298 0.24670306 0.012487609 -0.2703511 0.39676383 -0.39049736 0.34307122
-0.102713086 0.354534 -0.788211 0.29696104 -0.07118527 0.055919047 -0.35481292 0.03809379
0.07224269 0.25065377 -0.23468344 0.11692254 0.52135754 0.025992444 0.4073414 0.19671218
0.3071026 -0.47935656 0.7380344 0.006580987 0.15501592 -0.1571909 0.21490413 -0.11992002
0.345119 -0.42284846 0.23750737 -0.84871745 0.579652 0.12657939 0.14458138 -0.056123655
0.11262295 0.8360622 0.35987252 0.99620974 0.10179709 -0.019721253 -1.0709724 0.9643347
0.36554432 0.36912397 0.13809161 0.5010398 0.09853165 0.2553126 0.22074148 0.21598352
-0.26359174 0.15338267 -0.2502887 0.6467465 -0.9330606 0.5075544 -0.6075654 -0.26709154
-0.28159845 0.049322937 0.4447647 0.34144136 -0.18033977 0.4581254 -0.011120278 0.08049103
-1.256937 -1.3033372 0.1262437 -1.1395483 0.6101412 -0.044266567 -0.4284358 -0.09438831
0.1688667 -0.31819692 0.11853979 0.07703788 -0.8632701 -0.4305023 -0.4805882 -0.19050094
-0.36387798 0.081451744 -0.39252135 -0.5100325 -0.33039242 -0.12351294 -0.5552266 -0.7699581
-2.5062835 -1.1124687 -0.9326414 0.41539097 -0.53415203 0.8235138 0.30102673 -0.2273124
0.008762212 0.15363549 0.13254933 0.3195752 0.03996199 -0.50037503 -0.36141688 -0.55595905
0.11417482 -0.01246712 0.0031814533 -0.26491144 -0.2565204 -0.44967562 -0.23198633 -0.73073155
-0.5599377 -2.093857 0.6551005 -0.10423718 0.35767004 -0.47871745 0.66809237 0.026358746
00000000: edbd 573f 9079 bd3d 7806 db3e 32a5 8dbe
00000010: 9e2d df3e dfcb e4be 4ea9 c8bd aece 073e
00000020: 88a4 c53e a2ee 4ebe 9382 b03e 5945 75be
00000030: 73a4 8c3e 0024 4fbf 09e4 123f 2d6b 66bd
00000040: 78de 99be d422 313d 7901 153d 22c4 cb3e
00000050: 0db4 ca3e ce86 33be 6c10 9b3e be28 2f3e
00000060: 831a 4ebe 18c1 303f d7a6 593e 8715 a53e
00000070: 188f d8be 9568 f43e b8b2 0cbf 79b4 edbd
00000080: 6787 a8bc b7ca d03d 7125 083d fa81 00be
00000090: 6257 cbbe e739 193e d502 c9be ce4a dc3d
000000a0: 735a 973e 2486 77bd b532 fc3e 637a 943e
000000b0: 2670 123f 9f60 3f3d f2ba 343e d77b 05be
000000c0: 1130 893f 97ae 2bbf c31d 36bf 59c0 50bf
000000d0: 4123 e43e 6ee3 2dbf 2503 f53e 20e3 183f
000000e0: 2f4d e4bd 71dd cd3e 8344 8e3e b640 053f
000000f0: 20dc d73e 954f 773e bf92 3bbf 4f96 193f
00000100: c52f 08bf d1c6 823d cc7d 1f3e af32 5ebe
00000110: f61e 2dbe 8d4c 77be 1f50 10bf 66a0 9cbd
00000120: 4374 0fbf 1af4 66be 0b90 dabf 9a41 2e3f
00000130: 909b 923e e8e8 153f 38bb 17bd 807a c73e
00000140: 9311 913e 3fc9 773e 3925 d7bc 441f 033f
00000150: e07a 9fbe 99b0 3d3e 3abd 7ebd e0c8 1b3f
00000160: a489 83bf 024a de3e 9ba6 a5be e77d 17be
00000170: 5148 883a eaae 79bc 319e 493e d297 613e
00000180: a5eb e3be 586b 813e 461c fd3e b4d3 83bc
00000190: e934 023f 08d1 883e 8380 c43e 26f5 0ebe
000001a0: b0f5 b33e c81c 27be c379 03be d397 683e
000001b0: f826 593e 179e 8cbe 59d4 ac3e aaaf 013e
000001c0: f10a 003f 4c22 24bf 64c6 143f a7d7 15bf
000001d0: 005c 36be 86a3 d13d 541c 89bc 5bd4 5a3f
000001e0: 9663 cb3e 2a1a f7be cc9b 823e 2480 8f3e
000001f0: 0459 19bf 5484 1f3f a027 d93e f5bd 0f3f
00000200: 7b29 253e 7528 023f ba9f 7c3e d498 4c3c
00000210: 766b 8abe a124 cb3e 45ef c7be 08a7 af3e
00000220: 3d5b d2bd 7b85 b53e 32c8 49bf 470b 983e
00000230: 95c9 91bd 5f0b 653d 0aaa b5be 3c08 1c3d
00000240: faf3 933d b155 803e db50 70be 1675 ef3d
00000250: b077 053f 1bee d43c 0d8f d03e eb6e 493e
00000260: 8d3c 9d3e 396e f5be d3ef 3c3f 52a5 d73b
00000270: 7ebc 1e3e a7f6 20be d40f 5c3e a198 f5bd
00000280: 70b3 b03e 987f d8be 2235 733e 8c45 59bf
00000290: 1364 143f 079e 013e 240d 143e ebe1 65bd
000002a0: dca6 e63d 2c08 563f 3641 b83e 9a07 7f3f
000002b0: fe7a d03d 778e a1bc a015 89bf a4de 763f
000002c0: a028 bb3e d1fd bc3e e367 0d3e 2544 003f
000002d0: f6ca c93d 55b8 823e 0e0a 623e c92a 5d3e
000002e0: 7ff5 86be 5910 1d3e d725 80be 2e91 253f
000002f0: 0fdd 6ebf 16ef 013f 6889 1bbf 39c0 88be
00000300: ac2d 90be d906 4a3d 33b8 e33e 67d1 ae3e
00000310: fdaa 38be 6a8f ea3e d431 36bc 7bd8 a43d
00000320: 50e3 a0bf c1d3 a6bf 0746 013e b8dc 91bf
00000330: 3732 1c3f dc50 35bd f05b dbbe a94e c1bd
00000340: 64eb 2c3e b5ea a2be fdc4 f23d 09c6 9d3d
00000350: 45ff 5cbf cc6a dcbe a80f f6be ae12 43be
00000360: 374e babe 2cd0 a63d 8ff8 c8be 7d91 02bf
00000370: 3229 a9be 5af4 fcbd 5523 0ebf f91b 45bf
00000380: f366 20c0 6065 8ebf 96c1 6ebf 20ae d43e
00000390: 30be 08bf cdd1 523f 2d20 9a3e 95c4 68be
000003a0: 618f 0f3c 9f52 1d3e 03bb 073e 5c9f a33e
000003b0: 2faf 233d 9418 00bf a20b b9be 5553 0ebf
000003c0: 7dd4 e93d e442 4cbc ee7f 503b 79a2 87be
000003d0: a456 83be e23b e6be d38d 6dbe 3911 3bbf
000003e0: 1458 0fbf c101 06c0 abb4 273f 4d7a d5bd
000003f0: 8720 b73e 741a f5be 1a08 2b3f 4cee d73c

bias f4 [40]
1.5567313 1.2326403 2.5250099 1.275641 1.7492694 0.9834066 2.1295474 1.0333788
2.2392144 2.5996497 1.8950659 2.2694986 1.1182406 1.4772593 1.6813141 2.6701772
1.6361942 1.8917007 1.6921184 2.6725018 1.0983181 2.4610603 2.1341174 2.523475
2.1214392 2.4110816 1.3932059 2.5791116 1.8571954 2.6437051 2.0779996 1.2775943
2.494714 2.6162403 1.5497215 2.2964022 2.0688694 2.6316905 1.7891415 1.9223342
00000000: f942 c73f 28c7 9d3f c399 2140 3448 a33f
00000010: 0fe8 df3f 89c0 7b3f 814a 0840 c245 843f
00000020: 4a4f 0f40 a960 2640 8591 f23f 773f 1140
00000030: 8222 8f3f d516 bd3f 4d35 d73f 2fe4 2a40
00000040: d06e d13f 4023 f23f 5697 d83f 450a 2b40
00000050: b095 8c3f 0382 1d40 6195 0840 9d80 2140
00000060: a9c5 0740 294f 1a40 9254 b23f 2a10 2540
00000070: 94b8 ed3f 7732 2940 f2fd 0440 3688 a33f
00000080: 65a9 1f40 7b70 2740 465d c63f 41f8 1240
00000090: 5b68 0440 9e6d 2840 9702 e53f 0c0f f63f

weight f4 [30, 40]
0.21052435 0.14068286 1.2708776 0.21061382 0.2226019 0.25830895 0.5980973 0.28928468
1.1181755 1.134641 0.33387402 0.84445006 0.31824386 0.40821412 0.5205275 1.1408205
0.21970196 0.7576418 0.30280393 1.19238 0.17735444 1.0838959 0.37667444 1.3247072
0.5597668 1.3000836 0.19489832 1.399978 0.24043512 1.4188173 0.60946506 0.22076483
0.7357414 1.0201552 0.20147365 0.59638387 0.3571122 1.3215934 0.46980998 0.26656798
0.3458425 0.1747 1.2075759 0.4163453 0.40824875 0.12383621 0.6458542 0.3058994
1.191342 1.0997702 0.30576366 0.8729338 0.17318581 0.34527972 0.358892 0.96464247
0.2996198 0.7074402 0.34127015 1.011399 0.26828 1.0276166 0.62946355 1.1033709
0.41624537 1.4091718 0.20952469 1.2993307 0.24155052 1.358837 0.4155972 0.24355382
0.7759044 0.8906769 0.31244132 0.6121076 0.4664137 1.2205374 0.42017314 0.38094068
0.4722541 0.22980909 1.2098548 0.45588246 0.5313864 0.30782884 0.7835236 0.39855528
1.0761917 1.3619707 0.5350099 1.0040187 0.30344605 0.50282013 0.47049737 1.299474
0.46518436 0.9249829 0.58501947 1.0315429 0.2561188 1.0366704 0.71397585 1.3416331
0.6473749 1.2693723 0.3688546 1.265744 0.29320902 1.4773337 0.6429372 0.4171068
0.798506 1.1980474 0.5094918 0.7253215 0.50948477 1.2229551 0.5358778 0.45868096
0.50816464 0.21615687 1.1611136 0.29237077 0.5599484 0.33879364 0.66323143 0.5301468
1.3425947 1.3327591 0.524 0.96705973 0.41207093 0.47223258 0.48424506 1.1101636
0.2927513 0.9262977 0.60560536 1.310861 0.48868245 1.1378819 0.66728824 1.2249174
0.4752803 1.361804 0.3872804 1.1861066 0.29202744 1.4376482 0.4906526 0.35412762
0.8134448 1.1726278 0.3904643 0.74408084 0.46551973 1.1277009 0.5375912 0.5648728
0.52425295 0.2136057 1.2354128 0.4752711 0.46377525 0.17069797 0.53617 0.506376
1.2118618 1.1343827 0.5744852 0.93995893 0.49862012 0.34187603 0.5062083 1.0674542
0.29906157 0.8967723 0.6647529 1.0786179 0.32145894 1.0465653 0.6092942 1.4258691
0.61874014 1.3205061 0.2656495 1.1836092 0.5095924 1.5301769 0.57882494 0.13597603
0.735452 1.2122762 0.34798157 0.77267915 0.42193136 1.3344191 0.41268593 0.36780164
0.49137235 0.38424358 1.0353073 0.39656985 0.44747928 0.38497722 0.64141446 0.44874418
1.3138357 1.2295668 0.47686625 1.0444412 0.49898243 0.31723887 0.53360903 1.1950557
0.4599318 0.736784 0.57903194 1.2674706 0.30187583 1.0780277 0.5474478 1.3685014
0.6349685 1.3264916 0.36833122 1.1832919 0.40855557 1.3640466 0.44733924 0.3600069
0.69069386 1.0681703 0.47410494 0.83572054 0.4454418 1.0717118 0.4592147 0.5228739
0.5111816 0.46752027 1.1549298 0.38079575 0.5042112 0.3441578 0.77150947 0.33964017
1.2807404 1.1866635 0.6186338 1.0589367 0.30510506 0.52255636 0.45665005 1.2975094
00000000: b293 573e 2b0f 103e 1eac a23f 26ab 573e
00000010: c1f1 633e 1241 843e e81c 193f 1f1d 943e
00000020: 6020 8f3f eb3b 913f 89f1 aa3e e12d 583f
00000030: dcf0 a23e 7101 d13e 4a41 053f 6806 923f
00000040: 8df9 603e d0f4 413f 1e09 9b3e e89f 983f
00000050: 679c 353e 1abd 8a3f 79db c03e 0190 a93f
00000060: e14c 0f3f 2469 a63f 6d93 473e 7b32 b33f
00000070: a034 763e ce9b b53f e705 1c3f 2d10 623e
00000080: 8c59 3c3f 7294 823f 1c4f 4e3e 9dac 183f
00000090: 69d7 b63e f929 a93f ef8a f03e 997b 883e
000000a0: 4512 b13e 8fe4 323e d991 9a3f 362b d53e
000000b0: fb05 d13e d79d fd3d b356 253f d99e 9c3e
000000c0: e57d 983f 45c5 8c3f 0e8d 9c3e 9778 5f3f
000000d0: 9f57 313e 81c8 b03e b1c0 b73e cff2 763f
000000e0: c467 993e cd1a 353f f6ba ae3e 8675 813f
000000f0: ff5b 893e f188 833f 8624 213f 423b 8d3f
00000100: 1d1e d53e be5f b43f a48d 563e 7850 a63f
00000110: 0559 773e 5fee ad3f 28c9 d43e 2c66 793e
00000120: aca1 463f 6703 643f 4ff8 9f3e 15b3 1c3f
00000130: c7cd ee3e 923a 9c3f ef20 d73e a80a c33e
00000140: 4acb f13e 1353 6b3e 86dc 9a3f 6d69 e93e
00000150: f008 083f be9b 9d3e 0195 483f 700f cc3e
00000160: a6c0 893f 0e55 ae3f 69f6 083f af83 803f
00000170: 485d 9b3e d2b8 003f 08e5 f03e 2a55 a63f
00000180: a52c ee3e aecb 6c3f d6c3 153f 9909 843f
00000190: 0122 833e 9eb1 843f 1fc7 363f a2ba ab3f
000001a0: 5dba 253f cb7a a23f 83da bc3e e603 a23f
000001b0: 7e1f 963e 4519 bd3f 8897 243f 068f d53e
000001c0: e46a 4c3f 9e59 993f 0e6e 023f abae 393f
000001d0: 986d 023f cb89 9c3f 4a2f 093f 3bd8 ea3e
000001e0: 1417 023f 3a58 5d3e 5f9f 943f 9fb1 953e
000001f0: c758 0f3f 5c76 ad3e 89c9 293f b3b7 073f
00000200: 25da ab3f da97 aa3f dd24 063f 3a91 773f
00000210: f6fa d23e 78c8 f13e f8ee f73e d719 8e3f
00000220: 80e3 953e d921 6d3f f408 1b3f 4bca a73f
00000230: 9634 fa3e 1da6 913f 67d3 2a3f 18ca 9c3f
00000240: f157 f33e 984f ae3f 9e49 c63e 57d2 973f
00000250: 9f84 953e db04 b83f d136 fb3e 3750 b53e
00000260: eb3d 503f ab18 963f f0ea c73e 157c 3e3f
00000270: 9a58 ee3e 8158 903f 949f 093f 819b 103f
00000280: 7135 063f 74bb 5a3e 0222 9e3f bc56 f33e
00000290: f373 ed3e 73cb 2e3e 7042 093f dca1 013f
000002a0: 4a1e 9b3f 7433 913f 7611 133f 26a1 703f
000002b0: 234b ff3e 600a af3e de96 013f 57a2 883f
000002c0: 991e 993e df92 653f 3f2d 2a3f 2710 8a3f
000002d0: 4496 a43e daf5 853f b4fa 1b3f e182 b63f
000002e0: c165 1e3f 5806 a93f 3603 883e 8280 973f
000002f0: a674 023f d6dc c33f df2d 143f 4d3d 0b3e
00000300: 9546 3c3f de2b 9b3f a42a b23e 4dce 453f
00000310: 6307 d83e 3fce aa3f 924b d33e 7f50 bc3e
00000320: 2895 fb3e 93bb c43e f384 843f 340b cb3e
00000330: 011c e53e bc1b c53e bd33 243f ccc1 e53e
00000340: c52b a83f 7262 9d3f d027 f43e 40b0 853f
00000350: a07a ff3e 226d a23e 9a9a 083f 96f7 983f
00000360: 2e7c eb3e e09d 3c3f 703b 143f 7a3c a23f
00000370: 788f 9a3e d0fc 893f 8a25 0c3f 0e2b af3f
00000380: 4c8d 223f 7aca a93f e995 bc3e 1c76 973f
00000390: 322e d13e 1499 ae3f a609 e53e d352 b83e
000003a0: 50d1 303f ceb9 883f e2bd f23e c8f1 553f
000003b0: f310 e43e da2d 893f 301e eb3e 10db 053f
000003c0: ccdc 023f d15e ef3e bdd4 933f a9f7 c23e
000003d0: fc13 013f 7335 b03e a581 453f 51e5 ad3e
000003e0: 4def a33f 97e4 973f c95e 1e3f 3d8b 873f
000003f0: bb36 9c3e 41c6 053f 09ce e93e ca14 a63f

bias f4 [30]
2.2756963 2.2337348 2.0760899 2.0403147 2.3146868 2.0921245 2.3244836 2.1242735
2.2182643 2.140023 2.0933418 2.2450407 2.147781 2.1932127 2.0479553 2.1803799
2.141275 2.1945655 2.043557 2.3316345 2.1458924 2.054861 2.1634245 2.08657
2.047451 2.2119372 2.1681056 0.48543608 2.1806738 2.0359178
00000000: 02a5 1140 83f5 0e40 a8de 0440 8494 0240
00000010: d423 1440 5ee5 0540 57c4 1440 19f4 0740
00000020: 0bf8 0d40 23f6 0840 50f9 0540 bfae 0f40
00000030: 3e75 0940 995d 0c40 b311 0340 588b 0b40
00000040: a60a 0940 c373 0c40 a3c9 0240 8039 1540
00000050: 4d56 0940 d882 0340 8c75 0a40 5d8a 0540
00000060: 7009 0340 6190 0d40 3ec2 0a40 148b f83e
00000070: 2990 0b40 7a4c 0240

weight f4 [20, 30]
-0.03552686 0.13096061 -0.18918689 -0.18364136 -0.09453229 0.08691948 0.029795857 0.096702136
-0.15014832 0.10747042 0.1601251 -0.006241955 -0.025915274 0.12260983 -0.12412059 -0.054664772
0.120219186 -0.10466155 -0.13589981 -0.09225915 -0.04294174 -0.021363178 0.13140775 0.031377353
-0.16599244 -0.100173354 -0.056094173 -0.08448091 0.0029271713 -0.11694965 0.57057744 0.5231381
0.6684292 0.8760452 0.773318 0.6173913 0.9016339 0.6652898 0.803623 0.68024486
0.88391745 0.8674848 0.84306186 0.9158558 0.6306555 0.86660224 0.641354 0.8028066
0.78488785 0.8196723 0.7671514 0.75167525 0.6223712 0.8201156 0.53818274 0.91307163
0.8539799 -2.2355878 0.7092832 0.9051339 0.76342493 0.8570719 0.74300915 0.84793025
0.54134685 0.7883794 0.6323517 0.58985144 0.5987069 0.68393725 0.6787397 0.7647611
0.80864733 0.5718395 0.617029 0.78187305 0.5961882 0.7119294 0.54227096 0.7541519
0.7076798 0.86284226 0.7259687 0.7623358 0.7507208 0.63456595 0.69067127 -2.3291626
0.86332154 0.89508325 0.12353283 -0.16472985 -0.16007574 0.12468959 0.11243179 -0.13426256
-0.12786 -0.039875705 -0.14742008 0.05420013 0.10565825 0.029470788 -0.20532155 -0.16494553
0.08900811 -0.19038564 0.12288815 -0.043246675 0.088554695 0.04276723 0.022997025 -0.1367081
0.026513973 0.013080492 -0.038764015 -0.12272801 0.035163347 -0.02895849 0.14843623 0.13484816
0.8239882 0.6380619 0.7817994 0.7682347 0.8118215 0.65955275 0.7742832 0.6186068
0.6662655 0.86455727 0.89960223 0.63031197 0.62447935 0.64028424 0.8675481 0.60453975
0.79233795 0.7343436 0.8539848 0.68921673 0.8611641 0.70178866 0.82504785 0.85431755
0.8577946 0.69465953 0.6510067 -2.0408378 0.87194586 0.74546516 0.6337004 0.6438968
0.74009734 0.6425106 0.7609354 0.8554716 0.890098 0.6418298 0.7571535 0.86021125
0.67467123 0.86060077 0.7870166 0.60423946 0.85509753 0.63452435 0.89011335 0.7131711
0.74317163 0.87435335 0.7984896 0.8763148 0.5662843 0.5513864 0.6520102 0.88243306
0.8083306 -2.2600608 0.6823567 0.81864685 0.059057362 0.15575168 0.120390765 -0.10006826
-0.19742857 -0.06349482 -0.145803 0.10898883 -0.13115335 0.04041305 0.10871082 -0.09533874
-0.025030902 -0.028228013 -0.06261549 -0.031563148 0.065484464 0.1386074 -0.115936205 -0.18603262
0.069302544 0.122109875 0.0052468753 0.07727616 -0.0504926 -0.019604325 0.11167726 -0.1908404
0.118968874 -0.07467189 0.8940836 0.6316286 0.55841607 0.73854357 0.81117785 0.85138214
0.5966376 0.52750486 0.7293665 0.80285865 0.79995275 0.7243382 0.6604737 0.7662509
0.5773063 0.61942035 0.8832081 0.74923384 0.57044864 0.7634861 0.675526 0.7592524
0.5886488 0.70968485 0.82888854 0.8141692 0.8714134 -2.2423077 0.6833423 0.87320167
0.8427078 0.68860316 0.87151104 0.9017667 0.7773229 0.5809451 0.6249847 0.86537856
0.74785835 0.8652546 0.71213335 0.7036234 0.587167 0.7645545 0.7474471 0.57898635
00000000: 9d84 11bd 8a1a 063e 35ba 41be 7b0c 3cbe
00000010: 259a c1bd d702 b23d 7116 f43c c50b c63d
00000020: 7bc0 19be 7419 dc3d d6f7 233e 5089 ccbb
00000030: 454c d4bc dd1a fb3d f032 febd 2be8 5fbd
00000040: 7a35 f63d cb58 d6bd 5229 0bbe 5ef2 bcbd
00000050: aee3 2fbd d501 afbc c18f 063e 8a85 003d
00000060: ecf9 29be b027 cdbd 01c3 65bd 5404 adbd
00000070: c9d5 3f3b 4c83 efbd 5d11 123f 61ec 053f
00000080: 2d1e 2b3f 8044 603f 2bf8 453f 5b0d 1e3f
00000090: 7bd1 663f 6f50 2a3f 3dba 4d3f 8724 2e3f
000000a0: 6a48 623f 7c13 5e3f e7d2 573f 8775 6a3f
000000b0: a472 213f a5d9 5d3f c72f 243f bc84 4d3f
000000c0: 69ee 483f 0bd6 513f 0964 443f ca6d 403f
000000d0: b853 1f3f 19f3 513f 58c6 093f 10bf 693f
000000e0: 6d9e 5a3f df13 0fc0 9593 353f dbb6 673f
000000f0: d16f 433f 1069 5b3f d935 3e3f f511 593f
00000100: b595 0a3f 3bd3 493f cde1 213f 8100 173f
00000110: db44 193f 8316 2f3f e3c1 2d3f 62c7 433f
00000120: 8303 4f3f 1364 123f 9df5 1d3f d528 483f
00000130: ca9f 183f 0141 363f 45d2 0a3f 1910 413f
00000140: 812a 353f 3be3 5c3f 16d9 393f 7028 433f
00000150: 3d2f 403f ea72 223f d5cf 303f 0011 15c0
00000160: a402 5d3f 2d24 653f c8fe fc3d f1ae 28be
00000170: e5ea 23be 415d ff3d a342 e63d 207c 09be
00000180: bbed 02be b554 23bd 4af5 16be f500 5e3d
00000190: 5a63 d83d b96c f13c d03f 52be 7be7 28be
000001a0: e249 b63d 74f4 42be c8ac fb3d 6d23 31bd
000001b0: 2a5c b53d b12c 2f3d 4264 bc3c 35fd 0bbe
000001c0: d533 d93c 8f4f 563c 04c7 1ebd d358 fbbd
000001d0: 7107 103d 5b3a edbc abff 173e a315 0a3e
000001e0: e4f0 523f 0658 233f 0124 483f 08ab 443f
000001f0: 89d3 4f3f 73d8 283f 6c37 463f 045d 1e3f
00000200: 6090 2a3f a053 5d3f 554c 663f 205c 213f
00000210: e1dd 1f3f abe9 233f a217 5e3f 1ec3 1a3f
00000220: a9d6 4a3f f1fd 3b3f bf9e 5a3f 8270 303f
00000230: 4075 5c3f 6ca8 333f 5636 533f 8eb4 5a3f
00000240: 6d98 5b3f 35d5 313f 60a8 263f 169d 02c0
00000250: d837 5f3f ced6 3e3f 303a 223f 6cd6 243f
00000260: 0577 3d3f 937b 243f aacc 423f 3000 5b3f
00000270: 76dd 633f f54e 243f d0d4 413f ce36 5c3f
00000280: 41b7 2c3f 5550 5c3f eb79 493f 70af 1a3f
00000290: ace7 5a3f 3070 223f 78de 633f 6292 363f
000002a0: 7f40 3e3f 9fd5 5f3f d069 4c3f 2b56 603f
000002b0: 02f8 103f a927 0d3f 24ea 263f 22e7 613f
000002c0: c1ee 4e3f d6a4 10c0 eeae 2e3f d792 513f
000002d0: 22e6 713d 5e7d 1f3e 6f8f f63d 97f0 ccbd
000002e0: b72a 4abe 9209 82bd 624d 15be 8935 df3d
000002f0: 104d 06be 2888 253d c7a3 de3d f540 c3bd
00000300: 9b0d cdbc 6f3e e7bc 8d3c 80bd 5c48 01bd
00000310: b81c 863d 19ef 0d3e f66f edbd 567f 3ebe
00000320: 7eee 8d3d be14 fa3d fbed ab3b f742 9e3d
00000330: 54d1 4ebd 4099 a0bc 0cb7 e43d aa6b 43be
00000340: f4a5 f33d 93ed 98bd aae2 643f 69b2 213f
00000350: 5bf4 0e3f 3111 3d3f 5aa9 4f3f 2ef4 593f
00000360: 3ebd 183f 8f0a 073f c3b7 3a3f 2588 4d3f
00000370: b4c9 4c3f 3a6e 393f ce14 293f 0529 443f
00000380: 58ca 133f 5592 1e3f ed19 623f cacd 3f3f
00000390: ec08 123f d373 433f 46ef 2c3f 5e5e 423f
000003a0: b0b1 163f e8ad 353f 0a32 543f 656d 503f
000003b0: f314 5f3f f881 0fc0 85ef 2e3f 258a 5f3f
000003c0: b3bb 573f 4c48 303f 591b 5f3f 2fda 663f
000003d0: a2fe 463f d1b8 143f fffe 1f3f 7389 5d3f
000003e0: a573 3f3f 5381 5d3f 5f4e 363f aa20 343f
000003f0: 9450 163f d8b9 433f b158 3f3f 7338 143f

bias f4 [20]
-0.0056815073 2.011593 1.8391529 -0.13351303 1.9237441 1.959954 -0.004821942 2.1190002
2.165844 -0.009750901 -0.1994626 0.047742993 -0.13406432 2.0719368 -0.14623143 2.1085112
-0.110643715 -0.17402518 -0.06780857 2.1617997
00000000: f02b babb f1bd 0040 5d69 eb3f a4b7 08be
00000010: 3f3d f63f c6df fa3f 6201 9ebb b39d 0740
00000020: 309d 0a40 3ec2 1fbc ec3f 4cbe 288e 433d
00000030: 2848 09be 9d9a 0440 b1bd 15be d9f1 0640
00000040: 2c99 e2bd a833 32be 38df 8abd ed5a 0a40

weight f4 [10, 20]
-0.016533762 0.10304858 0.052803963 -0.10797281 -0.16922826 -0.104092576 0.16229409 -0.1836653
0.08731246 -0.18891829 -0.13490891 -0.03840723 -0.092508994 0.032725647 -0.16070592 0.045335393
-0.037835754 0.20709902 0.10330217 -0.14858015 -0.03726016 0.5950991 0.7051089 0.0109074125
0.6201959 0.8517383 0.038707852 0.5928684 0.7093803 -0.057860136 0.024918824 -0.17130022
-0.17621484 0.58093154 0.025315776 0.91176856 0.25925913 -0.14128041 -0.0942042 0.902426
0.21762213 0.1035405 -0.0628242 0.1703951 -0.044667523 -0.07903999 -0.08098381 -0.19152503
-0.22510764 0.008131012 -0.015318006 0.20138624 -0.0021789875 0.09524302 0.08407256 0.15839738
-0.23067065 -0.05385764 0.05545528 0.054868057 -0.030193962 0.85441303 0.7260358 -0.009549276
0.6520833 0.78949416 -0.089539945 0.67466587 0.5995388 0.09187511 0.15886816 -0.13785835
-0.20131591 0.86913043 -0.02706547 0.48200542 -0.0583117 -0.05906193 -0.19570874 0.53530014
0.067340426 -0.17431562 -0.06503026 -0.18960764 -0.11927419 -0.1761471 0.03879641 0.067610286
-0.07818764 0.1359102 -0.20809966 -0.0043760976 -0.08712326 0.014375 -0.08200973 -0.100088626
0.10339725 0.054331243 -0.17914143 -0.09685783 0.13511045 0.83601534 0.5800802 0.23933548
0.52126056 0.73794067 -0.06349507 0.7486449 0.6368049 0.1315585 -0.2100665 0.16753967
-0.08053736 0.6391015 -0.057825655 0.8984697 -0.013770242 0.17352891 0.0552149 0.8347817
-0.01861386 0.7628151 0.52950764 0.024067491 0.9010091 0.5065642 -0.100620694 0.77196777
0.53971255 0.11070213 -0.21559124 -0.18348421 0.09287402 0.6451667 0.009383395 0.76246744
-0.14660068 0.22341663 0.121447176 0.7864484 0.043332003 0.7625389 0.83878094 0.14822106
0.9323737 0.6786129 0.030049834 0.50305337 0.72490984 -0.07486222 -0.12523685 0.15662834
0.003263299 0.8132704 0.056473643 0.6015758 0.0561377 -0.1443909 0.15986638 0.90832376
0.16592339 -0.10225924 0.00485678 0.038581133 0.05238971 0.12283757 -0.16039903 -0.10277298
-0.1330657 0.11296752 -0.06752595 0.12099472 -0.18502036 0.13548657 0.07142928 -0.022345781
-0.048463717 0.040843606 -0.20053439 -0.10000574 -0.16459927 0.87021184 0.95125437 -0.12959205
0.94420224 0.758989 -0.20290689 0.78678465 0.8526163 -0.1623374 -0.2532352 -0.16998954
-0.03953931 0.885497 -0.11038647 0.77988076 -0.053421345 0.17582166 -0.18768956 0.68435234
00000000: d071 87bc 220b d33d f848 583d d920 ddbd
00000010: 2c4a 2dbe 7d2e d5bd 6c30 263e c212 3cbe
00000020: e0d0 b23d cc73 41be 9025 0abe e650 1dbd
00000030: 5b75 bdbd 540b 063d 1890 24be 9bb1 393d
00000040: aaf9 1abd c411 543e 1790 d33d 6525 18be
00000050: 1c9e 18bd 6a58 183f 0482 343f 01b5 323c
00000060: 29c5 1e3f 850b 5a3f 208c 1e3d 39c6 173f
00000070: f399 353f c0fe 6cbd 9022 cc3c 5369 2fbe
00000080: aa71 34be eeb7 143f 0863 cf3c aa69 693f
00000090: 9dbd 843e d0ab 10be 22ee c0bd 6405 673f
000000a0: 56d8 5e3e 0b0d d43d f9a9 80bd 0e7c 2e3e
000000b0: 4bf5 36bd b8df a1bd d7da a5bd 231f 44be
000000c0: 9e82 66be f037 053c 60f8 7abc 3238 4e3e
000000d0: 58cd 0ebb c60e c33d 3c2e ac3d ec32 223e
000000e0: ed34 6cbe d499 5cbd 1325 633d 54bd 603d
000000f0: 5459 f7bc d0ba 5a3f 7bdd 393f 9174 1cbc
00000100: eeee 263f 4a1c 4a3f b860 b7bd e7b6 2c3f
00000110: 607b 193f 0529 bc3d 56ae 223e bd2a 0dbe
00000120: c225 4ebe 557f 5e3f 68b8 ddbc 6ac9 f63e
00000130: 40d8 6ebd ecea 71bd df67 48be 6e09 093f
00000140: c7e9 893d cb7f 32be 962e 85bd 8128 42be
00000150: 0746 f4bd e85f 34be fce8 1e3d 4377 8a3d
00000160: d720 a0bd 0b2c 0b3e 1418 55be 5e65 8fbb
00000170: ae6d b2bd 1f85 6b3c b8f4 a7bd 44fb ccbd
00000180: f0c1 d33d 708a 5e3d da70 37be 665d c6bd
00000190: 655a 0a3e 1a05 563f 2380 143f 5c14 753e
000001a0: 5571 053f aee9 3c3f b409 82bd 31a7 3f3f
000001b0: a505 233f 45b7 063e ac1b 57be 858f 2b3e
000001c0: c5f0 a4bd 289c 233f 98da 6cbd 1c02 663f
000001d0: 959c 61bc 90b1 313e 0529 623d 41b4 553f
000001e0: 187c 98bc da47 433f d08d 073f 3029 c53c
000001f0: 88a8 663f 31ae 013f 3912 cebd ae9f 453f
00000200: 9a2a 0a3f ccb7 e23d f3c3 5cbe 49e3 3bbe
00000210: bc34 be3d a529 253f d0bc 193c 1131 433f
00000220: 7d1e 16be 54c7 643e 4cb9 f83d af54 493f
00000230: e67c 313d c035 433f 59ba 563f 43c7 173e
00000240: 0bb0 6e3f 93b9 2d3f 122b f63c 1bc8 003f
00000250: b193 393f 5d51 99bd 173e 00be 2e63 203e
00000260: 12dd 553b 7d32 503f e850 673d df00 1a3f
00000270: a5f0 653d 35db 13be 03b4 233e e887 683f
00000280: d2e7 293e 4b6d d1bd a025 9f3b 4007 1e3d
00000290: 9896 563d 4492 fb3d a53f 24be a47a d2bd
000002a0: 6042 08be 845b e73d 0c4b 8abd 14cc f73d
000002b0: fa75 3dbe febc 0a3e 8449 923d 800e b7bc
000002c0: e481 46bd a04b 273d e358 4dbe cfcf ccbd
000002d0: b68c 28be 34c6 5e3f 6885 733f c7b3 04be
000002e0: 3db7 713f 1a4d 423f d3c6 4fbe b86a 493f
000002f0: 1045 5a3f c63b 26be 0ba8 81be bd11 2ebe
00000300: f9f3 21bd eeaf 623f 4d12 e2bd 44a6 473f
00000310: 57d0 5abd 980a 343e b131 40be b731 2f3f

bias f4 [10]
-0.081714146 1.5076171 -0.11460463 1.8094375 0.19168314 1.8398378 1.5947713 1.8421159
-0.16496305 1.5830883
00000000: bf59 a7bd 99f9 c03f d5b5 eabd a69b e73f
00000010: 9648 443e ce7f eb3f 7721 cc3f 74ca eb3f
00000020: 13ec 28be a3a2 ca3f

weight f4 [1, 10]
-0.05114564 0.848448 -0.046629783 0.70879465 -0.18047294 0.79019666 0.88526845 0.7283248
0.24233976 0.97522044
00000000: 177e 51bd e333 593f dffe 3ebd 9173 353f
00000010: e6cd 38be 544a 4a3f f4a0 623f 7e73 3a3f
00000020: ea27 783e 0ca8 793f
