mwo/models/trained_vfa_models/model_v3.pth (torch_old, 14023 bytes, 7 tensors)

weight f4 [20, 25]
-0.04158196 0.09570621 0.12669162 0.19160397 -0.14025751 0.1520627 0.19783445 0.19020368
0.095144704 -0.097204424 -0.17375486 0.15172054 -0.11400681 -0.0089368075 0.032197908 0.13949288
0.0046084374 0.122262165 0.12553953 0.13902728 -0.17886893 0.02766101 0.0035165995 0.05606036
0.053338513 1.3272818 1.0232923 1.0375209 0.99443567 -2.856262 1.2415643 -2.3792896
1.0416487 -3.0091844 1.0814945 -2.749407 1.3388557 14.537395 4.79136 -3.0302093
1.0861987 -2.9623425 1.2128055 -2.5223534 1.2819781 -2.9642534 1.1304646 -2.4169366
1.2554483 -22.176249 0.14041205 -0.11530037 0.15881069 0.1896471 -0.032811373 -0.08383765
-0.15264359 0.19616617 -0.05892387 -0.06634338 -0.15565583 0.05480571 -0.08641918 0.15056945
-0.12773319 0.13925876 -0.06362021 0.042697594 0.055782154 0.022664785 -0.11934703 -0.017793491
0.09611927 -0.18657486 0.06435709 0.49870676 0.6431875 0.7136819 0.4884935 -0.6915809
0.640918 -0.7644794 0.40869945 -0.6182619 0.7797773 0.46318278 0.47841626 -0.4763536
0.44520086 -0.5414964 0.5835096 -0.48920548 0.41322458 -0.7229005 0.6378881 -0.46968132
0.5439166 0.6670785 0.45415625 0.5379176 -0.11534371 -0.024055392 0.07353319 0.013089851
-0.022477195 0.19298802 0.020320013 0.06831409 0.17864631 0.13635384 -0.16220336 -0.07551799
-0.18399206 0.17372932 -0.045002937 0.037296027 0.103073284 0.0043310225 -0.07232198 0.1228344
0.069900915 -0.18539225 -0.07594662 -0.12635294 0.088984475 0.7359205 0.66243464 0.74755615
0.6927423 -0.5982066 0.73853177 -0.48552462 0.5445021 -0.7418654 0.46100226 0.76818204
0.42627463 -0.66780615 0.46767235 -0.43539685 0.76033914 -0.76989496 0.67172223 -0.5394818
0.43093255 -0.40500674 0.68912244 0.66163754 0.45825425 0.5427089 -0.098727226 0.116774425
0.019752815 0.16694613 -0.1452688 -0.0985497 -0.025305226 0.13942899 0.07875691 0.13227694
-0.017423317 0.19460364 0.16703285 -0.1875594 0.17189105 0.0021708906 0.14023672 0.11743854
0.084027395 -0.1548914 -0.053109407 -0.16303119 0.08613433 0.060746 0.018177703 0.9829307
0.7085906 1.0435095 0.8702005 -2.8672326 0.8242816 -4.1342487 0.6895499 -3.16437
0.8354814 6.3127785 1.0390427 11.673904 1.9704037 2.4186697 0.9913042 -5.5266075
0.8221202 -9.912861 0.89549404 -3.024519 0.89477766 5.28128 0.7222198 -9.66903
1.1734194 1.331956 1.2010175 1.2633159 -2.7887776 1.1137977 -2.2009091 1.1516404
-3.0615194 1.1801016 -2.5010746 1.1234936 14.461851 4.9074507 -3.0873673 1.22079
-3.0595844 1.1206388 -2.2701397 1.086018 -3.1259673 1.0363045 -2.2959433 1.1250178
-22.312664 -0.0056395233 0.10684313 -0.005729601 -0.07826402 -0.15647347 -0.10801559 -0.18084776
-0.14737864 0.17636554 0.18351634 0.15711372 -0.18252504 -0.056582853 -0.017407015 -0.014113501
0.13304316 -0.19109015 -0.19638859 -0.026502684 0.16856493 -0.18936066 0.13758679 0.05747424
0.12960626 0.085452154 1.2793381 1.0390867 0.9249003 1.1923307 -3.1252856 1.1407522
00000000: d851 2abd 9e01 c43d 73bb 013e d533 443e
00000010: aa9f 0fbe 53b6 1b3e 1d95 4a3e c1c4 423e
00000020: 3adb c23d 1d13 c7bd cbec 31be a15c 1b3e
00000030: 677c e9bd b06b 12bc f4e1 033d 39d7 0e3e
00000040: 6002 973b 9664 fa3d 6f8d 003e 2b5d 0e3e
00000050: 6b29 37be 5899 e23c c076 663b 8c9f 653d
00000060: 7c79 5a3d 5fe4 a93f 3efb 823f 7ccd 843f
00000070: 5693 7e3f ffcc 36c0 94eb 9e3f 4846 18c0
00000080: bf54 853f 7a96 40c0 696e 8a3f 49f6 2fc0
00000090: a05f ab3f 2b99 6841 d252 9940 f3ee 41c0
000000a0: 8f08 8b3f 0597 3dc0 363d 9b3f 3d6e 21c0
000000b0: dc17 a43f 54b6 3dc0 10b3 903f 17af 1ac0
000000c0: 88b2 a03f f568 b1c1 2dc8 0f3e 9a22 ecbd
000000d0: 459f 223e d932 423e 3865 06bd 13b3 abbd
000000e0: 9a4e 1cbe c9df 483e 285a 71bd 0adf 87bd
000000f0: 3e64 1fbe f47b 603d 8afc b0bd e12e 1a3e
00000100: 7dcc 02be d999 0e3e 504b 82bd ace3 2e3d
00000110: d47b 643d 80ab b93c 376c f4bd a8c3 91bc
00000120: 2eda c43d 7b0d 3fbe a6cd 833d 7e56 ff3e
00000130: f0a7 243f dbb3 363f d21b fa3e 720b 31bf
00000140: 3413 243f ecb4 43bf 0e41 d13e 6946 1ebf
00000150: 7c9f 473f 4b26 ed3e faf2 f43e 9ee4 f3be
00000160: 5ef1 e33e 829f 0abf e360 153f 2479 fabe
00000170: 2c92 d33e 0210 39bf a24c 233f 127a f0be
00000180: 1e3e 0b3f a8c5 2a3f 2b87 e83e f8b4 093f
00000190: 5339 ecbd d00f c5bc 9298 963d d076 563c
000001a0: 1822 b8bc a79e 453e 2876 a63c 42e8 8b3d
000001b0: 0fef 363e 57a0 0b3e a318 26be 2da9 9abd
000001c0: 6a68 3cbe 19e6 313e 0055 38bd b8c3 183d
000001d0: 1618 d33d 40eb 8d3b 8c1d 94bd 9a90 fb3d
000001e0: 3628 8f3d 77d7 3dbe e789 9bbd aa62 01be
000001f0: 7e3d b63d 4965 3c3f 5195 293f d75f 3f3f
00000200: 8f57 313f 1124 19bf 6b10 3d3f af96 f8be
00000210: 7d64 0b3f e4ea 3dbf 7d08 ec3e 94a7 443f
00000220: ab40 da3e 58f5 2abf c072 ef3e 56ec debe
00000230: 96a5 423f d617 45bf fdf5 2b3f 7b1b 0abf
00000240: 31a3 dc3e 0b5d cfbe 546a 303f 1461 293f
00000250: 4da0 ea3e f8ee 0a3f 8031 cabd 6e27 ef3d
00000260: a8d0 a13c edf3 2a3e 58c1 14be 6dd4 c9bd
00000270: e84c cfbc 79c6 0e3e 4e4b a13d 9b73 073e
00000280: 58bb 8ebc 2d46 473e a90a 2b3e 920f 40be
00000290: 3504 303e 8045 0e3b 379a 0f3e 9e83 f03d
000002a0: 8e16 ac3d da9b 1ebe 4089 59bd a6f1 26be
000002b0: 3267 b03d ccd0 783d 68e9 943c 59a1 7b3f
000002c0: 3266 353f b891 853f 76c5 5e3f bd80 37c0
000002d0: 1e04 533f c44b 84c0 5886 303f 0a85 4ac0
000002e0: 1ce2 553f 4802 ca40 5aff 843f 50c8 3a41
000002f0: 3036 fc3f 7ccb 1a40 1dc6 7d3f f8d9 b0c0
00000300: 7876 523f 149b 1ec1 193f 653f b891 41c0
00000310: 2610 653f 3f00 a940 66e3 383f 59b4 1ac1
00000320: 9b32 963f 897d aa3f f1ba 993f 56b4 a13f
00000330: 557b 32c0 ec90 8e3f b2db 0cc0 f468 933f
00000340: efef 43c0 920d 973f 9b11 20c0 a3ce 8f3f
00000350: be63 6741 d609 9d40 6d97 45c0 d942 9c3f
00000360: 3bd0 43c0 1871 8f3f f849 11c0 a302 8b3f
00000370: d90f 48c0 a0a5 843f bcf0 12c0 9500 903f
00000380: 5680 b2c1 c0cb b8bb 92d0 da3d 60bf bbbb
00000390: e348 a0bd 953a 20be 4737 ddbd 2830 39be
000003a0: 6dea 16be 2b99 343e b5eb 3b3e 6be2 203e
000003b0: d8e7 3abe 6cc3 67bd 2899 8ebc 503c 67bc
000003c0: 773c 083e 23ad 43be 171a 49be 281c d9bc
000003d0: 499c 2c3e c3e7 41be 8de3 0c3e 1c6a 6b3d
000003e0: 81b7 043e 8a01 af3d 5ac1 a33f cb00 853f
000003f0: 44c6 6c3f 4b9e 983f ae04 48c0 2b04 923f

bias f4 [20]
-0.13292909 -1.1589954 0.049303412 -0.6505877 0.013194844 -0.42530566 0.17620774 -1.513363
-1.0551856 0.120721325 -1.750647 0.0041442662 -0.4262472 -1.0464604 -0.08382783 -0.07155976
0.082657054 0.056380287 -0.09955499 -0.49242505
00000000: 901e 08be f659 94bf 60f2 493d ea8c 26bf
00000010: 302f 583c aac1 d9be cd6f 343e e1b5 c1bf
00000020: 5210 87bf be3c f73d 3315 e0bf a0cc 873b
00000030: 133d dabe 6af2 85bf edad abbd ec8d 92bd
00000040: 1a48 a93d 04ef 663d 7de3 cbbd 231f fcbe

weight f4 [10, 20]
0.106086195 -0.46234977 -0.054935172 -0.44755706 -0.21466509 -0.8152338 0.1349462 -0.7748629
-0.6391063 0.20577595 -0.72308457 0.13348222 -0.7370672 -0.7246555 -0.21938156 -0.20495018
-0.06024961 -0.07975301 -0.025828838 -0.49977076 0.057458103 -2.0534322 0.10937911 -0.18104558
-0.1996649 -0.07759699 -0.18909411 -2.2418935 -2.2153916 0.14506865 -2.0227814 0.18585512
0.16844195 -1.9672799 0.043474495 0.19592753 -0.060371295 0.15562105 -0.064756125 0.08169529
0.20592368 3.827103 -0.20294607 0.59278774 -0.034687594 0.64328915 0.18193486 5.35665
3.9982104 -0.12370728 5.486323 0.0997397 0.5995486 3.3901122 -0.086725906 -0.14577648
-0.18792056 -0.12045308 -0.1658992 0.5632006 0.07602695 5.2898064 -0.17077717 0.5692605
-0.07605572 0.61697936 0.22253338 4.9413304 6.5854774 -0.04936056 5.299626 -0.112719834
0.3899342 9.257217 0.031933606 -0.07598932 0.20606428 -0.19589598 0.15438405 0.5543869
-0.020854414 4.0490975 -0.10596555 0.52232194 0.14259118 0.41203225 0.0048151463 5.405738
5.461423 -0.03009735 5.1948833 0.038993895 0.72110397 7.7235928 -0.09026599 0.034210145
0.09419078 -0.21062508 0.16357571 0.55785614 0.082954824 5.299621 0.07206783 0.80656964
0.17514968 0.4810365 -0.05578442 4.5083947 6.662018 -0.06016548 4.6950364 0.17250684
0.7869885 9.385655 0.16585669 -0.04589781 0.07085714 -0.06892283 0.16576126 0.6196743
-0.1703485 5.348835 0.15233421 0.094318956 0.0668934 0.015997842 0.10209659 4.5873923
6.7079186 -0.030963942 4.7099743 -0.1151161 0.012921587 9.447923 -0.099985614 0.071058035
-0.13309601 -0.07103729 -0.059497774 0.08223164 0.05563432 -0.8261655 -0.17030235 -0.084334776
-0.09772478 -0.20896515 0.09371579 0.8465327 -0.4563181 0.1423983 -0.17540881 -0.074921906
-0.035832465 0.14014848 0.01614599 -0.13646857 -0.022013813 0.008195311 -0.18395466 -0.19110933
0.08864954 -1.9162263 -0.13579464 0.106267124 0.07886398 0.044964343 -0.2074178 -2.127105
-1.7159083 0.20076758 -2.1421192 0.15679365 -0.08946681 -1.8228313 -0.14216655 0.069464475
-0.10533055 0.024157882 0.0072478205 0.07728183 0.065711826 -0.6769897 0.13512895 -0.38262883
-0.16404438 -0.47483835 -0.21411781 -0.7776455 -0.5843044 0.20933357 -0.39843267 0.0004969239
-0.5171272 -0.79054064 0.041366905 0.08759451 -0.13898693 0.007749781 0.023689434 -0.46218753
00000000: b843 d93d 1cb9 ecbe b403 61bd 3326 e5be
00000010: 2ad1 5bbe 2ab3 50bf 562f 0a3e 6a5d 46bf
00000020: 789c 23bf eeb6 523e 121c 39bf 90af 083e
00000030: 70b0 3cbf 0683 39bf 8fa5 60be 76de 51be
00000040: 4cc8 76bd 8c55 a3bd 0097 d3bc f4e1 ffbe
00000050: 3059 6b3d 6f6b 03c0 2802 e03d 0364 39be
00000060: f574 4cbe 2ceb 9ebd e3a1 41be 2f7b 0fc0
00000070: fac8 0dc0 e08c 143e 4075 01c0 ce50 3e3e
00000080: 0c7c 2c3e d4cf fbbf 5012 323d 3aa1 483e
00000090: e447 77bd 205b 1f3e dc9e 84bd dc4f a73d
000000a0: a8dd 523e 41ef 7440 18d1 4fbe f0c0 173f
000000b0: 9414 0ebd 99ae 243f 224d 3a3e ad69 ab40
000000c0: aee2 7f40 3e5a fdbd f58f af40 5444 cc3d
000000d0: 047c 193f 99f7 5840 5a9d b1bd 6e46 15be
000000e0: 3f6e 40be 1bb0 f6bd 7be1 29be ea2d 103f
000000f0: 04b4 9b3d 1846 a940 36e0 2ebe 0ebb 113f
00000100: 1ac3 9bbd 5cf2 1d3f cadf 633e 611f 9e40
00000110: 3bbc d240 4c2e 4abd 8996 a940 a8d9 e6bd
00000120: 75a5 c73e 901d 1441 d0cc 023d 4aa0 9bbd
00000130: 8402 533e f598 48be da16 1e3e 4dec 0d3f
00000140: e0d6 aabc 3592 8140 7704 d9bd e4b6 053f
00000150: 6c03 123e e4f5 d23e 60c8 9d3b cefb ac40
00000160: fac3 ae40 b88e f6bc 7c3c a640 10b8 1f3d
00000170: 459a 383f ac27 f740 60dd b8bd f01f 0c3d
00000180: 18e7 c03d 1aae 57be 6480 273e a9cf 0e3f
00000190: 38e4 a93d 7f96 a940 4c98 933d 597b 4e3f
000001a0: 705a 333e 6b4a f63e 347e 64bd c544 9040
000001b0: 402f d540 1470 76bd bd3d 9640 a2a5 303e
000001c0: 1478 493f a52b 1641 56d6 293e 58ff 3bbd
000001d0: 8c1d 913d 6a27 8dbd 52bd 293e faa2 1e3f
000001e0: d66f 2ebe a829 ab40 80fd 1b3e 4c2a c13d
000001f0: 68ff 883d e80d 833c 0418 d13d ebcb 9240
00000200: 45a7 d640 18a8 fdbc 1cb8 9640 fdc1 ebbd
00000210: 10b5 533c b12a 1741 42c5 ccbd e086 913d
00000220: 524a 08be 007c 91bd f0b3 73bd 1069 a83d
00000230: d0e0 633d 957f 53bf bd63 2ebe b6b7 acbd
00000240: ee23 c8bd f6fa 55be 10ee bf3d 5eb6 583f
00000250: 87a2 e9be dcd0 113e 5e9e 33be a870 99bd
00000260: 10c5 12bd 1583 0f3e 9844 843c 6bbe 0bbe
00000270: 5056 b4bc a045 063c 9c5e 3cbe 2ab2 43be
00000280: e48d b53d e746 f5bf c00d 0bbe 94a2 d93d
00000290: 7083 a13d 882c 383d 5565 54be 7d22 08c0
000002a0: e2a2 dbbf 0496 4d3e 7b18 09c0 848e 203e
000002b0: 603a b7bd 8952 e9bf 1c94 11be 6443 8e3d
000002c0: 8bb7 d7bd c0e6 c53c 207f ed3b f045 9e3d
000002d0: ec93 863d 324f 2dbf 3e5f 0a3e ede7 c3be
000002e0: 40fb 27be 031e f3be b341 5bbe c713 47bf
000002f0: f994 15bf 8a5b 563e 5eff cbbe 0044 023a
00000300: 7362 04bf df60 4abf 5870 293d c064 b33d
00000310: 9752 0ebe e0f1 fd3b 5810 c23c d8a3 ecbe

bias f4 [10]
-0.45984766 -2.2319102 7.0446677 -5.4838505 -4.554846 -5.521827 -5.5572333 -2.095933
-1.4954225 -0.42051417
00000000: 2771 ebbe 9ed7 0ec0 eb6d e140 b47b afc0
00000010: 4cc1 91c0 cfb2 b0c0 dbd4 b1c0 c423 06c0
00000020: 016a bfbf a24d d7be

weight f4 [10, 10]
0.22471902 -2.1522515 2.2846265 4.7460876 3.0862267 5.532762 5.6288133 -0.5660948
1.8264579 -0.14415756 -0.22248091 0.1901879 -0.10366635 -0.25853926 -0.011581929 0.07014722
0.24429119 -0.12151438 0.11922419 -0.09753068 -0.41115615 -0.19170174 -0.8543345 -0.8211717
-0.45331055 -0.5166281 -0.20506111 0.030601174 -0.12921058 -0.7228821 -0.13615707 0.11968166
-1.7406671 -3.1893451 -2.477889 -3.625494 -3.9819026 -2.1118264 -1.6320072 -0.31509623
0.33239338 -1.9442441 4.6391706 6.416315 5.6589627 6.610937 6.9615455 -0.24321078
2.0401835 0.84618986 -0.075575516 -0.07186438 -1.9014617 -2.2521646 -2.350197 -2.348008
-2.214407 -0.05129814 -0.106254935 -6.0886145e-05 0.2965919 -0.31374136 -0.04791963 0.19516495
-0.17229131 -0.29321313 -0.03384778 -0.09376265 -0.24134475 -0.10496475 -0.622464 -0.010101944
-0.5326461 -0.70636886 -0.6420642 -0.68440485 -0.25523767 -0.05127448 0.092038065 -0.48368087
-0.063855976 -0.074592456 -2.3764722 0.102005154 -2.4997962 -0.12107985 -0.24476981 0.18182111
-0.28000027 -0.09773481 0.65998226 -1.8330327 4.9605255 6.7599387 5.706862 6.8974247
6.676934 -0.06298673 1.7676075 0.41029894
00000000: be1c 663e 7dbe 09c0 5237 1240 f3df 9740
00000010: bd84 4540 630c b140 3d1f b440 97eb 10bf
00000020: 5fc9 e93f 0a9e 13be 09d2 63be 9ec0 423e
00000030: 064f d4bd 425f 84be 22c2 3dbc 58a9 8f3d
00000040: 7827 7a3e 88dc f8bd d02b f43d 2abe c7bd
00000050: 0f83 d2be 764d 44be aab5 5abf 4f38 52bf
00000060: 5218 e8be bd41 04bf 8afb 51be 50af fa3c
00000070: c74f 04be cd0e 39bf c26c 0bbe a81b f53d
00000080: 2ece debf 3b1e 4cc0 bc95 1ec0 1808 68c0
00000090: 7ed7 7ec0 2a28 07c0 9de5 d0bf 4b54 a1be
000000a0: 772f aa3e fedc f8bf 1674 9440 7452 cd40
000000b0: 3916 b540 cc8c d340 fbc4 de40 3f0c 79be
000000c0: 5e92 0240 e69f 583f 56c7 9abd a22d 93bd
000000d0: 1963 f3bf 7723 10c0 a169 16c0 c345 16c0
000000e0: d8b8 0dc0 001e 52bd 309c d9bd 0060 7fb8
000000f0: e5da 973e b5a2 a0be 6047 44bd 52d9 473e
00000100: 226d 30be 0820 96be f8a3 0abd a206 c0bd
00000110: 1423 77be c2f7 d6bd cd59 1fbf a082 25bc
00000120: 7f5b 08bf 97d4 34bf 525e 24bf 2835 2fbf
00000130: 83ae 82be 3005 52bd 747e bc3d 05a5 f7be
00000140: ecc6 82bd eec3 98bd 1f18 18c0 14e8 d03d
00000150: a9fc 1fc0 b6f8 f7bd f0a4 7abe 502f 3a3e
00000160: 325c 8fbe 3029 c8bd 99f4 283f d1a0 eabf
00000170: a0bc 9e40 6b51 d840 9d9e b640 b4b7 dc40
00000180: 71a9 d540 30ff 80bd f640 e23f b412 d23e

bias f4 [10]
6.8634825 -0.21007687 -0.2844085 22.165827 15.658829 -1.5826293 -0.10311641 -0.40512344
-2.0871599 15.841329
00000000: a6a1 db40 641e 57be fe9d 91be 9d53 b141
00000010: 908a 7a41 9993 cabf b22e d3bd 576c cfbe
00000020: 0794 05c0 1576 7d41

weight f4 [1, 10]
4.339715 0.00965401 0.5448749 1.4217814 6.205615 -1.5297793 -0.15022327 0.34374082
2.1898623 6.402838
00000000: f2de 8a40 da2b 1e3c ec7c 0b3f effc b53f
00000010: 6694 c640 cfcf c3bf 21d4 19be ccfe af3e
00000020: b426 0c40 0de4 cc40
