mwo/models/trained_vfa_models/model_v5.pth (torch_old, 17104 bytes, 7 tensors)

weight f4 [30, 25]
000000 74 ee 46 3d 73 3c 4d be 22 f4 80 bd 1e 76 9e 3d
       0.04856725 -0.20042591 -0.06296565 0.07737373
000010 f8 8b 8f bd a2 46 02 be 53 c5 7a be f6 3f b9 ba
       -0.07009119 -0.12722257 -0.24489336 -0.0014133442
000020 89 9c 21 3d 2a 16 c4 bc 69 55 7c be 73 4f 2c 3e
       0.039455924 -0.02393635 -0.24641956 0.16827182
000030 95 c8 03 3e f9 2a fa bd 90 0d 09 3e f8 96 f5 bd
       0.12869485 -0.12215228 0.1338408 -0.11991686
000040 9d 22 e2 bd 6c c8 43 3d f4 e7 8e 3d 3f 6a 39 3e
       -0.11041758 0.04779856 0.06977835 0.18106936
000050 90 25 b7 3d 58 cf 4e be 2e 36 63 be c4 cd 10 be
       0.08942711 -0.20196283 -0.22188637 -0.14140993
000060 2e 41 dc bd dd cf d7 bd de 05 7d be 59 11 c6 bd
       -0.107546195 -0.10537694 -0.2470927 -0.096712776
000070 43 78 37 bd 98 8c 3e 3c c2 9b 81 be 7e 39 56 bd
       -0.044792425 0.0116302 -0.25314146 -0.052300923
000080 63 1b f7 bd 70 4e 16 be d5 1c 60 be e9 74 12 bd
       -0.120657705 -0.14678359 -0.21885999 -0.035756025
000090 25 b8 2f 3d f4 fd 8b bd e9 be 0e be ca 4d a2 be
       0.042900223 -0.06835547 -0.13940014 -0.31699973
0000a0 62 be 80 bd f2 42 53 be a0 da 8f bd 67 92 8c be
       -0.06286313 -0.20631006 -0.07024121 -0.27455446
0000b0 61 f9 40 3e 5b e3 80 be b0 09 34 be 80 31 b3 be
       0.1884513 -0.25173458 -0.1758182 -0.34998703
0000c0 eb fe 7f 3d 12 22 71 3e b9 60 50 3e e2 1c 07 3e
       0.062498968 0.23548153 0.20349397 0.13194612
0000d0 c6 f1 28 3d 3b c5 84 3c 5c 6a 73 3c f7 f3 1c 3e
       0.041246198 0.016207328 0.014856901 0.1532744
0000e0 8d 6d 59 bc 62 53 9a 3e 95 15 9a 3e 6d ad 86 bc
       -0.013270748 0.3014174 0.3009459 -0.016440118
0000f0 c9 3a 63 3e 1d 24 4e be 58 42 55 3e 31 f5 3e 3e
       0.22190394 -0.20130964 0.2082609 0.1864822
000100 d5 c9 75 3e 4e f1 65 3e 64 f8 e8 3d e0 04 2c 3c
       0.24002774 0.22455332 0.11375502 0.010499209
000110 9f 9f 90 3c c3 e7 bd bd a1 55 fe 3d 4a b7 3f 3e
       0.017654238 -0.09272721 0.12418676 0.18722263
000120 d4 c9 d7 3c 8e db 25 3e 4b 7a 7a be 8b a5 4d 3e
       0.026341356 0.16197035 -0.24460714 0.20082681
000130 ea 4a d9 3c 19 32 9e 3e 1c b7 50 3e 19 37 24 3e
       0.02652498 0.30897596 0.2038235 0.16036643
000140 f6 b3 64 3e 78 1e ed 3d 4d 02 81 3e e0 49 ec 3c
       0.22334275 0.11578077 0.25197068 0.02884382
000150 37 88 e2 3d 6a 79 69 3e 7e 40 84 3e e9 e5 4a 3e
       0.11061137 0.22800222 0.25830454 0.19814266
000160 2d 14 3f bd ef 49 9d 3d 58 ce c8 3c cf 71 88 bc
       -0.0466501 0.07680117 0.024512455 -0.01665583
000170 fb 42 26 be ac 15 77 bb 28 e2 33 bd 3e a8 2b 3e
       -0.16236489 -0.0037702126 -0.04391685 0.16763398
000180 68 1c 6f 3d 1e 19 0e 3d 3a 1c 7e 3e c7 fb ea bc
       0.0583767 0.034691922 0.24815455 -0.02868451
000190 81 03 9a bc 48 d2 09 bd a8 ac 1e 3e e0 63 23 3e
       -0.018800499 -0.033647805 0.1549555 0.15956068
0001a0 8a 81 fa bb d6 b3 2d 3e 2e 57 68 bd d0 6a f3 3d
       -0.007644837 0.16963133 -0.056723766 0.11885607
0001b0 aa 39 86 3e 04 f2 6c 3e a4 23 9c 3e af 3d 28 bd
       0.2621587 0.23139197 0.30495942 -0.04107445
0001c0 22 57 f6 3d c9 97 43 3d fc bb 62 bd e0 17 9b 3e
       0.12028338 0.047752175 -0.055355057 0.30291653
0001d0 d4 bc 20 bb d1 de 14 3e e9 35 9b 3e d3 62 d8 bd
       -0.0024526613 0.14538123 0.30314568 -0.10565724
0001e0 59 76 83 3e 63 f8 a1 bd 1b b4 91 3d 02 c0 12 3e
       0.2567623 -0.07908704 0.071144305 0.14331058
0001f0 ba d5 36 be 84 0b 88 be 8f ab 6e be df 6d 54 3d
       -0.17854968 -0.26571286 -0.23307632 0.051862594
000200 ec 6a 31 3e a7 57 19 be bb 69 1e be d6 b0 c3 3c
       0.17325944 -0.14974843 -0.1547002 0.023888033
000210 b7 cb 7a 3d 43 71 a3 bd 48 53 98 3e 14 93 52 3e
       0.061229434 -0.07980587 0.2975104 0.20563918
000220 51 55 40 3e 64 1a 41 be 50 3c 4a 3d 35 19 3d bd
       0.18782546 -0.18857723 0.049373925 -0.046166617
000230 e8 e8 4e be e3 1c 87 be b3 72 3a be 7f 47 77 bd
       -0.20206034 -0.26389226 -0.18207817 -0.06037092
000240 d0 80 dc bd ec 94 14 be 00 40 15 3e d9 22 01 be
       -0.107667565 -0.14509934 0.14575195 -0.1261095
000250 3d b6 86 3e ac fd 10 3e bd 28 89 3e 3c 76 9c 3e
       0.26310912 0.14159268 0.26788893 0.30558956
000260 e6 8b ed 3c 7f 77 5f 3d 57 26 23 bd 1b f7 f9 bb
       0.028997373 0.05455732 -0.039831486 -0.007628334
000270 b1 26 6d 3e 0d e0 82 3e bf cd 80 3e 01 bd 8a 3d
       0.23159291 0.25561562 0.25156972 0.06774331
000280 82 cd e9 3d e2 ce 30 be 7f f8 3d 3d ad 50 9d 3e
       0.11416151 -0.1726642 0.046379562 0.30725613
000290 06 d3 4d 3e 0a e4 07 3e ca c3 61 bd 68 72 4d bd
       0.2010003 0.13270584 -0.05511836 -0.050157934
0002a0 7d 0f 83 3d 1e f3 99 3d 02 23 32 bd 8c b4 54 bd
       0.063994385 0.07517074 -0.043490417 -0.051929995
0002b0 5e 18 32 3e 42 9e 34 be 1f ce a3 be 8b 73 aa 3e
       0.17392108 -0.17638496 -0.31993195 0.33291277
0002c0 f0 57 ac b9 f1 5a 52 3e db 31 8d 3e 7a 9d e5 3d
       -0.00032871915 0.20542504 0.275771 0.11211677
0002d0 e6 99 2a 3d a7 2a 1d 3e 7a 9b 3f 3e dc e4 6a 3e
       0.041650675 0.15348302 0.18711653 0.22938865
0002e0 3b eb 10 3e ab 07 8d 3e fd 0a 01 3d 46 18 9d 3e
       0.14152233 0.27544913 0.03150462 0.30682582
0002f0 11 4c 3f 3e 47 f5 9d 3e 8e aa c7 3d 94 3f 56 3e
       0.18681361 0.30851194 0.097493276 0.2092269
000300 30 69 b1 bd 26 66 65 3d c4 ec 63 3d 58 46 8d 3e
       -0.08662641 0.05600562 0.05564572 0.2759273
000310 58 ed a2 3e 1b 87 5c 3e d0 b1 06 3e 5a 0b 9c be
       0.31821704 0.21535914 0.13153768 -0.3047741
000320 bf f2 ad be b9 6a 27 be ba 48 74 3d ec d7 32 be
       -0.33974263 -0.16349305 0.05963967 -0.1746518
000330 ed cd 73 be 29 64 51 be 35 87 1c 3d 32 e4 8e bd
       -0.23809023 -0.20448364 0.03821488 -0.069771186
000340 f6 ce 98 be 0a c7 0b be 72 3c 8e be a2 79 81 3e
       -0.298454 -0.13650146 -0.2778049 0.2528811
000350 79 70 a9 be ad e0 78 bc 86 f3 26 3d 3e 17 47 be
       -0.33093622 -0.015190286 0.040759586 -0.1944246
000360 8d 2b 8f 3c eb 13 30 3e d1 15 a6 be 50 73 93 bd
       0.017476821 0.17195098 -0.3243852 -0.071997285
000370 53 5c db bd 29 7e a3 bd 0d f1 82 be 88 1e be 3c
       -0.10710969 -0.079830475 -0.25574532 0.023207918
000380 54 1e 82 3e 51 13 55 be 18 2d ac be 74 91 49 be
       0.25413764 -0.2080815 -0.33628154 -0.19684392
000390 4c fd 89 bd 00 90 42 be 75 8c 8f be 4b 11 97 be
       -0.06737766 -0.19000244 -0.28036848 -0.2950538
0003a0 2b 68 a5 bd 94 6a 15 be 88 7a 88 bd 47 8b 80 be
       -0.08076509 -0.14591438 -0.06663996 -0.2510626
0003b0 6a 8d f6 bd 42 64 04 be 45 92 ae be 6c f3 c3 3c
       -0.12038691 -0.1292887 -0.3409597 0.023919784
0003c0 4c a9 d4 bd fb ee 95 be 47 b8 2b 3e d0 0e a4 be
       -0.10383853 -0.2928389 0.16769515 -0.3204255
0003d0 98 30 9f 3c 1b 72 82 be 0d 9e 48 be d4 1a 38 bd
       0.019432351 -0.2547768 -0.19591542 -0.04494746
0003e0 1b 83 88 3d a0 d4 1c bd 5e 52 16 3e 85 52 64 3d
       0.066656314 -0.038288713 0.14679858 0.05574276
0003f0 c7 10 29 3e 82 d9 92 3e 3c a7 61 3d 4d 08 17 3e
       0.16510306 0.2868157 0.055091128 0.1474926

bias f4 [30]
000000 0e 76 05 be 5c 69 b9 3d 20 18 35 3e e5 04 33 3e
       -0.13033316 0.09053299 0.17684984 0.17482336
000010 11 3d 1c bd 4c f5 3d 3e d8 27 c9 ba 05 ef 38 3e
       -0.038144175 0.18550605 -0.0015346957 0.18059929
000020 c0 8b 31 3e 06 c7 4b 3d d2 61 db 3d a5 c4 80 bb
       0.17338467 0.04975035 0.10712017 -0.003929692
000030 50 cf a8 3d 64 a5 a7 3c bc 4a 87 3e 55 ee 83 be
       0.08242667 0.020464607 0.26424205 -0.2576777
000040 7c 78 3b 3e 0f 33 dc 3d 8b 37 d4 3d a0 43 78 3e
       0.1830768 0.10751926 0.103621565 0.24244547
000050 07 b6 b5 3e 04 c1 a3 3e 7c f5 88 3e 28 d6 5b 3e
       0.35490438 0.31983197 0.2674979 0.21468413
000060 3d be 06 3e 95 0f 5b 3e 2d 9c 07 3d 8b f2 44 3e
       0.13158508 0.21392663 0.033107925 0.19233148
000070 cb 79 7b bd 0e 9e ac 3e
       -0.061395448 0.33714336

weight f4 [20, 30]
000000 10 f3 be 3d cf 99 6b 3e 2f 8b 0f 3e 8a 88 87 3e
       0.09323704 0.23007892 0.14017938 0.2647136
000010 f1 e8 fb 3d f3 da 6a 3e f8 ad 1b 3e 29 02 98 3e
       0.123002894 0.22935085 0.15203083 0.29689148
000020 b0 03 83 3e 3e 88 74 3e 7c 59 d5 bb 2a 27 92 3e
       0.2558875 0.23880097 -0.0065109115 0.28545505
000030 27 7a 3b 3e 55 7c 76 3e e1 bc 0e 3e 26 ed fd bb
       0.18308316 0.24070866 0.13939239 -0.0077492176
000040 ce 58 61 3e 14 48 db 3d ba ac 79 3e e8 27 88 3e
       0.22006533 0.10707107 0.24382296 0.26592946
000050 51 91 e7 3d 50 24 e2 3d 03 5c f9 3d 66 f6 cb 3b
       0.11307014 0.11042082 0.12175753 0.0062244413
000060 76 13 1d 3e 7e 46 a6 3b c9 d9 96 3e 01 65 00 3e
       0.15339455 0.0050743213 0.29463032 0.1253853
000070 fa 99 a9 bb a3 29 18 3e 2d be e1 3d 5c 57 13 be
       -0.005175826 0.14859633 0.11022601 -0.14388794
000080 d2 93 92 3e e3 e6 72 bd c6 8a 9d bb df bd e7 3d
       0.28628403 -0.059302222 -0.004807803 0.11315512
000090 81 fd 7b 3e ed 3d 76 bc 2e 12 30 bd 3d d0 87 bd
       0.24608423 -0.015029413 -0.042986088 -0.06631515
0000a0 c1 65 60 3e 87 0a 60 3e fd c0 9e 3d 66 1f 7a 3d
       0.21913816 0.21879016 0.07751653 0.0610651
0000b0 a3 82 a9 bc f2 c2 5e 3d ff 1f 91 3e 9d 9d 9a bd
       -0.020692175 0.054385133 0.28344724 -0.075495936
0000c0 cd 46 2d bd d6 fe f3 3d 00 5c ab bd 12 b8 84 3e
       -0.04230385 0.119138405 -0.08367157 0.25921685
0000d0 e1 6a d1 3d 81 d0 63 bc 80 8c e7 bc 45 cd e2 3d
       0.10225464 -0.013904692 -0.028265238 0.11074308
0000e0 ac 3e 67 bd ec 74 38 bd 92 89 c0 3d 4f 98 94 3d
       -0.056456253 -0.04503338 0.094012395 0.07255613
0000f0 c2 9e 86 3d 87 57 82 3d cb 89 ac bd 40 87 97 3d
       0.065732494 0.06364351 -0.084247194 0.07398844
000100 92 65 03 3e 96 32 16 3e 54 97 01 be cb 69 13 be
       0.12831715 0.14667735 -0.12655383 -0.14395826
000110 e5 f1 93 bd 88 bc c1 3c f2 62 fd 3d f3 ca 0e be
       -0.07223872 0.023649469 0.12372388 -0.13944606
000120 c8 33 d4 bd fe d8 0f be 72 e0 27 be 0c d8 93 3d
       -0.10361439 -0.1404762 -0.16394213 0.07218942
000130 fc 53 11 be 99 5e 2d 3e 08 59 f7 bd fe 12 fb bd
       -0.14192194 0.16930617 -0.12077528 -0.12259482
000140 8a ea 19 3e fb 6a 92 bd 7b 19 e4 3d ea a2 f8 bd
       0.15030876 -0.07149311 0.111376725 -0.121404484
000150 a8 68 47 be 16 e4 e3 bd ca 21 71 3d 9e e2 17 3e
       -0.19473517 -0.11127488 0.058870114 0.14832541
000160 1f cd c1 3d d1 22 d3 bd 29 c5 77 3e 9d 0d 8b 3d
       0.09462952 -0.10309375 0.24196304 0.06789706
000170 3a 1e 2f 3e 55 b7 22 3e 7f 45 19 3e 21 7c 5f 3e
       0.17101374 0.15890248 0.14967917 0.21824695
000180 cb 27 98 bb 30 3e 65 3d 3f 4f 75 bd 06 6d f2 3d
       -0.0046434156 0.05596751 -0.059890028 0.11837201
000190 67 22 0f 3d 1e 75 86 3e c0 51 71 3e 20 df ad 3d
       0.034944918 0.26261228 0.23566341 0.08489823
0001a0 24 4e 10 3e 75 b3 82 bc 05 15 26 3e 10 15 84 3e
       0.14092308 -0.015954712 0.16218956 0.2579732
0001b0 35 77 3f 3d 81 f8 cd 3c 5a 3c 27 3e 50 dc 1a 3c
       0.046744544 0.02514291 0.16331616 0.009451941
0001c0 6b 0b 51 3e e1 c3 62 bd be 4e 31 bd 08 97 bf 3d
       0.20414512 -0.055362586 -0.043287985 0.09354979
0001d0 29 6e 87 3e dd 36 58 3e fe d2 30 3e 28 77 64 3e
       0.26451233 0.21114679 0.17267987 0.2231108
0001e0 a6 41 97 3d 7c 94 96 3d d9 b0 a7 3e 72 84 6c 3e
       0.07385568 0.0735254 0.32752112 0.23097399
0001f0 d8 c7 86 b9 de b2 31 3e 98 4f 6a 3e 5b a6 73 3d
       -0.00025707367 0.17353389 0.22881925 0.05948482
000200 ab 62 5a 3e f2 db 0b 3d 0a 94 45 3e ad 6e 24 3e
       0.21326701 0.034145303 0.19294754 0.16057844
000210 86 65 de 3d 8f a3 48 3e 6d 0d 30 3e a4 85 f9 bd
       0.10859208 0.19593643 0.17192622 -0.12183693
000220 da b3 9b 3e 5b 17 3f 3e 9b 0d 1a 3e b4 2a b8 3d
       0.30410653 0.18661253 0.15044253 0.0899252
000230 ec d2 51 3e f4 a2 5c 3e fd 30 48 bc a2 5b a4 3e
       0.20490617 0.21546537 -0.012218711 0.3210116
000240 94 05 3b 3e 5e 88 50 3d 46 64 32 bc 5e a0 19 bb
       0.18263847 0.0509113 -0.010888165 -0.0023441534
000250 12 67 8f 3d 16 d2 a5 3e d9 d1 96 bc 28 d7 a0 bd
       0.07002081 0.32386845 -0.01841061 -0.07853538
000260 9a ce 10 3e da bb 37 be 2b ce ac 3d 15 be d9 bc
       0.14141312 -0.17942753 0.08437761 -0.026579896
000270 4f d8 ed 3c 00 c6 f2 bd 30 02 00 3e d5 38 80 bd
       0.029033808 -0.11854172 0.12500834 -0.0626084
000280 23 bc 2b be 84 e0 f1 3d 51 d5 e1 3b 36 10 22 bd
       -0.16770987 0.11810401 0.0068918844 -0.03956624
000290 31 da a9 3d c3 eb 84 bc ef cd 10 3d de 0c 10 be
       0.0829357 -0.016225701 0.035352644 -0.14067408
0002a0 c6 83 28 bd 54 10 06 3e 57 af 3e be 33 aa 98 3d
       -0.041141294 0.13092166 -0.18621574 0.07454338
0002b0 f9 68 5f bd da bb 87 bc 23 0b 62 be 3c 36 c8 3d
       -0.05454347 -0.016569067 -0.22074561 0.097759694
0002c0 3d 9f 0d 3c 79 98 17 3d c9 ad 71 3d ae 99 62 3d
       0.008643922 0.037010644 0.059003625 0.05532234
0002d0 4c ac ab bc f4 21 e5 3b 40 f8 2b 3e 4f 83 d5 3d
       -0.020956181 0.006992573 0.16793919 0.10425436
0002e0 e7 dc 44 3e 10 69 69 3e 94 63 8c 3a ea f3 aa ba
       0.19224893 0.22793984 0.0010710829 -0.0013042663
0002f0 cd 4d 2a 3e d6 2e 73 3e 87 5f 4a 3e 9c 74 a4 3e
       0.16631241 0.23748335 0.19763003 0.32120216
000300 2b a2 e2 3d c0 99 8e 3e c4 17 7d 3e d2 1b 92 bd
       0.11066087 0.27851677 0.24716097 -0.071342126
000310 c0 8c 54 3e 3f 00 dd 3d af fa 64 3e 85 61 ca 3d
       0.20756817 0.107910626 0.22361253 0.098818816
000320 ae fc 84 3e 63 d5 2c 3d 7e a3 65 3e 8e fb 20 3e
       0.2597403 0.04219569 0.22425649 0.1572096
000330 9a ba b3 bc c5 35 0b 3d 54 49 a9 3e d6 41 82 3e
       -0.021939564 0.033986825 0.33063757 0.25440854
000340 4a 67 a0 3d 6b 7e a7 3e d8 1a 0e be c9 43 b3 bd
       0.07832201 0.32713637 -0.13877428 -0.08753163
000350 94 cb 09 be 73 a4 1a bd b2 5c 01 be 80 2a b9 3d
       -0.13456565 -0.037754487 -0.12633017 0.09041309
000360 cd 7d c9 bd 0b 75 30 be a9 c0 63 3d 25 94 3f be
       -0.09838448 -0.17232148 0.055603657 -0.18708856
000370 d7 e7 89 3d a4 9e bb bc 57 bd 0c be 88 67 f3 3d
       0.06733673 -0.022902794 -0.13744102 0.118849814
000380 f7 f6 04 3e 70 50 a3 3c a3 73 1a be 06 45 5a 3d
       0.12984835 0.019935817 -0.15083174 0.053288482
000390 c1 46 58 be 10 ff e1 bd f2 97 2d 3d 0c 40 41 be
       -0.2112074 -0.110349774 0.042381234 -0.18872088
0003a0 53 f3 40 be 38 16 e7 3d e7 7c 4f bd 12 2e 01 bd
       -0.18842821 0.11283535 -0.050656226 -0.031538077
0003b0 a9 f8 40 be 65 57 be bc 99 ee 25 be 39 4b 41 3d
       -0.18844856 -0.023235032 -0.16204299 0.04719088
0003c0 4b 78 9a bd 6e 7d fc 3d c2 72 82 3e 6a 8a 89 3e
       -0.07542475 0.12328611 0.25478178 0.26863414
0003d0 e4 f9 bb 3b aa c4 16 3e e2 8c 9e 3e bc 94 02 3d
       0.0057365764 0.14723459 0.3096686 0.031880125
0003e0 48 d1 88 3e 3b 67 81 3e cd d8 ab 3c da be a9 3e
       0.2672217 0.2527407 0.020977402 0.3315342
0003f0 51 ee 87 3e 4e 21 6b 3e 4d b6 89 3e db a5 8b bd
       0.26549008 0.22961923 0.26896897 -0.06818744

bias f4 [20]
000000 38 24 9f 3e 2e 7d 3a bd a7 0e 90 3d 52 7f 0d 3e
       0.3108232 -0.045529537 0.07034045 0.138181
000010 6c fc 9b 3e 2e 70 1a bd f3 0b d3 3c 85 3c a6 bd
       0.3046602 -0.03770464 0.025762534 -0.08117012
000020 fc 3b d6 3d 01 2a a5 3e aa 3f 05 be 34 1f a6 3d
       0.1046066 0.3225861 -0.13012567 0.0811142
000030 58 97 13 3d f7 79 6a bb 51 56 0f 3e e7 5d 3e 3e
       0.036033005 -0.0035778263 0.13997771 0.18590508
000040 4c 0a 8f 3e 87 e2 ea 3d c6 41 ac 3c b1 0e 25 bd
       0.27937543 0.11468988 0.021027457 -0.040297214

weight f4 [10, 20]
000000 ed 8d be 3e f4 25 05 3e 88 38 7f 3e 50 30 c1 3e
       0.37217656 0.13002759 0.24923909 0.37732172
000010 b4 07 45 3d 17 9e 8c bd c4 f5 5a 3e 07 b9 1e be
       0.04810305 -0.06866091 0.21382815 -0.1550027
000020 fc 12 9e 3e e9 41 c1 3e ec 87 85 3d 4f a3 ac 3e
       0.3087386 0.37745598 0.06520066 0.33718345
000030 94 e5 c1 3d 02 6e 85 3e 34 f7 48 3e 87 83 11 bc
       0.09467617 0.26060492 0.1962555 -0.008881456
000040 a9 d4 82 3e 59 53 0d bd 6c 8b 1c 3c 40 72 4c 3b
       0.25552872 -0.034503315 0.009554725 0.0031196028
000050 b7 56 94 3e 6c b2 92 3e ef 16 0e be 6b b5 67 3e
       0.28972408 0.2865175 -0.13875936 0.22627799
000060 0e 09 64 3e 63 64 5b 3c f7 16 90 3e 1f c4 99 3d
       0.22269079 0.013390633 0.2814252 0.0750811
000070 1e ff 6c 3e 64 84 71 3e 03 8c a5 bc 89 69 04 bc
       0.23144194 0.2358566 -0.020208364 -0.008081802
000080 57 1f 4b be 8c d4 89 3e c7 40 b7 3e a0 b8 6c 3e
       -0.19836174 0.26919973 0.3579161 0.23117304
000090 c6 5d 2b 3e b1 b1 78 3e 72 0b 26 3e ba fb e4 3d
       0.1673499 0.24286534 0.16215304 0.111808255
0000a0 3b 8e 51 3e a6 a3 52 3e 2b 91 80 3e e2 3d 33 3e
       0.20464413 0.2057024 0.25110754 0.17504075
0000b0 1a 1b 84 3e 60 cb 09 be c1 3c be 3e b5 46 74 bd
       0.25801927 -0.13456488 0.37155727 -0.059637744
0000c0 2b 56 91 3e d9 b2 b3 3e ba 2c ba 3d a9 fa 5d 3e
       0.28386053 0.35097387 0.09090562 0.2167765
0000d0 98 02 47 3e c2 15 95 bd 63 46 a3 3e f6 05 b6 3e
       0.19434583 -0.072795406 0.31889638 0.35551423
0000e0 2c 14 4a 3e 99 c2 ae 3e 73 f0 b3 3e 0e cd 85 bd
       0.19734257 0.3413284 0.35144386 -0.06533252
0000f0 2d 6a 00 be 00 84 4c ba e2 0e 23 3e 5d fc 47 3e
       -0.12540503 -0.0007801652 0.15923646 0.19529863
000100 5c c9 03 be 47 9d b5 bd ed e8 4f be b7 fd 12 bd
       -0.12869781 -0.08867889 -0.20303698 -0.035886493
000110 9d 71 1d be d8 32 c3 3d d5 84 37 3e 40 19 88 3d
       -0.15375371 0.09531182 0.17921765 0.06645441
000120 6c bd ea 3d dc 29 4e 3e 14 93 3a be f0 38 04 3b
       0.114619106 0.20133156 -0.18220168 0.002017554
000130 e9 d3 e4 3c 3e 69 f1 bd ea 57 c7 bd bd 9c a6 bd
       0.027933078 -0.117876515 -0.09733565 -0.08135364
000140 e0 87 33 3e 77 b1 2e be ef 0e 54 be d4 45 4a 3e
       0.17532301 -0.17059885 -0.20708822 0.197532
000150 83 bc 0f b9 d2 a1 26 3e 9b 8f ce bd 3b 96 56 be
       -0.00013707769 0.16272667 -0.10085984 -0.20955746
000160 52 bc 3c bc 7f a9 4c 3e 88 a8 d5 3d a7 74 57 be
       -0.011519508 0.19986533 0.104325354 -0.21040593
000170 8c 69 22 be 5a e3 0a be 12 b5 a5 3d f5 8a 5c bd
       -0.15860575 -0.1356329 0.08091177 -0.053843457
000180 e7 da b8 bd 17 bf 68 be c2 59 3e be 90 a4 c7 3c
       -0.09026127 -0.22729145 -0.18588927 0.024370462
000190 b4 a4 99 3d ec 1e 6a 3e d7 59 33 3e f1 ba ae 3e
       0.07502118 0.22863358 0.1751474 0.34127
0001a0 79 cb 07 3e ef bf 02 bd 99 e3 51 bc 26 90 6b 3d
       0.13261212 -0.031921323 -0.012810611 0.057510518
0001b0 e5 32 89 3e 87 66 58 3d 5b fe 16 bc c4 29 76 3d
       0.26796642 0.052832153 -0.0092159165 0.060098425
0001c0 72 39 9b bd d3 25 19 3e f4 f9 11 3e 5f 7b 52 3e
       -0.07579316 0.14955835 0.14255506 0.20554875
0001d0 db 20 23 3e 28 9d 94 bd b4 37 b1 3e 20 85 f2 bb
       0.15930502 -0.07256538 0.3461281 -0.0074011236
0001e0 7c ae 27 bd 68 02 89 bc 23 72 86 3d 07 10 e4 3d
       -0.040937886 -0.01672478 0.065647386 0.111358695
0001f0 c8 4b 3d be 12 51 3c 3e d5 12 d0 bc c8 6d 09 3e
       -0.1848594 0.18390301 -0.025399605 0.13420784
000200 07 71 24 3e e1 e1 35 be d8 69 65 be aa 8c d7 bd
       0.16058742 -0.17761947 -0.22403657 -0.105248764
000210 fa d5 dc bd 10 2b 52 3d 5f 43 69 3d 8f 11 6e be
       -0.10783 0.0513106 0.056949016 -0.23248886
000220 da 72 94 3d f9 60 26 3e 9b c4 2b be c7 dd 53 3e
       0.07248469 0.1624793 -0.16774218 0.2069007
000230 78 23 9d 3e 01 67 20 3e 5e 5a 4f 3d 74 11 7f 3e
       0.30691123 0.15664293 0.05062329 0.24909002
000240 cb 3e e6 bc 53 d9 02 be 03 9a 24 3e 30 00 7c 3e
       -0.028106114 -0.12778215 0.16074376 0.24609447
000250 a8 55 bc 3e 5c 91 13 3e 3d 0b e0 bd f3 be c2 3e
       0.367841 0.14410919 -0.109396435 0.38036308
000260 c2 19 49 3e fe 9f ac 3d 65 bb a2 3e c4 46 79 3c
       0.19638732 0.084289536 0.31783596 0.015214626
000270 de 47 82 3e 17 29 ba 3e 75 2b ae 3e a0 03 2b 3d
       0.25445455 0.36359474 0.3401753 0.041751504
000280 54 33 99 3e 3f 00 7d 3d 88 97 c3 bd f5 de 14 3d
       0.29921973 0.061767813 -0.09550387 0.03634544
000290 39 af b1 3e d1 28 15 be 6a 5b ff 3d e9 b4 0b be
       0.34703997 -0.14566351 0.12468608 -0.1364323
0002a0 2b 45 75 3e a5 bc 70 3e c6 ac 1b be d1 1d 3e bd
       0.23952167 0.23509462 -0.15202627 -0.046415154
0002b0 80 1e 17 be 1d 5b a1 3e 22 8d 9f bc 8b 66 82 3e
       -0.14757729 0.31514826 -0.019476477 0.2546886
0002c0 a3 ad 73 3e 7b 33 b6 3e c8 71 41 3e 4f da 12 be
       0.23796706 0.3558615 0.1889106 -0.1434109
0002d0 78 56 02 3d e6 bd 4e be 50 82 a0 bc 40 69 af 3d
       0.031820744 -0.20189628 -0.019593388 0.08564997
0002e0 11 23 61 bc e4 83 ed 3d 30 7f 40 bd 26 cc 31 3e
       -0.013741271 0.11597422 -0.046996295 0.17363033
0002f0 15 63 19 3e cc 01 72 3d 48 97 ab bc 78 27 55 bd
       0.14979203 0.059083745 -0.02094616 -0.052039593
000300 c4 ee dc bd 3a c6 25 3e dd 8b 23 be 91 59 ce 3b
       -0.107877284 0.16188899 -0.15971322 0.0062972982
000310 86 e0 c2 bd ad 50 f3 bd eb 53 f6 bc 88 4b 8c bd
       -0.09515481 -0.11880622 -0.030069312 -0.06850344

bias f4 [10]
000000 10 72 29 bd d0 21 ab 3e 7f ca 2e 3e fb 4a 1a 3e
       -0.041368544 0.33424234 0.17069434 0.15067665
000010 e1 c4 d9 bd e0 50 a8 3d 5a c0 9a 3d 8f e5 3b bd
       -0.10633255 0.08218551 0.075562194 -0.04587322
000020 73 f4 77 3e d7 34 40 be
       0.24214344 -0.18770157

weight f4 [1, 10]
000000 12 4b bb 3e ea 74 92 3e 84 28 cb 3e a2 25 4a be
       0.36580712 0.28604823 0.39679348 -0.19740918
000010 c0 dc 53 be 74 ea 6d 3e 46 16 cd bd 87 ee 94 3e
       -0.20689678 0.23233968 -0.10014014 0.29088232
000020 83 ba d6 3e 20 9a 14 be
       0.41939172 -0.14511919
