mwo/models/trained_vfa_models/model_horizon_is_15_beat_greedy.pth (torch_old, 14023 bytes, 7 tensors)

weight f4 [20, 25]
000000 7e f8 13 be 22 6b f2 3d d0 a7 4b bc 85 d5 2a be
       -0.14450261 0.1183684 -0.012430146 -0.16683014
000010 5a 48 90 bd 40 b7 23 3d da 2c 83 3d 82 3d c8 3d
       -0.0704505 0.039969683 0.06405039 0.09777357
000020 c2 f8 41 be bb 8b 00 3e 0b 10 3a 3e e1 f7 00 3e
       -0.1894255 0.12553303 0.18170182 0.12594558
000030 38 d4 1f bd 44 b1 95 bd 79 fa 37 3e e6 c4 82 3d
       -0.039020747 -0.07309201 0.17966641 0.06385212
000040 56 33 b7 3d 13 c1 1c 3e fa 8c d8 bd 7d 67 3c be
       0.089453384 0.15308027 -0.10573764 -0.18398853
000050 d0 de 6c bc ac 58 8c bd 90 a9 c9 3c cc 45 80 bd
       -0.0144574195 -0.0685285 0.024616987 -0.06263313
000060 8d 1d 9e bd a9 ca 3f 3f 48 0a 15 3f 19 3d 2d 3f
       -0.0772048 0.7491861 0.5821881 0.6767135
000070 64 e0 28 3f db 62 0a bf 4c 58 30 3f f6 0c d7 be
       0.6596739 -0.5405709 0.6888473 -0.42002076
000080 c6 c8 06 3f 5d fc ea be 88 e2 0f 3f 7b 55 dc 3e
       0.52650106 -0.45895663 0.56205034 0.43033966
000090 12 35 27 3f 90 6f 0b bf b8 85 19 3f 4e bb fd be
       0.65315354 -0.54467106 0.59969664 -0.49556965
0000a0 24 81 07 3f 7f 14 2c bf 28 da eb 3e 3d 3b 4b bf
       0.5293143 -0.67218775 0.46064878 -0.79387265
0000b0 66 08 44 3f 63 ef cf be 8d d1 20 3f 8c 8a 0e 3f
       0.76575315 -0.40612325 0.6281975 0.55680156
0000c0 7b 12 ff 3e 1e f9 30 3f 78 6f 2f 3d 33 35 ef bd
       0.49818787 0.6913012 0.042830914 -0.11680069
0000d0 d7 3c f5 bd 7f 7f 42 3e 37 23 44 be ad ea 2e 3e
       -0.11974495 0.18993948 -0.19154058 0.17081709
0000e0 41 18 0b 3e 33 30 cd bd d8 5b 91 3c ba 86 93 bd
       0.13583471 -0.10018959 0.01774399 -0.072034314
0000f0 17 a7 32 be b6 cc e8 3d 5e 39 fc 3d 25 da 41 3e
       -0.17446552 0.113671705 0.123156294 0.18930872
000100 0d e7 2d 3e fa cb 06 be 32 14 e8 3d 23 14 44 3e
       0.1698267 -0.13163748 0.11331977 0.19148307
000110 80 32 11 3b 0e 68 d1 3d 60 dd 2e be a0 dd d0 3b
       0.0022155344 0.10224925 -0.17076635 0.006374076
000120 00 70 c1 ba 00 dc 73 bb 60 e1 71 3c 2c 6b ff 3f
       -0.001475811 -0.0037209988 0.014763206 1.9954581
000130 b0 ec 07 40 14 38 f8 3f b0 ba 10 40 35 3f f1 be
       2.1238213 1.9392114 2.2613945 -0.47118536
000140 e8 ce 19 40 53 30 bf 3f eb f7 01 40 c6 77 83 3f
       2.4032536 1.4936622 2.0307567 1.0270927
000150 93 09 07 40 29 26 4a 3f 71 13 07 40 2b 5b 23 40
       2.1099594 0.7896448 2.1105616 2.5524395
000160 24 18 12 40 c3 d1 0c 3f 26 36 0d 40 01 cc 00 c0
       2.2827234 0.5500757 2.20643 -2.0124514
000170 b2 d7 00 40 5a 3a 18 3f 71 b3 07 40 05 52 80 bf
       2.013165 0.5946404 2.1203272 -1.002503
000180 df 84 07 40 ed d7 5f 3f bd 49 f7 3f a4 6f 1e c2
       2.1174848 0.8743885 1.9319378 -39.609024
000190 28 e4 42 be 99 4a 4c 3e 60 74 0b 3d 67 4c 48 be
       -0.19032347 0.19950332 0.03404653 -0.19560395
0001a0 9d 33 3c be d1 17 10 3e 44 3e 82 bd 00 21 63 bc
       -0.18379064 0.14071585 -0.063595325 -0.013862848
0001b0 14 71 53 bd 57 c9 9c bd 88 4f 4b be cd f6 46 be
       -0.05162151 -0.0765559 -0.19854558 -0.19430085
0001c0 50 07 ba bc aa 3d be bd a0 4f d5 bd 72 76 db 3d
       -0.022708565 -0.09289105 -0.10415578 0.10715951
0001d0 d7 ea d2 bd d2 c8 a4 3d 48 1c 2b 3d ef 6b 38 be
       -0.102986984 0.08046116 0.041775018 -0.18009923
0001e0 18 a8 0d 3d d7 a2 d5 bd 78 42 01 bd f7 93 3f 3e
       0.034584135 -0.1043145 -0.03155753 0.18708788
0001f0 23 99 e6 bd 89 b8 28 3f 56 ce ec 3e c2 10 36 3f
       -0.11259677 0.6590658 0.46251172 0.7111932
000200 bd 0d 36 3f b6 8c 04 bf f5 0c 2a 3f ae dd 2f bf
       0.7111471 -0.5177721 0.6642602 -0.6869763
000210 fd 07 f0 3e 80 a6 d2 be 78 ab 2b 3f c5 87 33 3f
       0.46881095 -0.41142654 0.67058516 0.7012904
000220 bc 2c f0 3e 3b 97 04 bf ec 84 f6 3e ea 89 49 bf
       0.4690913 -0.5179326 0.48148286 -0.78726065
000230 76 39 21 3f 0a 31 22 bf 8b 3c d0 3e b4 2f 27 bf
       0.62978303 -0.6335608 0.4067119 -0.65307164
000240 58 1a 14 3f 79 94 f7 be da ee 4b 3f 78 9c 4c 3f
       0.578527 -0.48355463 0.79661334 0.7992625
000250 59 29 d2 3e 1f 04 0a 3f c2 51 ea 3d 20 2a 27 3c
       0.4104717 0.5391254 0.11441375 0.0102029145
000260 a8 de 94 bc 61 9e 1a 3e 0f 77 41 be 20 78 67 3c
       -0.018172577 0.1509948 -0.18893073 0.014127761
000270 55 b2 4c be a0 8f 08 bc 27 18 b8 bd ad 1d 15 3e
       -0.19989903 -0.008335024 -0.08988982 0.14562102
000280 80 3b 09 3d 66 4f 23 be 74 5c 06 bd ca 7a 82 3d
       0.03350401 -0.15948257 -0.032803014 0.063710764
000290 2d 1d 1a 3e 31 ca 44 3e 88 3a 38 bd 2b 23 04 3e
       0.15050192 0.19217755 -0.044977695 0.1290404
0002a0 e2 cf cb 3d f2 1a 14 be 20 34 18 3d 18 2e ff 3c
       0.0995176 -0.14463404 0.037159085 0.031149909
0002b0 98 c1 88 bc 58 dd bb 3c 3b 26 1d be 0c 0d 30 3d
       -0.016693875 0.022932693 -0.15346615 0.042981192
0002c0 b9 7d 1d 3e 0e eb 9e 3d 9d 4c e6 bd 77 d9 3f be
       0.1537999 0.07759677 -0.112450816 -0.187353
0002d0 94 94 68 bd 57 ab e4 bd f7 60 d6 bd 79 7e 3e 3e
       -0.05678232 -0.11165493 -0.10467713 0.18602933
0002e0 b4 6a 51 3d 6c ea 50 3d 46 b3 cd 3d 32 fb 42 be
       0.05112715 0.051004812 0.10043959 -0.19041136
0002f0 94 44 68 bd da b0 d5 3d 91 eb 1e 3e 04 11 5e 3d
       -0.056706026 0.104341224 0.15519549 0.054215446
000300 be 9a 89 3d b9 05 26 3e 60 5a 91 bd a0 01 97 bd
       0.06718968 0.1621312 -0.07097316 -0.07373357
000310 00 78 33 ba 58 f0 2d 3d b8 02 47 bd 10 c6 d0 3c
       -0.00068461895 0.042465538 -0.048586577 0.025485069
000320 e0 e2 23 3d 0e 66 09 be 23 49 39 be e6 c3 18 be
       0.040011287 -0.13417837 -0.18094306 -0.1491848
000330 7a a0 c8 bd fa 11 f0 3d 68 4a c6 3c 20 32 48 3d
       -0.097962335 0.11722179 0.024205402 0.048875928
000340 d0 5d 09 bc ba c8 b3 3d 29 7b 05 3e 18 c5 a5 3c
       -0.008384183 0.0877852 0.13035263 0.020235583
000350 66 50 28 be e5 08 37 be 92 25 ed 3d 3b 24 4b 3e
       -0.1643692 -0.17874487 0.115794316 0.1983804
000360 a8 44 28 bd 00 dc b1 b9 a9 16 32 3e 6b e7 4a 3e
       -0.0410811 -0.00033923984 0.17391457 0.19814841
000370 1c 80 95 bd 88 62 38 be 25 13 3c 3e a3 16 f0 bd
       -0.072998255 -0.18006337 0.18366678 -0.117230676
000380 b0 73 7b 3c 7a 92 cc bd 3c 4c 84 bd e0 e1 50 bd
       0.015347406 -0.09988876 -0.06459853 -0.05099666
000390 5c 35 51 3d b6 79 91 bd 2c 99 7b bd 60 f4 16 be
       0.051076278 -0.07103293 -0.061425373 -0.14741659
0003a0 e3 06 19 be 93 bd 38 be 13 f7 28 3e 82 73 cb 3d
       -0.14944033 -0.18041067 0.16500501 0.09934141
0003b0 61 b7 4a 3e 55 67 38 be ec 50 16 bd c3 6d e9 bd
       0.19796516 -0.18008168 -0.036698267 -0.113978885
0003c0 26 a2 8f 3d 30 f9 a6 bd 5a f6 a8 3d 80 ba 66 bc
       0.07013349 -0.081529975 0.08250113 -0.014082551
0003d0 5d bf 9c bd 69 ff 14 3e d8 6a fb 3c 60 f1 b4 bd
       -0.07653687 0.14550556 0.030690596 -0.08835101
0003e0 a0 35 08 3d ee f8 26 be a6 c6 27 3f a2 01 11 3f
       0.033254266 -0.16305897 0.6553749 0.56643116
0003f0 43 7a 1e 3f 52 32 04 3f 3c 3b 08 bf ac 5f fe 3e
       0.61905307 0.5163928 -0.53215384 0.49682367

bias f4 [20]
000000 b0 e3 24 3c 14 f2 da be e4 23 5d 3d d3 76 d6 be
       0.010064051 -0.42762816 0.053989306 -0.4188753
000010 92 01 df 3d 84 c8 42 bf 67 8a d9 bd bb 5a 37 3e
       0.108889714 -0.7608721 -0.10622101 0.17905705
000020 60 53 c4 bd 7a b0 ca 3d 95 f0 e5 be 6e 19 40 bf
       -0.09586215 0.098969415 -0.44910112 -0.750388
000030 16 3e de be f6 75 e0 bf d7 c8 e9 bd ad 6e 9c bd
       -0.43406743 -1.7535999 -0.1141526 -0.07638297
000040 21 27 42 be 1c 5e 7b 3d 1b 84 3e 3e a1 ad 33 3e
       -0.18960239 0.061369047 0.18605082 0.17546703

weight f4 [10, 20]
000000 f0 17 2f be ac 8f 47 bd 8c 7a 1c bd 5b a3 02 c0
       -0.17098975 -0.048721 -0.038202807 -2.0412204
000010 68 45 0d be c8 58 98 bc 1c 35 3d be 3b 67 3c be
       -0.13796008 -0.018597022 -0.18477291 -0.18398754
000020 40 c6 4a bb ae fe 13 3e 96 43 43 be 50 80 ee bd
       -0.003094092 0.14452621 -0.1906875 -0.116455674
000030 b7 63 e5 bf bf 24 00 c0 14 62 b0 bd a5 d7 e0 bd
       -1.7921056 -2.0022428 -0.08612457 -0.10978631
000040 d1 c4 d2 bf 00 cd 59 3a f4 fa 59 bd 3f 36 e1 bd
       -1.6466314 0.00083084404 -0.053217843 -0.10996675
000050 96 84 01 3e 48 a2 02 be 4a bb c9 bd d4 54 80 bd
       0.12648234 -0.12757218 -0.09850176 -0.0626618
000060 98 2d 91 3d b4 d0 07 3e 01 7c 5d be 35 41 3a be
       0.070887744 0.13263208 -0.21629335 -0.18188937
000070 40 ff 4a bd 38 fc 3f bd 10 5d d9 3d ee 6c 0a be
       -0.04955983 -0.046871394 0.106134534 -0.13518116
000080 e1 88 5c be 94 16 38 be fe 99 a0 bd 32 b2 06 3e
       -0.2153659 -0.17977363 -0.07841872 0.13153914
000090 5b ab 29 be b7 4d 55 be 70 cb 1c 3e 70 8d 73 3d
       -0.16569273 -0.20830427 0.1531198 0.059461057
0000a0 1e 87 cf bd 6e 78 85 bd 90 ab f0 3d 28 b3 0f c0
       -0.101331934 -0.06517111 0.11751473 -2.2453098
0000b0 f6 c6 15 3e 90 c0 8b 3d b4 9a 63 bd f1 08 63 be
       0.14626679 0.06823838 -0.05556746 -0.2217138
0000c0 a4 9d 3f be a4 eb ab 3d 00 18 1b be 32 e3 21 be
       -0.18712479 0.08394554 -0.15145874 -0.15809324
0000d0 e5 e7 06 c0 bd c7 0c c0 b8 7b 8e bd 84 b6 c2 3d
       -2.1079037 -2.199691 -0.06957191 0.09507468
0000e0 d5 f5 00 c0 5f cb d7 bd 9e 01 c6 bd c0 55 c8 3b
       -2.0150044 -0.10536837 -0.09668277 0.006113738
0000f0 e6 89 64 be 06 c4 5a 3e 69 ee 08 be 98 b0 ff bf
       -0.22318229 0.2136384 -0.13372196 -1.9975767
000100 f8 d5 5d 3e 18 0c 55 be d2 c5 a0 bd 76 b7 ac bd
       0.21663654 -0.20805395 -0.07850231 -0.0843343
000110 50 25 c8 3d da c8 a5 bd ff a5 d4 bd 36 06 32 3e
       0.09772742 -0.0809495 -0.10383224 0.17385182
000120 07 9a 27 be e0 86 13 bd ce 1f 5c be 24 ef 86 bd
       -0.1636735 -0.0360173 -0.21496508 -0.06588581
000130 d6 9d 3c 3e 0e d3 58 be 3b 81 33 be 14 ee 52 bd
       0.18419585 -0.21174261 -0.17529766 -0.05149658
000140 80 bb b8 bb 57 91 44 be 6c 74 13 3e 5d 1f d7 bf
       -0.005637586 -0.19196068 0.1439988 -1.6806446
000150 d0 2b 18 3e 00 d5 07 bb dd c9 ee bd 24 3c 0e 3e
       0.14860463 -0.0020726323 -0.11659596 0.1389013
000160 58 12 10 3e 08 1d 0e 3d c3 f5 e0 bd 29 74 fa bd
       0.14069498 0.034695655 -0.10984375 -0.12229187
000170 7d b7 01 c0 b8 12 27 3d 40 32 ca 3d 40 f3 91 bc
       -2.0268242 0.040789336 0.09872866 -0.017816186
000180 c2 43 04 c0 a0 e0 93 3d cc ea bb 3d 8e a8 c5 bd
       -2.0666356 0.07220578 0.09175643 -0.0965129
000190 ea 2e 1f be e0 60 11 bf 20 af 11 3e 2c 24 05 bf
       -0.1554524 -0.56788445 0.14226961 -0.5200832
0001a0 de dd 17 3e c5 27 42 bf a0 af 07 3d 70 6b 5d bc
       0.1483073 -0.75841933 0.033126473 -0.013514385
0001b0 32 22 89 bd c8 b6 5c be 98 bb 39 bf 00 5e 37 bf
       -0.06695975 -0.215541 -0.7255187 -0.7162781
0001c0 d2 55 39 bf 2c 88 2e bf b0 1e 16 3e e0 1a 63 3d
       -0.72396576 -0.6817653 0.14660144 0.055445552
0001d0 3f 04 2f bf b0 ed f2 3d de b1 26 be a0 5a 68 3c
       -0.68365854 0.118617415 -0.16278788 0.014181763
0001e0 e3 df ee bd da 4c 28 3f 88 56 d2 3c 03 f4 23 41
       -0.11663797 0.65742266 0.025676027 10.247073
0001f0 f8 90 c1 bd 55 12 04 3f 18 2f 90 bd 7a 90 47 be
       -0.09451479 0.5159047 -0.070402324 -0.19488707
000200 98 98 cc 3c 26 24 2f 3e 04 8a 31 3f ac c9 1b 3f
       0.024975106 0.17103633 0.6935122 0.608546
000210 22 f7 d3 40 cb 4c fc 40 48 42 47 3e b0 d1 77 bd
       6.6239176 7.884374 0.19458878 -0.060502708
000220 58 dc 0b 41 18 f2 b2 bc 3c a4 12 3e 4c 70 62 3e
       8.741295 -0.021843955 0.14320463 0.2211315
000230 fa 89 0a 3e ac 97 4b 3e e4 7d 4a 3e 7a a0 30 c0
       0.13529196 0.19882077 0.19774586 -2.7597947
000240 a8 88 15 3d 10 21 18 3e 00 35 3b ba a9 8b 32 be
       0.03650728 0.14856362 -0.00071413815 -0.17436089
000250 90 1d da 3c f9 fe 2b be e8 b8 14 3e 40 50 a6 bc
       0.026625425 -0.16796483 0.14523661 -0.020301938
000260 2d 82 2e c0 96 64 36 c0 51 09 34 be bb 66 64 be
       -2.7266953 -2.8498893 -0.17581679 -0.22304814
000270 13 f1 16 c0 1a 60 93 bd 50 3a 8c 3d d0 42 41 bd
       -2.358464 -0.07196064 0.0684706 -0.047182858
000280 82 2e 39 3e 9f 96 16 3f 52 b2 10 3e 86 8f 24 41
       0.18084148 0.5882358 0.14130524 10.28504
000290 58 2d b1 3d 9c 64 ef 3e ef 8f 4a be 88 e8 94 3d
       0.08651227 0.46756446 -0.19781469 0.07270914
0002a0 8c ff 53 bd f6 9b 20 3e e2 82 c6 3e 2b 3a d5 3e
       -0.05175738 0.15684494 0.3877173 0.4164594
0002b0 d7 47 da 40 15 31 00 41 47 07 39 be a3 b0 5f be
       6.8212695 8.011983 -0.18069182 -0.21844725
0002c0 e9 b8 0a 41 d2 4c 5a 3e c3 db 46 be 38 ac 01 be
       8.670144 0.21318367 -0.1941977 -0.12663352
0002d0 14 5b 61 be 16 03 27 3f f6 31 ad bd 0d b5 23 41
       -0.220074 0.65239084 -0.08456795 10.231702
0002e0 6a 2f 1e 3e de d4 cf 3e 58 00 ad bd 60 a7 93 3b
       0.15447775 0.40592092 -0.08447331 0.0045060366
0002f0 00 c6 c3 bd a8 92 b5 bc 99 52 09 3f 69 1b 42 3f
       -0.0955925 -0.022164658 0.5364166 0.75823075
000300 b0 80 d2 40 c9 05 00 41 12 70 5f be 68 ce ae 3d
       6.578209 8.001412 -0.21820095 0.085354626
000310 30 1a 0c 41 08 fd d1 bc 68 32 e8 bc ae 77 36 3e
       8.756393 -0.02563335 -0.028344348 0.17819092

bias f4 [10]
000000 a4 b6 d9 bf c8 95 6f bd d0 92 09 c0 5d 81 ef bf
       -1.7008862 -0.058492452 -2.1495857 -1.8711354
000010 9b 1f f0 bf 34 a8 c6 be ab b8 a9 3f 30 da 2c c0
       -1.8759645 -0.38800204 1.3259481 -2.700817
000020 2f 11 d5 3f 01 1a d8 3f
       1.6645869 1.6882936

weight f4 [10, 10]
000000 e3 c9 83 3e 54 dc 90 be 88 25 e8 bd a0 33 80 bc
       0.25739965 -0.28293097 -0.113352835 -0.015649617
000010 aa 64 33 3e 52 6f 17 bf dd 15 27 bf 0a 51 5e 3e
       0.17518869 -0.59154236 -0.65267736 0.21710601
000020 2b 4e 1f bf bb 0c 14 bf 1c 52 8d be 58 08 7c bd
       -0.6222865 -0.57831925 -0.27601707 -0.061531395
000030 dd 04 85 3e 98 4f 46 3d a6 bd 0e be 60 55 43 bf
       0.25980273 0.04841575 -0.13939533 -0.76302147
000040 8e 7a 24 bf 7e 3b 28 be ee 7c 49 bf a3 2f c0 be
       -0.64249504 -0.16428944 -0.7870625 -0.37536344
000050 06 aa ff 3f 88 38 7a 3d 89 6e f3 bf 80 ea 05 40
       1.9973762 0.06108907 -1.9018108 2.0924377
000060 d9 1f 06 c0 5f b2 27 be 39 c3 0a 41 c1 d5 26 c0
       -2.0956938 -0.16376637 8.672662 -2.6067965
000070 b3 4a 09 41 db 47 09 41 80 8c 6e bc 9c 88 66 be
       8.580737 8.580043 -0.014559865 -0.2251305
000080 74 ba b0 3d 14 ed ea 3d b6 f3 26 3e 01 31 94 3e
       0.08629313 0.11471 0.16303906 0.28943637
000090 f8 69 63 bd fc f3 2d be 0d d7 90 3e ed 80 8a be
       -0.05552098 -0.16987604 0.2828907 -0.27051488
0000a0 9e 20 c4 3f a8 05 82 be 83 e7 03 c0 19 96 d3 3f
       1.5322454 -0.2539494 -2.0610054 1.6530181
0000b0 25 bd d4 bf 92 4f 84 be b6 13 06 41 58 fb 13 c0
       -1.6620222 -0.25841957 8.379812 -2.3122158
0000c0 a7 3a 07 41 0e 9a 0a 41 70 66 07 be b2 d0 7e 3e
       8.451819 8.662611 -0.1322267 0.24884298
0000d0 cb 4e 9a 3e ec d4 98 bd a8 8c e4 bd b0 98 40 bf
       0.3013824 -0.074624866 -0.111596406 -0.7523298
0000e0 95 ba cc be 48 1e 92 3d d0 63 56 bf 2b 43 67 bf
       -0.399861 0.07134682 -0.8374605 -0.90336865
0000f0 86 03 4f 3e 90 81 1e 3d 40 cb 12 3d 83 f3 3f be
       0.20216188 0.03869778 0.035838366 -0.18745236
000100 06 68 08 3e cb 2a 9c be 10 1d 18 bd 05 a8 8e be
       0.13320932 -0.30501398 -0.03713709 -0.27862564
000110 c8 6d 01 bd 10 ed 22 bd 9a de 79 be 1e 3f 04 be
       -0.031598836 -0.03977686 -0.24401322 -0.12914702
000120 ba 14 20 3e 80 59 04 3b 00 96 47 3d 67 0c a0 be
       0.15632907 0.0020194948 0.048727036 -0.31259462
000130 76 38 5b bf ea f7 5a 3e 78 f0 ec be 29 33 fc be
       -0.8563303 0.21383634 -0.46277213 -0.49257782
000140 b8 0a b9 bd 40 f7 f9 3b 0f 63 89 3e b6 ea 28 3e
       -0.090352476 0.0076283514 0.26833388 0.16495785
000150 94 d5 10 3e 95 9b 30 bf 74 a4 12 bf cc 30 51 be
       0.14143974 -0.689874 -0.57282186 -0.20428771
000160 45 1f 4b bf 78 5d db be 85 27 f5 3f 39 f5 8b 3e
       -0.7934459 -0.42844748 1.9152685 0.27335528
000170 87 cc 16 c0 ad f7 ce 3f d4 0a da bf 6e 9a b2 3e
       -2.3562334 1.6169335 -1.7034554 0.34883446
000180 31 33 07 41 9a 21 22 c0 bb e2 09 41 c7 90 0a 41
       8.449998 -2.5333009 8.617854 8.660346

bias f4 [10]
000000 b1 0d c2 be 23 7d 9b be 9d 31 0f 40 d3 f5 80 be
       -0.3790107 -0.3036891 2.2374032 -0.2518755
000010 21 08 16 40 37 31 b3 be 1e a2 d0 bd bf 62 cf be
       2.3442461 -0.34998485 -0.101871714 -0.40505025
000020 0e 4b 02 bf 5c 7b 46 40
       -0.50895774 3.1012793

weight f4 [1, 10]
000000 60 86 d8 3e c6 73 b1 3e 89 9f 08 41 40 48 ef bc
       0.4229002 0.3465864 8.538949 -0.029209256
000010 ed f0 08 41 c0 b0 a0 3e 17 81 14 be 01 3c c3 3e
       8.55882 0.3138485 -0.14502369 0.38131717
000020 e7 b0 e5 3e 12 ef 0a 41
       0.44861528 8.683367
