mwo/models/trained_vfa_models/model_two_opt_only.pth (torch_old, 23388 bytes, 9 tensors)

weight f4 [40, 25]
-0.17034124 0.6028845 -0.06642948 -0.17807874 0.2841348 0.11090439 0.19470546 0.030388156
0.22266643 -0.34391153 0.2780671 -0.027258828 0.6134473 0.3433692 0.3272554 0.33630374
0.35893536 0.29390815 0.3229419 0.7064756 0.1210293 -0.30212224 0.20361796 0.22536092
-1.5909526 -0.6907597 -1.2947836 0.4213716 0.6097914 -0.12599821 -0.06344954 0.50256866
-0.21400562 0.024627294 -0.2422428 0.45467865 0.18441284 -0.16162664 -0.35851938 -0.59886396
-0.068884134 -0.38177696 0.07879969 -0.44388008 0.046754085 -0.33221352 -0.17911556 -0.28251055
-0.13876116 -1.8439955 -0.24288687 0.79966295 -0.076956205 -0.070790045 0.24073434 -0.05613386
0.10441366 -0.2553025 0.3524955 -0.42736238 0.06833351 -0.0990592 0.4673224 0.29206777
0.048837062 0.18682618 0.49999207 0.29658464 0.2933803 0.38244203 -0.069788344 -0.09457912
0.05103655 -0.057326227 -1.6643145 -1.1892946 -0.9874613 0.020210732 0.57363707 -0.3969791
-0.3608417 -0.0151004065 -0.34728277 0.11512777 0.003949491 0.14232814 0.49666718 -0.7460092
-0.6977932 -0.9527216 -0.17535053 -0.38435376 0.12538306 -0.31300312 -0.1246834 -0.36966217
-0.14342754 -0.47142836 0.19504605 -1.8099661 -0.3581722 0.5013177 -0.04090954 -0.09077212
0.0756324 -0.32287034 0.27152792 -0.23389795 0.17749195 -0.2380263 0.37622002 -0.17071822
0.2983578 0.603146 0.27450094 -0.095517404 0.45314825 0.29706883 -0.046549298 0.83589405
0.087282926 -0.15271923 0.18700787 0.028333696 -1.6655161 -0.37257665 0.4984554 -0.15678647
-0.27193338 0.055332806 -0.006946596 -0.03618783 -0.019365896 0.41049612 -0.29730514 0.051819447
-0.09118384 0.038810965 0.14222537 0.05184716 0.20050663 0.45647132 -0.029129071 0.32733107
0.074271455 0.1298034 -0.06048113 0.15553884 0.13600123 -1.447043 -0.5505556 -1.1044395
0.4858392 0.57202435 -0.14017518 -0.22942853 0.37096378 -0.25706115 0.2417883 0.028439038
0.5374335 -0.040242553 -0.40915975 -0.593636 -0.83949447 0.11218259 -0.37487325 -0.11185634
-0.2031795 0.02279808 -0.43141618 0.14643085 -0.22264963 -0.21275221 -2.0488904 -1.0512304
-0.9705614 0.3181926 0.67066485 -0.20507286 -0.22823635 -0.066196494 -0.31153864 0.052783985
-0.064065464 0.08774376 0.23972434 -0.43555695 -0.68138176 -0.6521669 -0.5076188 -0.3024082
0.15825552 -0.15174389 0.1910038 -0.26359534 -0.18512912 -0.58595 0.12828071 -1.9697659
-0.16303091 0.53231645 -0.050682936 -0.020216927 0.22694711 -0.24052608 0.22436908 0.065107934
0.16476126 -0.4276461 0.27536762 -0.46357593 0.50503826 0.5165601 0.046535663 0.052405477
0.4416165 -0.15967374 0.19525732 0.8416833 0.26963857 -0.084239416 0.32167068 0.28420928
-1.7190783 -0.9080644 -0.38791183 0.05427619 -0.036884 0.007505523 -0.3418563 -0.093984686
-0.0859396 0.032200046 -0.1273897 0.54674697 -0.2631934 -0.17383994 -0.15441741 -0.09791031
0.3370336 0.23345365 0.15151934 0.2296331 0.31877297 0.10189945 0.08413384 -0.10290218
-0.22428824 -1.8180073 -0.99126977 -0.951323 0.18850386 0.6824575 0.019108754 -0.24228102
00000000: ef6d 2ebe a356 1a3f 2e0c 88bd 465a 36be
00000010: 1e7a 913e d721 e33d de60 473e 95f0 f83c
00000020: ab02 643e 2c15 b0be d05e 8e3e e84d dfbc
00000030: e20a 1d3f 16ce af3e 058e a73e 0130 ac3e
00000040: 60c6 b73e 217b 963e a458 a53e 96db 343f
00000050: 36de f73d c4af 9abe 3a81 503e 03c5 663e
00000060: 56a4 cbbf a1d5 30bf 78bb a5bf 05be d73e
00000070: 4a1b 1c3f ad05 01be d5f1 81bd 57a8 003f
00000080: 4a24 5bbe 2ebf c93c 7f0e 78be a4cb e83e
00000090: b8d6 3c3e 7481 25be da8f b7be 264f 19bf
000000a0: 2013 8dbd 4578 c3be bb61 a13d 4044 e3be
000000b0: 3681 3f3d e417 aabe 126a 37be 39a5 90be
000000c0: 6817 0ebe 0b08 ecbf 56b7 78be b6b6 4c3f
000000d0: 379b 9dbd 5ffa 90bd 1083 763e 9eec 65bd
000000e0: d4d6 d53d 02b7 82be 4a7a b43e 3ecf dabe
000000f0: 70f2 8b3d 8ddf cabd e244 ef3e e889 953e
00000100: 5f09 483d 5d4f 3f3e f6fe ff3e f1d9 973e
00000110: f135 963e 71cf c33e 31ed 8ebd b3b2 c1bd
00000120: b40b 513d e8ce 6abd 4208 d5bf ce3a 98bf
00000130: 44ca 7cbf fa90 a53c e1d9 123f d840 cbbe
00000140: 3ec0 b8be b267 77bc 0ccf b1be 1cc8 eb3d
00000150: bb6a 813b 78be 113e 294b fe3e 75fa 3ebf
00000160: 93a2 32bf 90e5 73bf 178f 33be 04ca c4be
00000170: 6b64 003e f241 a0be 035a ffbd 5c44 bdbe
00000180: abde 12be 0f5f f1be 27ba 473e f8ac e7bf
00000190: 5962 b7be 5b56 003f c390 27bd bce6 b9bd
000001a0: 29e5 9a3d 434f a5be b505 8b3e f282 6fbe
000001b0: 73c0 353e 2bbd 73be e99f c03e c2d0 2ebe
000001c0: 5bc2 983e c767 1a3f 638b 8c3e a19e c3bd
000001d0: 0c03 e83e 6819 983e 7aaa 3ebd 27fd 553f
000001e0: 64c1 b23d 6e62 1cbe fe7e 3f3e 111c e83c
000001f0: a22f d5bf 5ec2 bebe 8c35 ff3e a28c 20be
00000200: da3a 8bbe a7a4 623d 45a0 e3bb b139 14bd
00000210: 3aa5 9ebc 8c2c d23e 6138 98be a140 543d
00000220: 98be babd 3ff8 1e3d 87a3 113e b05d 543d
00000230: 9c51 4d3e 9cb6 e93e 17a0 eebc f097 a73e
00000240: a21b 983d 2feb 043e 10bb 77bd 9345 1f3e
00000250: e843 0b3e b438 b9bf 36f1 0cbf 465e 8dbf
00000260: eabf f83e 3070 123f 158a 0fbe 50ef 6abe
00000270: f7ee bd3e 859d 83be 5a97 773e fcf8 e83c
00000280: 3e95 093f 60d5 24bd 637d d1be 87f8 17bf
00000290: 1ce9 56bf fcbf e53d 63ef bfbe f014 e5bd
000002a0: 490e 50be 0ac3 ba3c 95e2 dcbe f8f1 153e
000002b0: 44fe 63be b7db 59be 0521 03c0 b88e 86bf
000002c0: b676 78bf 24ea a23e b1b0 2b3f 9ffe 51be
000002d0: cab6 69be 0792 87bd fe81 9fbe 0534 583d
000002e0: c134 83bd 00b3 b33d 4c7a 753e 5201 dfbe
000002f0: 096f 2ebf 69f4 26bf 4ef3 01bf 3fd5 9abe
00000300: bc0d 223e c062 1bbe 8096 433e f8f5 86be
00000310: 7d92 3dbe d200 16bf 055c 033e 4a21 fcbf
00000320: 93f1 26be e445 083f e998 4fbd f89d a5bc
00000330: d364 683e 784c 76be 02c1 653e 4f57 853d
00000340: 2db7 283e 6ef4 dabe fcfc 8c3e d359 edbe
00000350: 304a 013f 483d 043f 2e9c 3e3d 20a7 563d
00000360: 8f1b e23e 8381 23be 89f1 473e 8f78 573f
00000370: 110e 8a3e b785 acbd 05b2 a43e e183 913e
00000380: c20a dcbf e976 68bf 619c c6be b650 5e3d
00000390: ad13 17bd e4f0 f53b ca07 afbe 0b7b c0bd
000003a0: 1a01 b0bd 32e4 033d 7272 02be 9cf7 0b3f
000003b0: 49c1 86be 1903 32be 991f 1ebe 3385 c8bd
000003c0: ab8f ac3e 790e 6f3e e327 1b3e f024 6b3e
000003d0: 3636 a33e a9b0 d03d 5d4e ac3d 61be d2bd
000003e0: d1ab 65be 77b4 e8bf dbc3 7dbf e789 73bf
000003f0: 2807 413e 89b5 2e3f f689 9c3c 8418 78be

bias f4 [40]
1.0154253 1.2692527 1.3857822 1.3505644 1.275467 0.9783943 1.3673368 1.2585235
1.2276704 1.4575989 1.4155413 1.5370035 0.88518554 0.9772411 1.4866861 1.1467336
1.1388361 1.1892474 1.1324964 0.7064222 1.3844247 1.1205142 1.0987601 1.1241416
0.9799531 0.8864694 1.3888081 1.3679101 1.1534734 0.8912104 1.2449013 0.99693805
1.3837122 1.1320057 1.040744 1.1564362 0.9552794 1.4112856 1.4478767 1.2382237
00000000: 75f9 813f df76 a23f 5061 b13f 4bdf ac3f
00000010: 8142 a33f 0d78 7a3f e404 af3f 4c17 a13f
00000020: 4e24 9d3f 9a92 ba3f 7530 b53f 88bc c43f
00000030: 859b 623f 792c 7a3f bb4b be3f 2bc8 923f
00000040: 62c5 913f 4239 983f a4f5 903f 16d8 343f
00000050: d434 b13f 026d 8f3f 2ca4 8c3f dfe3 8f3f
00000060: 35de 7a3f a9ef 623f 77c4 b13f ae17 af3f
00000070: 04a5 933f 5d26 643f ed58 9f3f 5537 7f3f
00000080: 7b1d b13f 90e5 903f 1937 853f 1a06 943f
00000090: 318d 743f 02a5 b43f 0654 b93f 1d7e 9e3f

weight f4 [30, 40]
0.4262292 0.6074146 0.4835312 0.55339104 0.35230634 0.33149096 0.6005484 0.5704233
0.3635321 1.015435 0.7969291 1.1946021 0.5621524 0.40826282 0.55918276 0.53564996
0.8040705 0.38137892 0.911183 0.35058936 0.8693499 0.6732805 0.34360507 1.091441
0.31900737 0.47871447 0.36230272 0.70798826 0.61968046 0.43004352 0.5305399 0.5191499
0.92351234 0.54321885 0.40396717 0.4580647 0.39559922 1.1669601 0.6361926 0.4765456
0.16831808 0.4816807 0.3125599 0.34153014 0.3953603 0.42253658 0.7163201 0.6926441
0.28577566 0.8620657 0.81938416 0.9832609 0.29761425 0.2610462 0.37809545 0.17001708
0.54180276 0.19589105 0.9981932 0.33861446 0.62562054 0.41846174 0.17739885 1.0783906
0.26548406 0.37224552 0.25756904 0.44022012 0.31733546 0.43701985 0.27461153 0.26391715
0.8228811 0.19814885 0.110136956 0.51677465 0.33439207 0.9799122 0.44214872 0.27344602
0.48281756 0.7667419 0.33502033 0.5085026 0.57359993 0.35850924 0.7368616 0.6476711
0.53839666 0.78772 0.7520106 1.1972017 0.3324797 0.31233203 0.34409317 0.30420005
0.8616531 0.4001479 0.8469434 0.28958654 0.70325035 0.6315691 0.34162426 1.0013865
0.55132574 0.35356686 0.5026902 0.5288429 0.5248412 0.5759666 0.4270257 0.4044582
0.78392386 0.43298802 0.3538662 0.6400969 0.48753414 1.0786421 0.39382553 0.45734385
0.5249096 0.41944847 0.51816493 0.5442031 0.46446607 0.43549037 0.7222308 0.43739432
0.50112814 0.77234626 0.8236997 0.94307256 0.564767 0.34780613 0.2999473 0.4102202
0.80006456 0.48736233 1.1005862 0.56295264 0.78630567 0.5056024 0.37391588 0.8874448
0.35334978 0.45421517 0.39022547 0.49597296 0.45650247 0.4431716 0.30900383 0.56403005
1.0403504 0.5133572 0.44466758 0.41543007 0.35520846 1.0344518 0.37477836 0.46996707
-0.05430286 0.81443536 -0.40285903 1.5072305 -0.7668298 0.07336114 0.8796219 1.0580244
-0.506885 -0.6301788 0.55527854 0.27358952 0.039117206 0.16779713 -0.61664695 0.14455558
0.7499959 -0.23379184 0.41556117 -0.030898362 0.6555865 1.3140653 0.48954928 0.15813684
0.23010238 0.20690945 -0.35529855 -1.0030416 -0.37020233 -0.61540896 -0.058266543 -0.3082467
0.35705602 0.20631556 0.1770385 -0.98601645 0.30916464 0.21193968 1.4718986 -0.3486481
-0.3767173 0.43012682 -0.003065066 0.14471614 -0.2056582 -0.10374416 0.7689609 0.15275694
-0.11619467 0.45950848 0.22695047 0.16002046 0.06807773 0.043686237 -0.25401607 -0.37728763
0.3965424 -0.090135366 0.29784057 -0.05990255 0.5306116 0.9064755 -0.22875816 0.024267925
-0.0994352 -0.12144092 -0.27399227 -0.25293115 -0.04307267 -0.1239696 -0.45974362 -0.16966401
-0.17711033 0.007341779 -0.21013534 0.025193864 -0.21999872 0.1145036 0.23300825 0.05153764
0.24742062 0.6563336 -0.26468164 1.3893877 -0.6177506 0.21302211 0.5517097 1.168622
-0.38559073 -0.5014815 0.61452514 0.28922164 0.03885128 0.21030344 -0.6562507 0.053912323
00000000: b73a da3e 867f 1b3f 6791 f73e 09ab 0d3f
00000010: 7f61 b43e 2fb9 a93e 8abd 193f 4307 123f
00000020: e120 ba3e c6f9 813f 8c03 4c3f b9e8 983f
00000030: 38e9 0f3f d307 d13e 9a26 0f3f 5b20 093f
00000040: 90d7 4d3f 1944 c33e 4a43 693f 7380 b33e
00000050: b78d 5e3f 1c5c 2c3f 01ed af3e 57b4 8b3f
00000060: ef54 a33e 101a f53e be7f b93e b83e 353f
00000070: 61a3 1e3f aa2e dc3e 76d1 073f 02e7 043f
00000080: 4e6b 6c3f 6410 0b3f c9d4 ce3e 7587 ea3e
00000090: fb8b ca3e f35e 953f 85dd 223f c9fd f33e
000000a0: 935b 2c3e da9e f63e da07 a03e 0add ae3e
000000b0: aa6c ca3e b756 d83e c160 373f 2051 313f
000000c0: 3051 923e 56b0 5c3f 29c3 513f fdb6 7b3f
000000d0: e560 983e d9a7 853e ba95 c13e f518 2e3e
000000e0: 96b3 0a3f aa97 483e 9789 7f3f e05e ad3e
000000f0: ab28 203f 9e40 d63e 0ba8 353e b408 8a3f
00000100: 87ed 873e f796 be3e 17e0 833e 8864 e13e
00000110: cb79 a23e 11c1 df3e e299 8c3e 2620 873e
00000120: 56a8 523f 88e7 4a3e 7c8f e13d 584b 043f
00000130: 7035 ab3e 87db 7a3f 5161 e23e 1e01 8c3e
00000140: dd33 f73e 3249 443f c987 ab3e 3a2d 023f
00000150: 72d7 123f 868e b73e f6a2 3c3f c6cd 253f
00000160: 5dd4 093f 05a8 493f c483 403f e83d 993f
00000170: c73a aa3e fce9 9f3e fb2c b03e 1cc0 9b3e
00000180: 4c95 5c3f 30e0 cc3e 48d1 583f b044 943e
00000190: 3708 343f 83ae 213f 60e9 ae3e 6f2d 803f
000001a0: af23 0d3f b706 b53e 4eb0 003f 4062 073f
000001b0: fe5b 063f 8c72 133f 1da3 da3e 2515 cf3e
000001c0: 3caf 483f 9bb0 dd3e f32d b53e 64dd 233f
000001d0: 139e f93e f210 8a3f 80a3 c93e f928 ea3e
000001e0: 7a60 063f f3c1 d63e 75a6 043f e550 0b3f
000001f0: 7fce ed3e 98f8 de3e 1ee4 383f 26f2 df3e
00000200: ef49 003f 7cb8 453f fcdd 523f 346d 713f
00000210: 9294 103f a513 b23e b192 993e 6208 d23e
00000220: 08d1 4c3f 8e87 f93e 02e0 8c3f aa1d 103f
00000230: 544b 493f 296f 013f e771 bf3e 952f 633f
00000240: 43ea b43e e48e e83e a2cb c73e 2bf0 fd3e
00000250: b1ba e93e 63e7 e23e c035 9e3e 4664 103f
00000260: 342a 853f 616b 033f 78ab e33e 40b3 d43e
00000270: e2dd b53e eb68 843f f3e2 bf3e 869f f03e
00000280: ad6c 5ebd d67e 503f 8a43 cebe eeec c03f
00000290: f54e 44bf 5e3e 963d e72e 613f 586d 873f
000002a0: 37c3 01bf 6653 21bf bc26 0e3f ed13 8c3e
000002b0: 5d39 203d 03d3 2b3e 93dc 1dbf 6106 143e
000002c0: bbff 3f3f 2167 6fbe 6fc4 d43e 901e fdbc
000002d0: 84d4 273f 4b33 a83f 34a6 fa3e a0ee 213e
000002e0: f59f 6b3e 12e0 533e b1e9 b5be ab63 80bf
000002f0: 298b bdbe 718b 1dbf e6a8 6ebd 83d2 9dbe
00000300: 0cd0 b63e 6344 533e 9549 353e 936b 7cbf
00000310: d44a 9e3e b706 593e 2c67 bc3f 0182 b2be
00000320: 17e1 c0be 9539 dc3e 46df 48bb 7830 143e
00000330: 1098 52be d177 d4bd 9fda 443f 516c 1c3e
00000340: 79f7 edbd b244 eb3e b465 683e 67dc 233e
00000350: 566c 8b3d 57f0 323d 650e 82be d82b c1be
00000360: 9b07 cb3e e498 b8bd 8f7e 983e 605c 75bd
00000370: 29d6 073f c70e 683f 943f 6abe 87cd c63c
00000380: afa4 cbbd 04b6 f8bd b748 8cbe 3180 81be
00000390: f86c 30bd c6e3 fdbd 8463 ebbe 67bc 2dbe
000003a0: 695c 35be 4e93 f03b b82d 57be 5d63 ce3c
000003b0: 5847 61be dd80 ea3d b799 6e3e 2219 533d
000003c0: d55b 7d3e 7b05 283f 5a84 87be 75d7 b13f
000003d0: e724 1ebf 7822 5a3e d93c 0d3f 6895 953f
000003e0: 266c c5be 1761 00bf 8551 1d3f dc14 943e
000003f0: 8522 1f3d c959 573e 0c00 28bf 2bd3 5c3d

bias f4 [30]
0.53154874 0.70261955 0.4869323 0.61742413 1.386405 0.53474224 1.3122437 0.70717275
0.816592 0.4854435 0.66259253 0.81339484 0.6385841 0.76439714 0.71111745 0.7682199
0.7583199 0.5119211 0.73482656 0.76899266 0.7287029 0.62910557 0.5793458 0.6210194
0.4734691 0.52212787 1.1534722 0.7832209 0.6675114 -0.006819482
00000000: 9413 083f e0de 333f 314f f93e 820f 1e3f
00000010: b875 b13f dee4 083f 9af7 a73f 4609 353f
00000020: 2c0c 513f 0d8c f83e aa9f 293f a53a 503f
00000030: 3f7a 233f 88af 433f cb0b 363f 0faa 443f
00000040: 4121 423f 430d 033f 981d 3c3f b4dc 443f
00000050: 468c 3a3f 100d 213f 0250 143f 21fb 1e3f
00000060: 8b6a f23e 2caa 053f faa4 933f 2a81 483f
00000070: 07e2 2a3f f675 dfbb

weight f4 [20, 30]
0.49122792 0.37264884 0.44327492 0.51449 -2.1626623 0.9245618 -2.0247183 0.40897167
0.97112364 0.47934726 0.35769427 1.0314806 -0.5655544 0.5212146 0.3571794 0.4203175
0.54101497 0.546484 0.48477057 -0.90908015 0.4678035 0.51851636 0.30593482 0.39080933
0.57702696 0.3358491 -2.6348042 1.089501 1.036389 0.15613641 0.029729601 0.3346346
0.14560512 0.3242763 -2.0623984 0.86964965 -2.038835 0.30491406 0.9988879 0.33925796
0.18099813 1.1626374 -0.37452587 0.36355567 0.34139153 0.35252705 0.21440344 0.077759095
0.14553235 -0.8339774 0.21967292 0.15456054 0.18957824 0.20322427 0.15941654 0.16880076
-2.5580726 1.1220182 1.0526744 -0.1678589 0.597331 0.55195266 0.39946187 0.5699702
-2.1283605 0.75667804 -2.2149615 0.4030144 1.2449886 0.17351231 0.3538156 1.2980833
-0.30095363 0.45712665 0.47250932 0.28431195 0.33758527 0.4955938 0.3070578 -0.8429526
0.31118 0.29972795 0.43580332 0.2900009 0.405886 0.30495775 -2.6567247 1.167143
0.9106572 -0.24351865 0.14408521 0.08257071 -0.19551215 -0.104742296 -0.11363922 0.10635382
-0.17387289 0.011078771 0.11222762 0.05131097 0.07967134 -0.17589039 0.01630652 0.050827272
-0.16503999 -0.10834997 -0.09218068 -0.1392481 -0.19882537 0.08509886 0.019017374 -0.032920357
-0.1658359 -0.038467456 0.10374871 0.099277206 0.16095315 0.021439105 -0.038812444 -0.076006755
0.51236993 0.37546557 0.50388706 0.48090994 -2.252563 1.0825533 -2.1883705 0.32996863
1.4060163 0.34214216 0.49501896 1.4899389 -0.46007836 0.4586666 0.43408147 0.29514512
0.45302945 0.5666909 0.51169455 -0.8795818 0.4407136 0.26275417 0.45136666 0.3939457
0.35244977 0.560347 -2.5824313 1.0314645 1.0359697 -0.13263409 0.6217282 0.2951203
0.51093537 0.6336436 -2.1954992 0.8456692 -2.2767785 0.41903818 1.1999092 0.18462637
0.5292824 1.1740383 -0.49966973 0.47350743 0.446487 0.56905377 0.6206425 0.30549365
0.27695626 -0.76250833 0.5660214 0.41394493 0.57319736 0.6332844 0.63057745 0.36761162
-2.765375 0.8883869 1.0509256 0.1838197 -0.11784616 -0.04459926 -0.11300352 -0.10869866
-0.044700533 -0.014388576 -0.10130526 -0.19425966 0.15232204 0.034113124 0.14016424 0.08216042
0.021083068 0.11051844 -0.01945448 -0.1725026 -0.14878638 -0.08178883 0.05733645 0.12455269
-0.05163457 0.07074686 0.073179156 -0.05975545 -0.0998051 0.15338688 -0.026520967 0.04867147
0.051473156 0.0009782852 0.3826375 0.35239124 0.36830744 0.39660642 -2.376168 0.8150667
-2.2983613 0.2581318 1.0501102 0.48701447 0.6010446 0.99125963 -0.48311463 0.53027785
0.42683372 0.39663184 0.62698 0.54358304 0.545362 -1.0205994 0.28612557 0.5406762
0.38042808 0.3937036 0.48986804 0.45365068 -2.6241963 0.8843174 0.98935574 -0.11608906
-0.08616323 -0.15830308 -0.05022923 -0.092176035 0.18912531 0.010151938 0.10654121 0.052798357
-0.045432378 -0.16192745 -0.19685708 -0.13515706 0.10716723 0.04729373 -0.019568417 0.10096752
00000000: 3a82 fb3e d4cb be3e eef4 e23e 9eb5 033f
00000010: 0f69 0ac0 15b0 6c3f fc94 01c0 bc64 d13e
00000020: 8f9b 783f 016d f53e b423 b73e 8e07 843f
00000030: 2cc8 10bf 526e 053f 38e0 b63e db33 d73e
00000040: f57f 0a3f 60e6 0b3f d933 f83e 7ab9 68bf
00000050: f183 ef3e 7dbd 043f 7da3 9c3e 2918 c83e
00000060: 0ab8 133f 6af4 ab3e a2a0 28c0 c574 8b3f
00000070: 65a8 843f 39e2 1f3e 7e8b f33c 3a55 ab3e
00000080: 8219 153e 8b07 a63e 56fe 03c0 5ca1 5e3f
00000090: 467c 02c0 b21d 9c3e 1eb7 7f3f 38b3 ad3e
000000a0: 9357 393e 4dd1 943f dbc1 bfbe f823 ba3e
000000b0: dfca ae3e 6d7e b43e 938c 5b3e 2940 9f3d
000000c0: 6f06 153e 8b7f 55bf f0f1 603e 1e45 1e3e
000000d0: cc20 423e 061a 503e 173e 233e 1bda 2c3e
000000e0: 76b7 23c0 4b9e 8f3f 09be 863f 34e3 2bbe
000000f0: afea 183f c54c 0d3f 4486 cc3e 91e9 113f
00000100: 0f37 08c0 a7b5 413f eec1 0dc0 e757 ce3e
00000110: c95b 9f3f 36ad 313e 5127 b53e 9827 a63f
00000120: 9816 9abe 810c ea3e beec f13e 5691 913e
00000130: fad7 ac3e 78be fd3e ae36 9d3e becb 57bf
00000140: fc52 9f3e f175 993e 9d21 df3e ff7a 943e
00000150: 4ad0 cf3e 6c23 9c3e c707 2ac0 f164 953f
00000160: d520 693f f45c 79be 138b 133e d51a a93d
00000170: 5634 48be 2183 d6bd aebb e8bd 08d0 d93d
00000180: bc0b 32be bc83 353c 98d7 e53d 742b 523d
00000190: ba2a a33d 9c1c 34be 4095 853c 4230 503d
000001a0: 3e00 29be 97e6 ddbd 39c9 bcbd 0e97 0ebe
000001b0: e198 4bbe 5048 ae3d 53ca 9b3c 7fd7 06bd
000001c0: e3d0 29be 0d90 1dbd 347a d43d d951 cb3d
000001d0: e7d0 243e 10a1 af3c ccf9 1ebd 6ea9 9bbd
000001e0: ad2a 033f 063d c03e befe 003f d439 f63e
000001f0: fe29 10c0 1b91 8a3f 430e 0cc0 a6f1 a83e
00000200: 58f8 b33f 422d af3e 2073 fd3e 51b6 be3f
00000210: 648f ebbe 59d6 ea3e ed3f de3e 431d 973e
00000220: 7af3 e73e a812 113f 6afe 023f 462c 61bf
00000230: 37a5 e13e b787 863e 8819 e73e 40b3 c93e
00000240: 4c74 b43e e772 0f3f 8e46 25c0 0707 843f
00000250: a89a 843f 3bd1 07be 9429 1f3f 021a 973e
00000260: a9cc 023f 7836 223f 0f83 0cc0 c77d 583f
00000270: bdb6 11c0 2c8c d63e a096 993f b20e 3d3e
00000280: 0d7f 073f e346 963f b6d4 ffbe 916f f23e
00000290: f299 e43e 82ad 113f 6de2 1e3f aa69 9c3e
000002a0: 36cd 8d3e bf33 43bf c7e6 103f 97f0 d33e
000002b0: 10bd 123f ed1e 223f 866d 213f 9737 bc3e
000002c0: e7fb 30c0 536d 633f bb84 863f 3b3b 3c3e
000002d0: 5459 f1bd b7ad 36bd 646e e7bd 679d debd
000002e0: e817 37bd 10be 6bbc 2279 cfbd 01ec 46be
000002f0: 4ffa 1b3e 34ba 0b3d 3787 0f3e b943 a83d
00000300: 66b6 ac3c 7e57 e23d 005f 9fbc 86a4 30be
00000310: 755b 18be e780 a7bd a0d9 6a3d 7b15 ff3d
00000320: c57e 53bd bbe3 903d f4de 953d 21c2 74bd
00000330: 9e66 ccbd 7311 1d3e 8042 d9bc bc5b 473d
00000340: 84d5 523d ce39 803a 10e9 c33e a06c b43e
00000350: cb92 bc3e ff0f cb3e 2313 18c0 36a8 503f
00000360: 5a18 13c0 da29 843e 036a 863f f659 f93e
00000370: 0fde 193f 31c3 7d3f cd5a f7be 4ac0 073f
00000380: f389 da3e 5413 cb3e c381 203f 4228 0b3f
00000390: d89c 0b3f 00a3 82bf 0d7f 923e c169 0a3f
000003a0: 78c7 c23e 8593 c93e fccf fa3e e744 e83e
000003b0: d5f2 27c0 a062 623f 6b46 7d3f 1ac0 edbd
000003c0: 5976 b0bd 341a 22be 2abd 4dbd cac6 bcbd
000003d0: 11aa 413e 5054 263c 4732 da3d 1743 583d
000003e0: 4d17 3abd 4fd0 25be e794 49be 9d66 0abe
000003f0: 7e7a db3d 12b7 413d f24d a0bc 0fc8 ce3d

bias f4 [20]
0.59220874 0.2833756 0.4837975 0.032373823 0.31108677 0.46908444 -0.0851009 0.3705131
-0.089970075 0.5037677 -0.025528422 0.32074472 0.3672549 0.4728496 0.534827 0.5491691
-0.061361745 0.38355863 0.13375247 0.5601618
00000000: fe9a 173f 9b16 913e 4eb4 f73e 6a9a 043d
00000010: c446 9f3e d62b f03e 6149 aebd e5b3 bd3e
00000020: 3b42 b8bd ecf6 003f fb20 d1bc a738 a43e
00000030: d608 bc3e 5819 f23e 6cea 083f 5996 0c3f
00000040: 7456 7bbd cc61 c43e 68f6 083e c466 0f3f

weight f4 [10, 20]
-0.08326166 -0.08419196 0.09411105 -0.013080831 -0.04620463 -0.07904022 -0.13245925 -0.15310788
-0.19511838 0.11500967 -1.3968807e-05 -0.09280569 0.0685766 0.030615624 -0.15359494 -0.22661203
0.033111036 0.031896267 0.1990871 -0.21176611 -0.026852593 0.096669555 -0.10098482 0.03567922
0.14772648 0.055756927 -0.0018988401 0.22202277 0.060808033 0.07950693 -0.0751926 0.007519096
-0.18827857 -0.030994639 -0.17372064 -0.1379247 -0.20662618 -0.17548932 -0.09816699 0.054490358
0.033526976 -0.029625028 0.05327776 0.07401845 0.09115528 -0.12965992 -0.20943393 -0.0534763
0.1755073 -0.04600077 -0.12250957 -0.042801753 -0.2423654 -0.06761947 -0.23884246 -0.041771926
-0.056966826 -0.018407645 -0.01886718 0.08570905 -0.023719685 0.2025961 -0.017708156 0.16127224
0.17536364 -0.14214319 0.18371017 -0.03393126 -0.25244206 -0.10572117 -0.2199504 -0.051269345
-0.026520563 -0.1551157 -0.25390106 0.16078685 -0.19634372 -0.08136734 0.16245577 0.14345749
-0.10055692 0.14526196 -0.10758662 -0.27253786 0.11682146 0.030246114 0.096336156 -0.23344682
0.14228433 0.087962486 -0.20774592 0.031418998 0.02334774 0.10452415 0.097576305 0.11998486
0.1770863 -0.118365005 0.084537975 -0.27297792 -0.1953743 0.08654854 -0.2074552 0.0038404614
0.015029162 -0.0822103 0.056870848 -0.12399748 -0.12961161 0.14120772 0.17675194 -0.027575076
-0.050924495 0.033162564 -0.094939396 -0.14225632 0.03589344 -0.16912496 0.18282124 0.06984949
-0.17033137 -0.15030658 0.09708288 -0.0644645 -0.24939689 0.12702289 -0.113427624 0.14862256
-0.20627983 0.09700917 0.02706297 0.123633906 0.1269226 0.14393853 -0.1466643 -0.26396126
0.03125623 -0.22260885 0.1075477 -0.13008256 -0.09509278 0.11921897 0.018821707 -0.13268244
0.057291783 0.102264814 -0.072855875 -0.06839195 0.049925983 0.027319014 -0.03338617 -0.13634433
-0.07637621 -0.2051425 -0.1307603 -0.015172341 0.0023450851 0.01824307 -0.13080153 0.19598955
-0.0032302025 0.14584588 -0.03179427 -0.2664411 -0.04693501 -0.11869952 0.029493634 -0.21984395
0.06394401 -0.17964737 -0.26973617 0.12488975 0.14996521 0.073950835 -0.00848414 -0.18804461
-0.15841112 -0.052403715 0.18892461 0.08851233 0.5152542 0.32786423 0.6914526 -0.05365745
0.55238116 0.48464307 -0.1449149 0.6491674 0.0051233876 0.51813215 -0.1152816 0.5883971
0.6361576 0.6879131 0.64056164 0.46704903 -0.12641361 0.6833301 -0.1562144 0.51103735
00000000: 1785 aabd d66c acbd 4bbd c03d fb50 56bc
00000010: 1141 3dbd d7df a1bd 66a3 07be 50c8 1cbe
00000020: 1dcd 47be 318a eb3d 925b 6ab7 e910 bebd
00000030: e371 8c3d 9ecd fa3c fe47 1dbe fc0c 68be
00000040: 709f 073d a9a5 023d 7ddd 4b3e 37d9 58be
00000050: f8f9 dbbc b0fa c53d 21d1 cebd 6024 123d
00000060: 9c45 173e 6061 643d 80e2 f8ba f059 633e
00000070: d811 793d 88d4 a23d 94fe 99bd c062 f63b
00000080: 19cc 40be 78e8 fdbc d3e3 31be 223c 0dbe
00000090: d095 53be 79b3 33be c60b c9bd 4831 5f3d
000000a0: 9553 093d 30b0 f2bc c839 5a3d fc96 973d
000000b0: 9faf ba3d 92c5 04be d975 56be f709 5bbd
000000c0: 30b8 333e 4e6b 3cbd 4ce6 fabd e450 2fbd
000000d0: a32e 78be 147c 8abd 1e93 74be 0a19 2bbd
000000e0: 0c56 69bd a1cb 96bc 588f 9abc 3a88 af3d
000000f0: c94f c2bc 5a75 4f3e b210 91bc 8d24 253e
00000100: 8792 333e fc8d 11be 851e 3c3e 81fb 0abd
00000110: 1640 81be 5784 d8bd ad3a 61be ceff 51bd
00000120: a741 d9bc a6d6 1ebe 52ff 81be 4fa5 243e
00000130: 540e 49be eca3 a6bd ce5a 263e 85e6 123e
00000140: c9f0 cdbd 8dbf 143e 6056 dcbd 158a 8bbe
00000150: 1740 ef3d b3c6 f73c e44b c53d af0c 6fbe
00000160: fcb2 113e ad25 b43d 59bb 54be 35b1 003d
00000170: c243 bf3c c210 d63d 16d6 c73d 9fba f53d
00000180: 1c56 353e 5a69 f2bd 3f22 ad3d c3c3 8bbe
00000190: 3310 48be 5c40 b13d 236f 54be 40b0 7b3b
000001a0: e03c 763c e05d a8bd 68f1 683d 64f2 fdbd
000001b0: e8b8 04be c298 103e 76fe 343e 20e5 e1bc
000001c0: 3496 50bd 78d5 073d 966f c2bd a4ab 11be
000001d0: 0005 133d 182f 2dbe 7e35 3b3e 400d 8f3d
000001e0: 596b 2ebe f8e9 19be 64d3 c63d f705 84bd
000001f0: e661 7fbe 4a12 023e be4c e8bd 8330 183e
00000200: 053b 53be beac c63d 29b3 dd3c c633 fd3d
00000210: 00f8 013e 9f64 133e 2b2f 16be ee25 87be
00000220: 8806 003d 93f3 63be f841 dc3d 5d34 05be
00000230: 01c0 c2bd 1329 f43d fb2f 9a3c e8dd 07be
00000240: caaa 6a3d 3770 d13d 7635 95bd 1411 8cbd
00000250: 307f 4c3d 20cc df3c f0bf 08bd d99d 0bbe
00000260: 216b 9cbd e010 52be 07e6 05be 6995 78bc
00000270: 00b0 193b 7e72 953c d6f0 05be 7cb1 483e
00000280: ceb1 53bb 9f58 153e b53a 02bd f86a 88be
00000290: ed3e 40bd bc18 f3bd a29c f13c c61e 61be
000002a0: 14f5 823d 7bf5 37be dc1a 8abe 32c6 ff3d
000002b0: 7b90 193e 8973 973d 1001 0bbc c48e 40be
000002c0: 8636 22be 47a5 56bd 7475 413e f445 b53d
000002d0: b3e7 033f d2dd a73e 0a03 313f eac7 5bbd
000002e0: da68 0d3f 2323 f83e 9264 14be d62f 263f
000002f0: 17e2 a73b 4fa4 043f c218 ecbd 31a1 163f
00000300: 39db 223f 131b 303f d9fb 233f 0d21 ef3e
00000310: 9272 01be b9ee 2e3f abf6 1fbe 58d3 023f

bias f4 [10]
0.18304862 -0.090970054 -0.105168946 0.17749651 -0.23484576 -0.15070015 -0.069826774 -0.16048016
0.041483868 0.3265046
00000000: 1971 3b3e 824e babd d162 d7bd a5c1 353e
00000010: 687b 70be 2451 1abe 5701 8fbd e954 24be
00000020: fdea 293d 9c2b a73e

weight f4 [1, 10]
-0.24415904 -0.29694262 0.20320484 -0.12992336 -0.16143042 0.16978186 -0.18915258 -0.09951095
-0.15102969 0.8049678
00000000: d404 7abe dd08 98be ee14 503e a10a 05be
00000010: 044e 25be 4cdb 2d3e 37b1 41be 66cc cbbd
00000020: 87a7 1abe 5f12 4e3f
