mwo/models/trained_vfa_models/model_hoirzon_120_500_iterations_last_iters_adp.pth (torch_old, 17104 bytes, 7 tensors)

weight f4 [30, 25]
0	0xbecf108b	-0.4044231
1	0x3f515dd4	0.81783795
2	0x3f094a7c	0.5362928
3	0x3ecc5e05	0.3991548
4	0x3edf9d7f	0.43674847
5	0x3d18fc18	0.03734979
6	0x3ee1c0d4	0.4409243
7	0xbe7697bc	-0.2408132
8	0x3f04f7b8	0.5194049
9	0xbe96a7eb	-0.29424986
10	0x3ea9ea17	0.3318641
11	0xbe33b25d	-0.17548509
12	0x3f0caea5	0.54953986
13	0x3f1bd1b0	0.6086683
14	0x3f26bfe3	0.65136546
15	0x3e3a95d7	0.18221222
16	0x3f0b14fe	0.54328907
17	0x3f67ff34	0.90623784
18	0x3edcd76b	0.431331
19	0x3f8ca2c7	1.0987176
20	0x3ef96619	0.48710707
21	0x3c2fa230	0.010719821
22	0x3ee15960	0.440135
23	0x3e81a53b	0.25321373
24	0xbfb34467	-1.400525
25	0xbf825794	-1.0182977
26	0xbf807c99	-1.0038024
27	0x3fae11c8	1.3599176
28	0x3f7f885a	0.9981743
29	0x3d9ae7ab	0.075637184
30	0xbe8a6264	-0.2702819
31	0xbe12b79b	-0.14327852
32	0x3e9f2e52	0.31090027
33	0xbe203ece	-0.15648958
34	0x3c81c1af	0.015839426
35	0xbe94a6aa	-0.29033405
36	0x3e1020cf	0.14075015
37	0xbee7b1c2	-0.45252806
38	0xbf634c32	-0.8878814
39	0xbe92bb27	-0.2865841
40	0xbf3f60f3	-0.7475731
41	0xbdcaca7d	-0.09901903
42	0x3eac408d	0.33642998
43	0xbda4fc9b	-0.08055993
44	0x3e97d01d	0.29650965
45	0xbf305ab9	-0.6888843
46	0xbe3f89da	-0.1870493
47	0xbf48256e	-0.78182113
48	0xbe18c4ce	-0.14918825
49	0xbf9f8c61	-1.2464715
50	0xbf9803df	-1.1876181
51	0xbf6b86a3	-0.92002314
52	0x3f89fabf	1.0779647
53	0x3f33cc7e	0.70233905
54	0xbe106b0e	-0.14103338
55	0xbf1a3f07	-0.6025242
56	0xbe835da4	-0.2565738
57	0xbdf34530	-0.11878431
58	0xbeb67a4c	-0.3564018
59	0xbd7c0430	-0.06152743
60	0xbdf22107	-0.11822706
61	0x3e7e5f23	0.2484098
62	0xbf25ebb1	-0.6481276
63	0xbf1275a9	-0.57210785
64	0xbf1f6466	-0.6226257
65	0xbf01ac4e	-0.5065354
66	0xbeb1c2d9	-0.3471897
67	0x3e00cd17	0.12578236
68	0x3d2b0a83	0.04175807
69	0x3e97eed1	0.2967439
70	0xbf358a67	-0.7091431
71	0xbe6b9b3e	-0.23008439
72	0xbf955c1e	-1.1668737
73	0x3eb20140	0.3476658
74	0xbf261494	-0.6487515
75	0xbe36f59b	-0.17867129
76	0x3f7708e0	0.9649792
77	0x3ee0502c	0.43811166
78	0x3ec3a62f	0.38212726
79	0x3ef0654f	0.46952292
80	0xbe20ea56	-0.15714392
81	0x3f290650	0.6602526
82	0xbc63bb60	-0.013899654
83	0x3e9c0cf9	0.30478647
84	0xbd6ae2cf	-0.057345208
85	0x3ecbaf15	0.39782014
86	0xbdc70fe9	-0.097198315
87	0x3f071544	0.52766824
88	0x3ea39c7f	0.31955335
89	0x3f1b8451	0.60748774
90	0x3e156251	0.14588286
91	0x3eb3dcf8	0.35129523
92	0x3f5b2d2b	0.85615796
93	0x3f15fc8b	0.58588475
94	0x3f24184f	0.6409959
95	0x3e9af86e	0.30267662
96	0x3dc55cda	0.09636851
97	0x3eee249b	0.46512303
98	0x3e91dbdd	0.28488055
99	0xbfc19d27	-1.5126084
100	0xbec5761b	-0.3856667
101	0x3f838fde	1.027828
102	0x3ebae44f	0.3650231
103	0x3f067dba	0.52535594
104	0x3f318f55	0.6935933
105	0x3e255a49	0.16147722
106	0x3f17f910	0.59364414
107	0xbb9dbee4	-0.0048140157
108	0x3f115b56	0.5677999
109	0xbdfd4d4f	-0.12368261
110	0x3f127741	0.5721322
111	0x3d20b43e	0.039234392
112	0x3ed328b7	0.41242
113	0x3e8eda14	0.27900755
114	0x3ecead76	0.40366715
115	0xbc1c3c56	-0.00953587
116	0x3ed0f8a0	0.40814686
117	0x3f22263a	0.6333958
118	0x3f19b2d7	0.6003851
119	0x3f6a3977	0.91493934
120	0x3f2acb5c	0.6671655
121	0xbd337e42	-0.04382158
122	0x3eeb16ab	0.45915732
123	0x3edbc039	0.42920092
124	0xbfb012bc	-1.3755717
125	0xbe5ace82	-0.21367839
126	0x3f83560f	1.0260638
127	0x3f152600	0.5826111
128	0x3f067aac	0.5253093
129	0x3f17b032	0.5925323
130	0x3c2c5b8b	0.010519872
131	0x3f089a35	0.533603
132	0x3d9eff87	0.07763582
133	0x3f244210	0.64163303
134	0x3c7194d9	0.014744961
135	0x3ed1863a	0.4092272
136	0xbe4348f1	-0.19070794
137	0x3f0fd791	0.56188303
138	0x3f0382ad	0.5137127
139	0x3f0a4b9b	0.54021615
140	0x3e5ecb6c	0.21757287
141	0x3ef844a0	0.48489857
142	0x3f4a1b8e	0.78948295
143	0x3e8dd86d	0.27704182
144	0x3f12b1a3	0.573023
145	0x3ee740d9	0.45166662
146	0x3d30284d	0.043007184
147	0x3ee53f24	0.44774735
148	0x3e5948b8	0.21219146
149	0xbfa80390	-1.3126087
150	0xbef023a9	-0.46902207
151	0x3f43fd96	0.76558816
152	0x3f042927	0.51625293
153	0x3f071469	0.5276552
154	0x3ef79b40	0.48360634
155	0x3db96c4b	0.09053858
156	0x3f0ab79a	0.54186404
157	0xbe966193	-0.29371318
158	0x3ea4b98a	0.32172805
159	0xbdc31aa9	-0.095265694
160	0x3e9ea2d2	0.30983597
161	0xbda9587c	-0.0826883
162	0x3f1f31e4	0.621855
163	0x3f0fed87	0.5622181
164	0x3eba7246	0.3641531
165	0x3e6111fd	0.21979518
166	0x3e8be2aa	0.27321368
167	0x3f85707c	1.0424953
168	0x3ef11112	0.47083336
169	0x3f766cb0	0.96259594
170	0x3ee0a134	0.43872988
171	0x3db440c9	0.08801419
172	0x3f1508eb	0.5821673
173	0x3da680cb	0.08130034
174	0xbfae6559	-1.3624679
175	0xbe86e7f2	-0.26348835
176	0x3f450cf1	0.7697287
177	0x3ea5777a	0.32317716
178	0x3ef936b9	0.48674563
179	0x3e7ee4de	0.24891993
180	0xbe4e2383	-0.20130734
181	0x3f002c7f	0.50067896
182	0xbd14e71d	-0.03635322
183	0x3efc6543	0.49296007
184	0x3c873130	0.016502947
185	0x3eb948dd	0.36188403
186	0xbd80b2ea	-0.06284125
187	0x3f015033	0.50513
188	0x3e88ebb9	0.26742342
189	0x3ea8193e	0.32831758
190	0xbcad3330	-0.021142572
191	0x3eddacb9	0.4329584
192	0x3f2e0e13	0.67990226
193	0x3f0d2d7e	0.5514754
194	0x3f737bcf	0.9511079
195	0x3ef606bd	0.48052016
196	0xbe88bfbb	-0.2670878
197	0x3e0a301b	0.13494913
198	0x3de7ec93	0.1132442
199	0xbf934a3b	-1.1507028
200	0xbe27387e	-0.16330144
201	0x3f84fb5f	1.0389212
202	0x3f0cf870	0.55066586
203	0x3e8bb381	0.27285388
204	0x3f387646	0.7205547
205	0x3d11da68	0.03560868
206	0x3f245bf0	0.64202785
207	0x3b9681f0	0.0045931265
208	0x3eef8a3c	0.46785152
209	0x3dda5a25	0.10661725
210	0x3f1183b0	0.56841564
211	0x3d87df2d	0.06634364
212	0x3eba5e3b	0.36400017
213	0x3f05da59	0.522863
214	0x3ef13ac7	0.47115156
215	0x3e6046f7	0.21902071
216	0x3eeafbbf	0.45895192
217	0x3f1b77fa	0.60729945
218	0x3f14aa49	0.58072335
219	0x3f262c95	0.64911777
220	0x3f2d47b7	0.67687553
221	0x3dbd09e6	0.092304036
222	0x3ee5eee7	0.4490883
223	0x3e93690c	0.28791082
224	0xbfb5c6b3	-1.4201263
225	0xbe94dd9a	-0.2907532
226	0x3f664000	0.89941406
227	0x3eedfed9	0.46483496
228	0x3ee0348d	0.43790093
229	0x3ef713d7	0.48257324
230	0xbdd5c72d	-0.104383804
231	0x3edc532d	0.43032208
232	0x3dc122d8	0.09430474
233	0x3ebe4c84	0.37167752
234	0x3b532f05	0.003222407
235	0x3e868e95	0.26280656
236	0xbc473b04	-0.0121600665
237	0x3f0c4dbb	0.5480611
238	0x3ed32ab5	0.4124352
239	0x3f0e23b0	0.55523205
240	0x3d615e6f	0.0550217
241	0x3e964c7b	0.29355225
242	0x3f6f4ab7	0.9347338
243	0x3ef44dda	0.47715646
244	0x3f860688	1.0470743
245	0x3ed48503	0.4150773
246	0xbe6e98e6	-0.23300514
247	0x3f0d4a50	0.55191517
248	0x3e6b0583	0.22951321
249	0xbfa862f4	-1.3155198
250	0xbf92667e	-1.1437528
251	0xbf78b933	-0.9715759
252	0x3fa1d0af	1.264181
253	0x3f3592e4	0.7092726
254	0xbe47143b	-0.19441311
255	0xbec94cc9	-0.39316395

bias f4 [30]
0	0x3f4c87d0	0.79894733
1	0x3f88b2b1	1.0679532
2	0x3f93ac87	1.1537026
3	0x3f25fc80	0.6483841
4	0x3f50dd2e	0.81587493
5	0x3f2ff4d8	0.68732977
6	0x3f2a416e	0.6650609
7	0x3f0b495b	0.54408807
8	0x3f1a371b	0.60240334
9	0x3f04e704	0.51915
10	0x3f690e51	0.9103747
11	0x3f4d9c2e	0.80316436
12	0x3f2f55c4	0.6849024
13	0x3f1874ea	0.59553397
14	0x3f135caf	0.575633
15	0x3f4480c0	0.76758957
16	0x3f9760d2	1.1826422
17	0x3f415023	0.75512904
18	0x3f3f199b	0.74648446
19	0x3f84d746	1.0378196
20	0x3f52d257	0.82352203
21	0x3f451861	0.76990324
22	0x3f2229ed	0.63345224
23	0x3f40d398	0.75322866
24	0x3f511bd6	0.816831
25	0x3f4c8894	0.798959
26	0x3f05f907	0.5233311
27	0x3f8bf4c6	1.0934074
28	0x3f49d93a	0.78847086
29	0x3f0371b0	0.5134535

weight f4 [20, 30]
0	0xbcd5fb25	-0.026120732
1	0x3f0e146b	0.55499905
2	0x3e2c6da1	0.16838695
3	0xbd4c3263	-0.04985274
4	0x3ce1461d	0.027499253
5	0xbe2885fa	-0.16457358
6	0x3c4637fa	0.012098307
7	0x3d1fbad0	0.038996518
8	0x3d090ab1	0.03345746
9	0x3d2ce37d	0.042209137
10	0x3b334b52	0.0027358127
11	0xbdebc6a8	-0.115125
12	0x3dec740f	0.11545574
13	0xbd4e054d	-0.050298024
14	0xbe05ade1	-0.13054611
15	0x3e904871	0.28180268
16	0xbd84830d	-0.064703085
17	0xbd5e2de3	-0.05424298
18	0x3d9edfe3	0.07757547
19	0x3e6af291	0.22944094
20	0x3e5c3069	0.21502842
21	0xbd77e4ae	-0.06052082
22	0xbe152231	-0.14563824
23	0x3db8edb8	0.09029716
24	0xbe3f190d	-0.186619
25	0x3d829b5e	0.0637729
26	0x3de02e51	0.10946334
27	0x3f83ab5c	1.028667
28	0xbc8e1983	-0.01734615
29	0x3d100386	0.03515961
30	0x3ef4d068	0.4781525
31	0x3f43ed0e	0.7653359
32	0x3eef1c88	0.46701455
33	0x3f04d629	0.5188928
34	0x3f1ea27f	0.619667
35	0x3f0b3cb6	0.5438951
36	0x3ee73fe4	0.45165932
37	0x3ef53d52	0.47898346
38	0x3f0d7266	0.55252683
39	0x3f165ae1	0.5873242
40	0x3f4dd63f	0.8040504
41	0x3f08c305	0.53422576
42	0x3f3b6811	0.7320567
43	0x3ef44342	0.47707564
44	0x3ec068e9	0.3758004
45	0x3f05ab5e	0.5221461
46	0x3f3700cf	0.7148561
47	0x3f14a27e	0.58060443
48	0x3eea257b	0.4573172
49	0x3f306ecc	0.6891906
50	0x3ee6fa86	0.4511301
51	0x3f0d8b85	0.55291015
52	0x3f31879e	0.6934756
53	0x3f1a5c06	0.60296667
54	0x3f2ce9ad	0.6754406
55	0x3f131567	0.5745453
56	0x3ebdaefa	0.3704756
57	0x3f85c2a3	1.0450023
58	0x3f2a7bf3	0.6659538
59	0x3ef27486	0.47354525
60	0x3f29d3bb	0.663387
61	0x3f51407d	0.81739026
62	0x3f0e1255	0.5549672
63	0x3f36e923	0.7144949
64	0x3f1fc015	0.6240247
65	0x3f3152bf	0.69266886
66	0x3f3bd7f4	0.73376393
67	0x3eeb6763	0.45977315
68	0x3eea491e	0.4575891
69	0x3f2fccf3	0.686721
70	0x3f5d4ab2	0.864421
71	0x3f258bf6	0.6466669
72	0x3f03a79b	0.5142762
73	0x3f413d22	0.75483906
74	0x3f0489d1	0.5177279
75	0x3efb3ec0	0.49071312
76	0x3f4497b7	0.76794
77	0x3f23e573	0.64021987
78	0x3f185193	0.5949947
79	0x3f181bfb	0.59417695
80	0x3f5228f8	0.82093763
81	0x3f389eef	0.72117513
82	0x3f3cdfb1	0.73778826
83	0x3f2406e6	0.64073026
84	0x3ee2f96a	0.44330913
85	0x3f5da982	0.86586773
86	0x3f1b1e53	0.60593146
87	0x3f77d757	0.9681296
88	0x3f25981f	0.64685243
89	0x3f0db328	0.55351496
90	0xbc85a7a2	-0.016315285
91	0x3df88ecf	0.121366136
92	0xbd710be8	-0.058849245
93	0xbd2b5c2e	-0.041835956
94	0xbdfc6236	-0.1232342
95	0x3dab4e90	0.08364594
96	0x3ccb0b4e	0.024785664
97	0x3de300bf	0.11084127
98	0x3cfa6a28	0.030568197
99	0x3df28da2	0.118434206
100	0xbddf3f2c	-0.10900721
101	0x3dfeabc8	0.124351084
102	0xbcac288b	-0.021015426
103	0x3dfe7d3a	0.12426229
104	0x3d8d5041	0.06900073
105	0x3d39f9c5	0.045404214
106	0xbddf9cfe	-0.10918616
107	0xbe24585e	-0.16049334
108	0xbd43b9c2	-0.047784574
109	0xbe1bd7e9	-0.15219082
110	0xbc441b5c	-0.011969414
111	0xbd93d519	-0.072183795
112	0xbc8e9fc7	-0.017410172
113	0xbdd54388	-0.10413271
114	0xbe05b6f3	-0.13058071
115	0xbba2722a	-0.004957457
116	0xbd9d26f9	-0.07673449
117	0xbd67846c	-0.05652277
118	0xbe156e39	-0.14592828
119	0x3d9753f2	0.07389058
120	0x3ed1b5de	0.40959066
121	0x3f47a00c	0.7797859
122	0x3eeb875b	0.46001706
123	0x3f358766	0.70909727
124	0x3f00129c	0.50028396
125	0x3f103f38	0.56346464
126	0x3f292c77	0.6608347
127	0x3f3da333	0.7407715
128	0x3ed38ce1	0.4131842
129	0x3effba3c	0.49946773
130	0x3f2e3b39	0.68059117
131	0x3f103750	0.563344
132	0x3ed71e36	0.42015237
133	0x3edae6f9	0.42754343
134	0x3f1688a4	0.5880225
135	0x3f330607	0.6993107
136	0x3f13be30	0.5771208
137	0x3ef37ffe	0.47558588
138	0x3ec144aa	0.377477
139	0x3f257677	0.6463389
140	0x3ee51d93	0.44749126
141	0x3f3458fe	0.7044829
142	0x3f33e4db	0.7027108
143	0x3f3d400d	0.7392586
144	0x3efa351b	0.4886864
145	0x3f3e45d2	0.7432529
146	0x3f04d391	0.51885325
147	0x3f551fa3	0.832514
148	0x3f1da444	0.61578774
149	0x3f42f27d	0.7615126
150	0xbd83e314	-0.06439796
151	0xbce4a045	-0.027908454
152	0xbc081d84	-0.008307818
153	0x3b7fdf9e	0.0039043198
154	0x3e1dd265	0.1541229
155	0xbda571b5	-0.080783285
156	0xbe1465ec	-0.14492005
157	0xbe2bd6a3	-0.16781096
158	0x3d8cc6b6	0.068738386
159	0xbe04a32e	-0.12952873
160	0x3cd7b766	0.026332568
161	0x3e0b96c9	0.13631739
162	0x3e074d1f	0.13213013
163	0x3dce9faa	0.10089047
164	0x3dfd8c6b	0.12380298
165	0xbc23412c	-0.009964269
166	0x3de34b44	0.1109834
167	0xbe16e297	-0.14734875
168	0xbe06868e	-0.13137266
169	0xbe3eec3f	-0.18644808
170	0x3dafc9f9	0.08583445
171	0xbe0d4367	-0.13795243
172	0xbe17a8ef	-0.14810537
173	0xbde889a7	-0.1135438
174	0xbdf7ba4e	-0.12096082
175	0xbe3a4970	-0.18192077
176	0x3d310e13	0.043226313
177	0xbdf9f5f1	-0.12205113
178	0xbdc32aa0	-0.095296144
179	0xbd173942	-0.03691984
180	0x3efe84d8	0.49710727
181	0x3f52e4df	0.8238048
182	0x3f401028	0.7502465
183	0x3ec31953	0.38105258
184	0x3f083dc0	0.53219223
185	0x3ecff25f	0.40614602
186	0x3f1ff23d	0.62479
187	0x3ed7619b	0.42066655
188	0x3f0e71f8	0.5564265
189	0x3f2b3831	0.66882616
190	0x3f584bdb	0.84490746
191	0x3ee8baf7	0.45455143
192	0x3f0a0b35	0.5392335
193	0x3f3dd608	0.7415471
194	0x3eddce6c	0.4332155
195	0x3f4329cf	0.7623567
196	0x3f562b94	0.83660245
197	0x3f2356a9	0.6380411
198	0x3edcdac3	0.43135652
199	0x3f3c9785	0.736687
200	0x3f299384	0.66240716
201	0x3f26e8fb	0.6519925
202	0x3f12bfd3	0.5732395
203	0x3f29fa7c	0.66397834
204	0x3f30d30d	0.6907204
205	0x3f348ef1	0.7053061
206	0x3ec51b81	0.38497546
207	0x3f9427a7	1.1574601
208	0x3f0604e0	0.5235119
209	0x3f2aa0fb	0.66651887
210	0x3f26b3db	0.6511819
211	0x3f55baf6	0.83488405
212	0x3f5376bb	0.82603043
213	0x3ec7b34b	0.39003977
214	0x3f14b7f6	0.580932
215	0x3f2184e7	0.6309342
216	0x3f0490dc	0.5178354
217	0x3f24862e	0.6426724
218	0x3f28dc8e	0.6596154
219	0x3f129001	0.5725098
220	0x3f509d14	0.8148968
221	0x3f158a44	0.584141
222	0x3f176370	0.59136105
223	0x3f41a531	0.7564269
224	0x3f04bf47	0.51854366
225	0x3f1fe898	0.62464285
226	0x3f17daea	0.5931841
227	0x3ef5800b	0.47949252
228	0x3f1b9461	0.60773283
229	0x3f2708f7	0.65248054
230	0x3f411762	0.75426304
231	0x3f200b32	0.6251708
232	0x3f26d571	0.65169436
233	0x3ed93aa4	0.42427552
234	0x3f3c9bb4	0.73675084
235	0x3f4f3577	0.80940956
236	0x3f343514	0.7039349
237	0x3f6bfccc	0.9218261
238	0x3ecfbae5	0.40572277
239	0x3f24d7d9	0.6439186
240	0xbe14bd2d	-0.1452529
241	0xbc78f94d	-0.015196157
242	0xbda9a779	-0.08283896
243	0x3d013c56	0.03155168
244	0xbdc47a3b	-0.09593626
245	0x3e2d2dd4	0.16912013
246	0xbd9e2765	-0.07722358
247	0x3d457282	0.048204906
248	0xbdf73238	-0.12070125
249	0x3d41633f	0.04721379
250	0xbd8ebe77	-0.06969922
251	0xbd71ea02	-0.059061058
252	0xbdee1b9c	-0.1162636
253	0x3df63032	0.12020911
254	0xbdb5122a	-0.08841355
255	0xbc3acbf8	-0.011401169

bias f4 [20]
0	0x3e942f28	0.28942227
1	0x3ebef507	0.37296316
2	0x3ed71548	0.42008424
3	0xbd88a314	-0.0667173
4	0x3ec89abc	0.39180553
5	0xbe02bedf	-0.12768124
6	0x3efc1f46	0.4924261
7	0x3f08fdb4	0.5351212
8	0x3caa3dd7	0.02078144
9	0x3f07d904	0.53065515
10	0x3f1bbf3a	0.60838664
11	0x3f1fca93	0.6241848
12	0x3f021452	0.50812256
13	0x3f2bf0f1	0.6716452
14	0xbe2f9a7b	-0.17148773
15	0xbe1af708	-0.15133297
16	0x3f361000	0.71118164
17	0x3f01eb84	0.50749993
18	0x3f2034d5	0.62580615
19	0x3ede7c9c	0.43454444

weight f4 [10, 20]
0	0xbcf29df2	-0.02961633
1	0xbdf03048	-0.11727959
2	0xbe3bd164	-0.18341595
3	0x3e3d149e	0.18464896
4	0x3d2ebf61	0.042662982
5	0xbd183968	-0.037164122
6	0x3de25d8e	0.110530004
7	0x3c21f87e	0.009885905
8	0xbdac6ac1	-0.08418799
9	0x3d89b48c	0.0672389
10	0x3d3c49ac	0.045968696
11	0x3e30f5e0	0.17281294
12	0xbde77244	-0.11301091
13	0x3783920e	1.5684429e-05
14	0x3dc8c68e	0.09803496
15	0xbdbd68ab	-0.092484795
16	0xbe7ec71a	-0.24880639
17	0xbdf90869	-0.12159807
18	0xbc6defa4	-0.014522467
19	0x3df9f98e	0.12205802
20	0xbdfcbebe	-0.12341069
21	0x3e24413c	0.1604051
22	0x3cba6d17	0.022757096
23	0xbca05f13	-0.019576585
24	0xbe27756d	-0.16353388
25	0x3cfe023c	0.031006925
26	0x3c8eb84f	0.01742187
27	0x3d898831	0.067154296
28	0xbdca562a	-0.09879716
29	0xbe39872b	-0.18117969
30	0xbbcd2c63	-0.006261395
31	0x3c8979ed	0.016781772
32	0xbe68cb0d	-0.22733708
33	0xbe7eea0a	-0.24893966
34	0x3e2795e7	0.16365777
35	0x3e2554a5	0.1614557
36	0x3e0cebc9	0.1376182
37	0xbd96a9dc	-0.07356617
38	0xbd6ac7c0	-0.057319403
39	0xbe3faa1f	-0.1871724
40	0x3ed62501	0.41825107
41	0x3f4c1c66	0.7973083
42	0x3f0e031b	0.5547349
43	0xbe21ca16	-0.15799746
44	0x3f0b047a	0.54303706
45	0xbde2a66f	-0.11066901
46	0x3ee2df94	0.44311202
47	0x3ef805b4	0.4844185
48	0xbe39c3d8	-0.18141115
49	0x3f11336e	0.567191
50	0x3f1eb739	0.61998326
51	0x3ef384d9	0.47562292
52	0x3f35117b	0.707298
53	0x3f29c995	0.66323215
54	0x3c3cf9e7	0.011534191
55	0xbd2c5575	-0.042073686
56	0x3f132a93	0.5748684
57	0x3f267fcd	0.6503876
58	0x3f235c6e	0.6381291
59	0x3f3cd28a	0.7375876
60	0x3d742763	0.059607875
61	0x3f4daee5	0.8034499
62	0x3f3e0237	0.7422213
63	0x3e275402	0.1634064
64	0x3f4eeeec	0.80833316
65	0x3d2873d7	0.0411261
66	0x3f4d9a9c	0.8031404
67	0x3f4df0eb	0.80445737
68	0x3d46915c	0.04847847
69	0x3f2b5336	0.66923845
70	0x3f4ee649	0.8082014
71	0x3f2e73be	0.6814536
72	0x3f3bc49f	0.73346895
73	0x3f2bf823	0.671755
74	0x3d13eda4	0.036115304
75	0x3e67ffb8	0.22656143
76	0x3f22c536	0.6358217
77	0x3f0fc635	0.56161815
78	0x3f3af47e	0.73029315
79	0x3f059da4	0.52193666
80	0xbe4b5545	-0.19856746
81	0xbe33957b	-0.17537491
82	0xbe5f9316	-0.21833453
83	0xbced0600	-0.028933525
84	0x3df371ac	0.118869156
85	0xbe46c413	-0.19410734
86	0x3d650520	0.05591309
87	0x3ddb77b6	0.107161924
88	0xbd9ec4b4	-0.07752362
89	0x3e03a0cd	0.1285431
90	0xbd919861	-0.07109142
91	0xbe083494	-0.13301307
92	0xbd04f53c	-0.032460436
93	0xbe38f707	-0.18062983
94	0x3d5fc570	0.05463165
95	0x3e2d6abc	0.16935247
96	0xbe73d7bc	-0.23812765
97	0xbe68bc7b	-0.2272815
98	0x3cf85616	0.030314486
99	0xbe24ffb3	-0.16113167
100	0x3dfa7dec	0.12231049
101	0x3e001ad3	0.12510233
102	0x3cdeb6ab	0.027186712
103	0xbe55ba0e	-0.20871755
104	0x3d2d8b40	0.042369127
105	0x3dbbb0c4	0.09164575
106	0xbe1a24f3	-0.15053158
107	0xbde52ce2	-0.11190201
108	0x3a3d3c00	0.00072187185
109	0x3d50ee1f	0.05100834
110	0xbd4a50a4	-0.04939331
111	0xbe16270e	-0.14663336
112	0xbe495b05	-0.19663627
113	0xbe516dd4	-0.20452052
114	0xbe11a5a6	-0.14223346
115	0x3d88e1c0	0.066836834
116	0x3e310e76	0.17290673
117	0xbe443c42	-0.19163612
118	0x3e00822e	0.1254966
119	0x3d1ec5aa	0.038762726
120	0xbd742dbf	-0.05961394
121	0xbd98cb87	-0.07460695
122	0x3e2acf88	0.1668073
123	0xbe2b3b60	-0.16721869
124	0x3e4b5a0a	0.19858566
125	0x3d7856a4	0.060629502
126	0xbd44ddac	-0.048062965
127	0xbde927d3	-0.11384549
128	0xbc213700	-0.009839773
129	0xbdccce0c	-0.10000238
130	0xbe457042	-0.19281104
131	0xbce84be7	-0.028356506
132	0x3c9b3980	0.018948317
133	0x3d880c82	0.06643011
134	0x3e0c6cfd	0.1371345
135	0xbd9290f8	-0.07156557
136	0xbdecf9e9	-0.11571104
137	0xbdd2122d	-0.10257373
138	0xb99b6e97	-0.000296463
139	0x3ddf600b	0.109069906
140	0x3d08685e	0.033302657
141	0x3f299687	0.6624531
142	0x3ee30aa8	0.44344068
143	0xbe004bf9	-0.12528981
144	0x3f15ea5a	0.5856072
145	0x3d3b3514	0.045704916
146	0x3ede45ff	0.43412778
147	0x3f0dd25e	0.5539912
148	0xbe38057b	-0.1797084
149	0x3f3e3d23	0.7431204
150	0x3f176028	0.591311
151	0x3ecf6e64	0.4051391
152	0x3f2d9578	0.67806196
153	0x3f134c46	0.5753826
154	0x3df0dc99	0.11760826
155	0x3d573de6	0.052549265
156	0x3f3eaa31	0.7447844
157	0x3f43a360	0.76421165
158	0x3f4e7a3d	0.8065527
159	0x3f254046	0.645512
160	0x3e1bda59	0.15220012
161	0x3f0db1d3	0.55349463
162	0x3f1b39e3	0.60635203
163	0xbd9df8f5	-0.077135004
164	0x3f37d9bc	0.7181661
165	0xbe31adac	-0.17351407
166	0x3f5088dc	0.8145883
167	0x3f320937	0.6954531
168	0xbe4b70c6	-0.19867238
169	0x3f1b8f73	0.6076576
170	0x3ec32c95	0.3811995
171	0x3f239189	0.63893944
172	0x3f3f6acc	0.74772334
173	0x3ecbfc7f	0.39841077
174	0xbe268b31	-0.16264035
175	0x3ce5e126	0.02806146
176	0x3f21ba52	0.6317493
177	0x3eec42c6	0.46144694
178	0x3f07745c	0.52911925
179	0x3f0bd42e	0.54620636
180	0x3eccc5c7	0.39994642
181	0x3f54bc53	0.8309986
182	0x3f46694d	0.77504426
183	0x3e166651	0.14687468
184	0x3f05b552	0.522298
185	0xbd9e11df	-0.077182524
186	0x3f29d3b6	0.6633867
187	0x3f051ef3	0.5200035
188	0xbdb6694b	-0.08906802
189	0x3edccb08	0.4312365
190	0x3f48f54e	0.78499305
191	0x3f3d37c8	0.7391324
192	0x3f0cdbc7	0.55022854
193	0x3f257a4a	0.64639723
194	0xbd43aa79	-0.047769997
195	0xbe0ef88d	-0.13962002
196	0x3ef7b4f4	0.48380244
197	0x3f3f0e94	0.7463162
198	0x3f25de53	0.64792365
199	0x3f4ab819	0.7918716

bias f4 [10]
0	0x3b66cab3	0.0035216033
1	0x3e136b89	0.1439649
2	0x3ef9ed17	0.48813698
3	0x3f0af225	0.54275733
4	0x3cfc12e4	0.030770727
5	0xbe6e7c5a	-0.23289624
6	0xbe5e3f51	-0.21703841
7	0x3eb4b113	0.35291347
8	0x3f00192d	0.50038415
9	0x3f168a49	0.58804756

weight f4 [1, 10]
0	0xbe44251a	-0.19154778
1	0xbe609827	-0.21933042
2	0x3f248e12	0.6427928
3	0x3f584cb0	0.84492016
4	0xbd30d411	-0.043170992
5	0xbde1dbbc	-0.11028239
6	0xbe87950f	-0.2648091
7	0x3f5de4e0	0.8667736
8	0x3f6ce584	0.92537713
9	0x3f464e0b	0.77462834
