mwo/models/trained_vfa_models/model_v6.pth (torch_old, 16893 bytes, 7 tensors)

weight f4 [30, 25]
0	0x3c3e80e5	0.011627411
1	0xbe1741d6	-0.14771208
2	0x3d94abbe	0.0725932
3	0x3e0b9652	0.13631561
4	0xbdd887b4	-0.10572758
5	0xbc4aca00	-0.012377262
6	0x3e4128ed	0.18863268
7	0xbdae6cb4	-0.08516827
8	0x3e2c975b	0.16854613
9	0x3d05814b	0.032594007
10	0x3d69f1e6	0.057115458
11	0xbe26d339	-0.16291513
12	0xbd8098dd	-0.06279156
13	0xbdd3cde8	-0.10342008
14	0x3e406926	0.18790111
15	0xbd510f46	-0.051039957
16	0x3e1378ee	0.144016
17	0x3cf6aada	0.030110765
18	0x3dca1702	0.0986767
19	0xbdc3d7ca	-0.09562643
20	0x3e400653	0.18752412
21	0x3e3df13d	0.18549056
22	0xbd29b524	-0.041432515
23	0x3e14f1a9	0.14545311
24	0xbd9aaf78	-0.07552999
25	0xbd294462	-0.04132498
26	0x3e0390d9	0.12848224
27	0x3da09df1	0.07842625
28	0x3e4cef91	0.20013262
29	0x3e1d6f85	0.15374573
30	0xbd1748b7	-0.03693458
31	0x3e597ceb	0.21239059
32	0x3d3d6030	0.04623431
33	0xbd8d5a65	-0.06902007
34	0x3e29c45e	0.16578814
35	0x3e4c8406	0.19972238
36	0x3df6f3b9	0.12058205
37	0x3ddcf148	0.10788208
38	0x3e0c8e31	0.13726117
39	0x3e3c4f6b	0.1838967
40	0x3e3f98fd	0.18710704
41	0xbc89b46b	-0.016809663
42	0x3e2e7535	0.17036898
43	0xbe0e8078	-0.13916194
44	0xbe361c10	-0.17784142
45	0x3dc1f46f	0.0947045
46	0x3d1ed794	0.03877981
47	0xbda1984a	-0.07890375
48	0x3e22d1ce	0.15900347
49	0x3e194d95	0.14971001
50	0xbd3deaa5	-0.046366353
51	0x3d44491e	0.047921292
52	0xbe4cf8bc	-0.2001676
53	0xbe23ee77	-0.16008936
54	0xbe072fc5	-0.13201816
55	0x3c55ba15	0.013044854
56	0x3df50d79	0.1196546
57	0x3ddb2b6a	0.1070164
58	0xbbd5e0b6	-0.006527032
59	0x3e01f882	0.12692454
60	0xbdfce91f	-0.12349152
61	0xbe539498	-0.20662153
62	0xbdd578da	-0.10423441
63	0xbd9d20a4	-0.07672241
64	0x3dace610	0.084423184
65	0x3e1b7c31	0.15184094
66	0xbb620fd2	-0.0034494293
67	0xbab3afa6	-0.0013708964
68	0xbe1a210e	-0.15051672
69	0x3e43cb7b	0.1912059
70	0x3c967e9b	0.018370917
71	0x3d78a628	0.060705334
72	0x3e0b6665	0.13613279
73	0x3dc47373	0.09592333
74	0x3e18a0aa	0.14905038
75	0x3e3162fd	0.17322917
76	0x3e5f4136	0.2180222
77	0x3df3739d	0.11887286
78	0xbd758c14	-0.059948042
79	0x3e507f3b	0.20361035
80	0xbe36259e	-0.17787787
81	0x3deba7f5	0.11506645
82	0xbde47d8f	-0.11156761
83	0xbdc6fe44	-0.09716466
84	0xbd4ac3a5	-0.049502987
85	0x3e27fe96	0.1640571
86	0x3dde7318	0.10861796
87	0x3df3cf64	0.11904791
88	0xbb0a8a0c	-0.0021139411
89	0xbdcd3d36	-0.10021441
90	0x3dcfb9be	0.101428494
91	0x3d94b4cf	0.07261049
92	0x3d11d908	0.035607368
93	0x3d081406	0.03322222
94	0x3d8669a6	0.065631196
95	0xbd9808ed	-0.074235775
96	0xbdb19ab3	-0.08672085
97	0xbc5ec466	-0.01359663
98	0x3e434f43	0.19073205
99	0x3decf54e	0.11570226
100	0x3d410861	0.04712713
101	0x3d787819	0.06066141
102	0x3d87c1d7	0.06628769
103	0xbe330cc0	-0.17485332
104	0xbdfd177d	-0.12357996
105	0x3e5f5315	0.21809037
106	0xbddb3571	-0.107035525
107	0xbe0b6f8a	-0.13616768
108	0xbd2680da	-0.040650226
109	0x3db686a5	0.089124
110	0x3e082aa2	0.13297513
111	0x3dbdfd43	0.092768215
112	0x3e0154dc	0.12630028
113	0x3cbdb752	0.023158703
114	0x3cdfdc74	0.0273268
115	0x3cade074	0.021225192
116	0xbdc65335	-0.09683839
117	0x3e0e33ee	0.13886997
118	0xbe0bb010	-0.13641381
119	0xbe3f3d5f	-0.18675755
120	0x3e490221	0.19629718
121	0x3db596a6	0.088666245
122	0x3da860cd	0.08221588
123	0xbe0332f6	-0.12812409
124	0xbde0f66e	-0.10984503
125	0xbe241fe3	-0.16027789
126	0x3e1895b2	0.14900854
127	0x3e255a60	0.16147757
128	0x3e21b434	0.15791398
129	0x3e43b787	0.19112979
130	0x3dba2fe7	0.09091168
131	0x3dbe6586	0.09296708
132	0x3e329949	0.17441286
133	0x3d8501fb	0.06494518
134	0xbd191101	-0.03736973
135	0x3e0ba98d	0.13638897
136	0x3cfc3367	0.03078623
137	0xbe2372bc	-0.15961736
138	0xbe000f62	-0.12505868
139	0x3e0e3113	0.13885908
140	0x3e255108	0.16144192
141	0xbe4e6c88	-0.20158589
142	0xbc9c2af2	-0.019063447
143	0xbcb7f514	-0.02245573
144	0x3b9b8500	0.0047460794
145	0xbe22430b	-0.15845887
146	0x3daef222	0.08542277
147	0xbd931d0a	-0.07183273
148	0xbdba7604	-0.09104541
149	0xbd1ec196	-0.038758837
150	0x3cbd028d	0.023072505
151	0xbd927717	-0.07151621
152	0x3cd62ee2	0.026145402
153	0x3d864193	0.06555476
154	0xbe0518f4	-0.129978
155	0xbe4e8cab	-0.20170848
156	0xbd8bdfe2	-0.06829812
157	0xbdf7b1f6	-0.1209449
158	0xbe325dc3	-0.1741858
159	0x3d1c0e97	0.03809985
160	0x3da4b429	0.08042175
161	0x3c9b16f4	0.018931843
162	0x3e342d24	0.17595345
163	0xbe395496	-0.18098673
164	0x3d21349d	0.039356817
165	0x3db01edd	0.08599637
166	0x3b4fd924	0.003171512
167	0xbe073a55	-0.13205846
168	0xbe009289	-0.12555899
169	0x3e15507d	0.14581485
170	0x3d2439bd	0.040094126
171	0x3e4cbdcd	0.19994278
172	0xbe16bce6	-0.14720497
173	0x3d695dbe	0.056974165
174	0xbd910c6c	-0.070824474
175	0x3e13ec33	0.14445572
176	0xbd18f15d	-0.037339557
177	0x3e0470cd	0.12933655
178	0x3d84d236	0.06485407
179	0xbe47f4f8	-0.19527042
180	0x3c02bf37	0.0079801595
181	0x3e1c65bc	0.15273184
182	0xbdda3b0b	-0.10655793
183	0xbde6aa3b	-0.11262938
184	0x3e2c060a	0.16799179
185	0xbd7e3c37	-0.062069144
186	0xbdb08ee3	-0.086210035
187	0x3d8a9955	0.06767527
188	0x3e295280	0.16535378
189	0x3e005522	0.12532476
190	0xbe033d2f	-0.12816308
191	0x3d464120	0.04840195
192	0x3dccb4fc	0.099954575
193	0x3d10dbf0	0.035366
194	0x3c93a9a8	0.018025234
195	0x3e078a0d	0.13236256
196	0x3e46b8f5	0.19406493
197	0x3d8c1495	0.06839863
198	0x3d878383	0.06616881
199	0xbe312c69	-0.17302097
200	0xbe35f0eb	-0.17767684
201	0xbd4e6c4c	-0.05039625
202	0xbdce8216	-0.10083406
203	0xbc9ba821	-0.019001069
204	0x3d6fd5a3	0.05855335
205	0xbe4a7601	-0.19771577
206	0x3e415c2f	0.18882822
207	0x3cca1713	0.024669206
208	0x3d28e739	0.041236136
209	0xbe13d25e	-0.14435717
210	0xbe29f9dc	-0.1659922
211	0xbda8b09e	-0.08236812
212	0xbd2d1dc5	-0.04226472
213	0xbe1097e5	-0.14120443
214	0xbc9eff63	-0.019408887
215	0x3e2df1d1	0.16986777
216	0x3b093271	0.0020934606
217	0x3dd15d9e	0.10222934
218	0x3db38e4f	0.087673776
219	0x3ddee942	0.10884334
220	0x3e193f43	0.14965539
221	0xbe0fcb62	-0.14042428
222	0x3dc258d0	0.09489596
223	0xbb64e3d3	-0.0034925833
224	0x3e0ffc0a	0.14060989
225	0x3dfeb1ee	0.12436281
226	0x3c35bc1e	0.011092214
227	0xbe25d642	-0.16195014
228	0x3d0cdf23	0.034392487
229	0x3de71206	0.112827346
230	0x3dd63998	0.10460204
231	0xbe4602bf	-0.19336985
232	0x3dca6ce0	0.098840475
233	0xbe598a99	-0.21244277
234	0xbd977679	-0.07395644
235	0xbe31cf48	-0.17364228
236	0xbe20366a	-0.15645757
237	0xbd99a95a	-0.07503004
238	0xbda34bd4	-0.079734474
239	0xba0e6e95	-0.0005433348
240	0x3c90fda2	0.017699067
241	0x3d9dc13a	0.07702871
242	0x3c5797e0	0.013158768
243	0x3de13e65	0.10998229
244	0xbdc4335a	-0.09580107
245	0x3dff1822	0.12455775
246	0xbe5508ec	-0.20804185
247	0xbe1b37b8	-0.15157974
248	0x3bbcea79	0.005765256
249	0x3da2e74f	0.07954275
250	0x3dce9c99	0.100884624
251	0x3cc171b0	0.02361378
252	0x3dfb5df5	0.1227378
253	0xbdc440bd	-0.0958266
254	0xbdfc728f	-0.12326538
255	0x3e50bd64	0.20384747

bias f4 [30]
0	0x3dcbf64d	0.099590875
1	0x3e14939a	0.1450943
2	0x3dc500f9	0.09619326
3	0x3db86ab8	0.0900473
4	0x3d9998ff	0.07499885
5	0xbe0be39f	-0.1366105
6	0x3d14bd8c	0.03631358
7	0x3ddf41aa	0.10901196
8	0x3e14f7e0	0.14547682
9	0x3d0dad61	0.034589175
10	0x3e608768	0.21926653
11	0x3e4e1f8f	0.20129226
12	0xbdf58e45	-0.119900264
13	0xbe00ba56	-0.12571082
14	0xbe08e458	-0.13368356
15	0x3d405eb7	0.046965327
16	0xbdaba118	-0.083803356
17	0xbe251bf9	-0.16123952
18	0xbe39ed36	-0.18156895
19	0x3cf29e19	0.029616402
20	0xbdb859c5	-0.09001497
21	0xbd220115	-0.039551813
22	0xbd6519f7	-0.055932965
23	0x3df893d4	0.12137571
24	0x3e46909b	0.193911
25	0x3d238cf7	0.039929356
26	0xbde5b227	-0.112156205
27	0x3cbcc6c3	0.023043996
28	0xbdcff641	-0.10154391
29	0x3d47e6c2	0.048804052

weight f4 [20, 30]
0	0xbd8f8a9c	-0.070088595
1	0x3e07b047	0.13250838
2	0x3d5f023f	0.0544455
3	0x3dadd2ee	0.08487497
4	0xbd3afee4	-0.04565324
5	0x3da71846	0.08158927
6	0xbcde8430	-0.027162641
7	0x3e342cf3	0.17595272
8	0xbd4cf04a	-0.050033845
9	0x3e15b105	0.14618309
10	0x3db9a527	0.090647034
11	0x3e0e9405	0.13923652
12	0xbbbbd6df	-0.0057324017
13	0xbda5c70b	-0.08094605
14	0x3d22a92b	0.039712112
15	0x3be2e20e	0.0069239205
16	0xbde1bc2c	-0.11022219
17	0xbdd238ac	-0.102647156
18	0x3e221fc3	0.15832429
19	0xbd111c58	-0.03542742
20	0x3c8f58c0	0.017498374
21	0xbd53f062	-0.05174292
22	0x3d1eb06e	0.038742475
23	0xbd42dd06	-0.047574066
24	0x3ddbe36e	0.10736738
25	0xbe0f0f7b	-0.13970749
26	0xbde9a2ff	-0.11408042
27	0x3db06582	0.08613111
28	0x3e16893e	0.14700791
29	0x3e041e44	0.1290217
30	0xbdf25b9d	-0.1183388
31	0xbe0fee34	-0.14055711
32	0x3dc1728e	0.09445678
33	0xbcd59dad	-0.026076162
34	0x3d88ef8a	0.066863135
35	0x3d3482b4	0.04406996
36	0x3e11d4e2	0.14241365
37	0x3e0eda43	0.13950448
38	0xbcc6e23f	-0.024277804
39	0x3d472f35	0.048629005
40	0x3dec6b96	0.11543958
41	0x3db9ff52	0.090819016
42	0x3dffd235	0.12491266
43	0xbdca5291	-0.098790295
44	0x3d2c6629	0.042089615
45	0x3e4a495c	0.19754547
46	0x3e1b10d1	0.15143134
47	0xbd2d3530	-0.04228705
48	0xbd9dc217	-0.07703035
49	0xbbbc95b3	-0.00575515
50	0x3e3263d9	0.17420901
51	0x3c5e18db	0.013555731
52	0x3cad298d	0.021137977
53	0x3d9787da	0.073989585
54	0x3cc5c2d3	0.024140751
55	0xbdb24b40	-0.08705759
56	0xbe1bf48c	-0.15230006
57	0x3b0f5bde	0.0021874825
58	0xbc8345ef	-0.016024558
59	0xbb92756c	-0.004469564
60	0xbc79fad4	-0.015257556
61	0xbc4abcda	-0.012374127
62	0xbd1fe55a	-0.039037086
63	0xbca44140	-0.020050645
64	0xbe0898e8	-0.13339579
65	0x3d9aca29	0.0755809
66	0x3dcc7fd2	0.09985317
67	0x3d86aa1c	0.065754145
68	0xbc41e472	-0.011834251
69	0xbdb12926	-0.086504266
70	0xbe14946b	-0.14509742
71	0x3d861897	0.06547659
72	0xbd4d4652	-0.05011589
73	0x3e1f5906	0.15561303
74	0x3dc4756f	0.09592711
75	0xbc127372	-0.008938657
76	0x3d1aae6d	0.037764
77	0x3e3a4682	0.18190959
78	0x3d6100a4	0.05493225
79	0xbe1bf3c0	-0.15229702
80	0xbcda1f27	-0.026626183
81	0xbe000d93	-0.12505178
82	0x3e3cd048	0.18438828
83	0x3c25785a	0.010099495
84	0x3e083031	0.13299634
85	0x3d4d5f4c	0.05013971
86	0x3e1b3df8	0.15160358
87	0xbdcdb22a	-0.10043748
88	0xbdf4d790	-0.11955178
89	0x3def9239	0.11697812
90	0x3b0e26d0	0.0021690615
91	0xbc57a7ed	-0.013162595
92	0x3d1f2fd0	0.038863957
93	0xbd8f4d15	-0.06997124
94	0x3d9acb2a	0.07558282
95	0xbca06bbb	-0.01958262
96	0x3e305bd6	0.17222533
97	0x3e1cbcb0	0.15306354
98	0xbd7e2472	-0.062046476
99	0x3e1657d2	0.14681938
100	0x3e4c1da3	0.1993318
101	0xbda53a0e	-0.08067714
102	0x3d2b8b21	0.04188073
103	0x3e342354	0.17591602
104	0x3dec6e23	0.115444444
105	0xbdffe363	-0.124945424
106	0x3cb1e45a	0.021715332
107	0xbce0b8ff	-0.027431963
108	0xbd445d31	-0.047940437
109	0xbc11a45b	-0.008889283
110	0x3e0d9538	0.13826454
111	0x3ced94e6	0.029001664
112	0xbd05c410	-0.032657683
113	0x3d8b12e0	0.067907095
114	0x3e29155b	0.16512053
115	0xbe00ab6f	-0.12565397
116	0xbd887d3e	-0.06664513
117	0xbd71184e	-0.05886107
118	0xbd000b7e	-0.03126096
119	0x3e3976bb	0.18111698
120	0x3defeb4b	0.117148004
121	0x3de431a7	0.11142283
122	0xbcb166c4	-0.021655448
123	0xbde86e55	-0.11349169
124	0x3d813e05	0.063106574
125	0x3d1cca16	0.03827866
126	0x3e392bd2	0.18083122
127	0x3cdfdcd0	0.027326971
128	0x3d937975	0.072009005
129	0xbe261023	-0.16217093
130	0xbdb5189c	-0.088425845
131	0xbcdca95a	-0.026936222
132	0x3cf92a3a	0.030415643
133	0xbe0c8846	-0.13723859
134	0xbde6d0f0	-0.112703204
135	0x3dee8f2c	0.116484016
136	0xbdf1119f	-0.11770939
137	0xbdea5033	-0.11441078
138	0x3e0b290c	0.13589877
139	0x3dc6ace8	0.09700948
140	0xbe02dc14	-0.12779266
141	0x3e24c7f8	0.16091907
142	0x3d86ccfb	0.06582066
143	0xbe13875b	-0.14407103
144	0xbdde6594	-0.10859218
145	0xbe143fca	-0.14477459
146	0xbd20900d	-0.039199878
147	0x3c1e9b80	0.009680629
148	0x3c8f3928	0.017483309
149	0xbe04c3b0	-0.12965274
150	0x3d965c91	0.073418744
151	0xbe3fcc5e	-0.18730304
152	0x3e0b0a43	0.13578133
153	0xbe1cd126	-0.15314159
154	0x3e236d6e	0.15959713
155	0xbdc7455a	-0.09730025
156	0xbdf1189e	-0.117722735
157	0x3d334e71	0.04377598
158	0x3d960af6	0.073263094
159	0xbd996230	-0.07489431
160	0xbcd8fb63	-0.026487058
161	0xbd8e8a38	-0.06959957
162	0xbc1aac1a	-0.009440446
163	0x3cb0e7fe	0.021594997
164	0xbb9b23ad	-0.0047344775
165	0xbdbfa7f6	-0.09358208
166	0xbd5ac23c	-0.053407893
167	0x3dfde0f3	0.12396421
168	0x3df64dd8	0.12026566
169	0x3e2450f3	0.16046505
170	0xbe06519c	-0.13117069
171	0xbd23dcf0	-0.040005624
172	0x3c3dae94	0.011577267
173	0x3c05fb0c	0.00817753
174	0x3e08b893	0.1335166
175	0xbdc0c516	-0.09412591
176	0x3df3da26	0.11906843
177	0x3d2e9944	0.042626634
178	0x3e33b139	0.17548074
179	0xbbea050e	-0.007141716
180	0x3e3e4082	0.18579295
181	0x3df30493	0.11866107
182	0xbd84c4ca	-0.06482847
183	0x3dcd55fa	0.10026164
184	0x3d9f6140	0.07782221
185	0xbda9e394	-0.0829536
186	0x3cfa2c6c	0.03053876
187	0xbdccd18d	-0.10000906
188	0x3d245c6a	0.040127195
189	0x3e57f958	0.21091211
190	0xbe136379	-0.14393415
191	0x3e17c4c0	0.14821148
192	0x3e09da5f	0.13462208
193	0x3bc14600	0.005898237
194	0x3dafa31d	0.08576033
195	0x3e16d907	0.14731227
196	0x3e359a66	0.1773468
197	0xbe20b29f	-0.15693139
198	0x3e2789bb	0.16361134
199	0x3df1c0ac	0.11804327
200	0xb9bc3090	-0.00035894336
201	0xbdc301d2	-0.095218316
202	0xbc8cc0f9	-0.01718186
203	0x3c944c12	0.01810268
204	0xbe099583	-0.1343594
205	0x3de3119a	0.110873416
206	0x3dafb937	0.08580249
207	0xbda35c8d	-0.07976637
208	0x3e37ce73	0.17949848
209	0xbd369f46	-0.04458549
210	0xbc5451c3	-0.012958947
211	0x3c197e9a	0.009368563
212	0x3e11f9fa	0.14255515
213	0x3dda76dc	0.10667202
214	0x3dad972c	0.08476099
215	0x3df3533c	0.1188111
216	0xbdecd955	-0.1156489
217	0xbdafdea6	-0.08587389
218	0xbc062908	-0.008188494
219	0x3deb4604	0.11487964
220	0xbe3e9caa	-0.1861445
221	0x3ce22cca	0.027609248
222	0x3d261df4	0.04055591
223	0x3d7902df	0.060793754
224	0x3dcfd181	0.101473816
225	0xbde9798d	-0.11400137
226	0x3d96661a	0.07343693
227	0xbdac64a4	-0.08417633
228	0xbe1febc3	-0.1561728
229	0xbdf33257	-0.11874836
230	0xbe405f96	-0.18786463
231	0xbe387e44	-0.18016917
232	0xbe1be310	-0.15223336
233	0xbe0bebba	-0.13664141
234	0xbdcbf3c6	-0.099586055
235	0xbdb9fa5f	-0.090809576
236	0x3d052bb8	0.032512397
237	0xbe258ffe	-0.1616821
238	0x3d3c4e69	0.045973215
239	0x3dddca13	0.10829558
240	0xbddcab0f	-0.10774814
241	0x3dd00028	0.1015628
242	0x3d72e7dc	0.05930315
243	0xbcedaae0	-0.029012144
244	0x3e008b08	0.12553036
245	0x3d97f674	0.07420054
246	0x3cf3441b	0.029695561
247	0xbd936697	-0.07197302
248	0x3deccf47	0.115629725
249	0x3dc2cd58	0.095118225
250	0x3d8e4667	0.06947022
251	0xbe15a3c6	-0.14613256
252	0xbc9f33a2	-0.0194338
253	0x3d1484e5	0.03625955
254	0xbd3144ba	-0.043278433
255	0x3d7cf58f	0.06175762

bias f4 [20]
0	0x3df8a768	0.12141305
1	0xbc0e3c8c	-0.008681428
2	0xbd80aadd	-0.062825896
3	0x3cf1e035	0.029525856
4	0xbe1fdbd5	-0.15611203
5	0x3d608403	0.054813396
6	0x3e5198b5	0.2046841
7	0xbe1116d6	-0.14168867
8	0xbd278fae	-0.040908508
9	0xbd9342f7	-0.07190507
10	0x3e4ba8ef	0.19888662
11	0xbe1a83a6	-0.15089282
12	0xbe372b3d	-0.17887588
13	0x3c5973cd	0.013272238
14	0xbd9ad25f	-0.07559656
15	0x3d733fed	0.059387136
16	0x3bdc4d75	0.006723101
17	0x3d8a524d	0.06753979
18	0xbe0b5dd7	-0.13610016
19	0xbdac411d	-0.08410857

weight f4 [10, 20]
0	0x3c443eec	0.011977892
1	0xbdb58599	-0.08863372
2	0x3e6751cf	0.22589801
3	0xbe15908e	-0.14605924
4	0xbdc8e107	-0.098085456
5	0x3e362d2d	0.1779067
6	0x3e6fd6a5	0.23421724
7	0x3db6a8d0	0.08918917
8	0x3df2099f	0.11818241
9	0xbcf43e6f	-0.029814927
10	0x3e48351d	0.19551511
11	0x3d557bce	0.052120022
12	0xbe08bec9	-0.13354029
13	0x3e193a32	0.14963606
14	0x3e5f8a14	0.21830016
15	0xbddf5381	-0.10904599
16	0xbe03b782	-0.12862971
17	0xbdc1cc09	-0.09462745
18	0x3d4350fd	0.04768466
19	0xbd4bfa62	-0.04979933
20	0x3d3f1508	0.046650916
21	0xbe50179d	-0.20321508
22	0x3d8dc5f0	0.06922519
23	0xbe2d5167	-0.16925584
24	0xbe547366	-0.20747146
25	0xbe229b33	-0.15879516
26	0xbd9bb8ca	-0.07603605
27	0xbdffcacd	-0.12489853
28	0xbd4fdec8	-0.05074957
29	0xbdc22a3e	-0.09480713
30	0x3e0ba0f0	0.13635612
31	0xbe4afe33	-0.19823532
32	0x3d344568	0.044011503
33	0xbe2cd95a	-0.16879788
34	0xbe155a76	-0.1458529
35	0x3d9e76d0	0.077375054
36	0x3e1773b4	0.14790231
37	0x3e0c04bc	0.13673681
38	0x3ddfe564	0.10932425
39	0x3e5ee3ae	0.2176654
40	0x3e35af53	0.17742662
41	0x3d73cc9f	0.059521314
42	0x3e136146	0.14392576
43	0xbdb76218	-0.08954257
44	0xbe087458	-0.13325632
45	0x3d485129	0.048905525
46	0x3e3f0a4a	0.18656269
47	0xbe2c2587	-0.1681119
48	0x3d65a719	0.05606756
49	0xbe29ee29	-0.16594757
50	0x3e59773f	0.21236895
51	0x3dc81d5c	0.09771225
52	0x3d2f2b0e	0.04276567
53	0x3e30a929	0.1725203
54	0xbe36ed65	-0.17863996
55	0xb8359f70	-4.330225e-05
56	0xbe1e9518	-0.15486562
57	0xb9be8078	-0.0003633534
58	0x3e4a9057	0.19781624
59	0xbe31b812	-0.17355374
60	0x3df335ec	0.11875519
61	0x3e18f673	0.14937763
62	0x3dd50319	0.104009815
63	0x3e56a39d	0.20960851
64	0x3dbcc404	0.092170745
65	0xbe3fbc72	-0.1872423
66	0xbe01c1a8	-0.1267153
67	0xbe536905	-0.2064553
68	0x3e318ab2	0.17338064
69	0x3c2802ce	0.010254575
70	0x3dff848b	0.124764524
71	0x3e52e4b7	0.2059506
72	0xbe2ff615	-0.17183717
73	0x3e3a8809	0.18215956
74	0xbb45de14	-0.0030192183
75	0xbe162ad5	-0.14664777
76	0x3ce751d1	0.028237255
77	0xbdc9097c	-0.09816262
78	0xbded10f6	-0.11575501
79	0xbe074719	-0.13210715
80	0xbddd64af	-0.108102195
81	0xbc297b1e	-0.010344295
82	0xbc8034ac	-0.015650116
83	0xbdd0744d	-0.101784326
84	0xbe5ed610	-0.21761346
85	0xbe367895	-0.17819436
86	0xbc83de4d	-0.016097212
87	0x3e4232c0	0.18964672
88	0xbc9654c4	-0.018350966
89	0x3e27aae3	0.16373782
90	0x3e140a42	0.14457038
91	0xbd604679	-0.054754708
92	0xbd30a0c1	-0.043122057
93	0xbe414362	-0.18873361
94	0x3d9fd1a9	0.078036614
95	0x3df777dd	0.12083409
96	0xbd131441	-0.035907988
97	0xbdc7d72a	-0.09757836
98	0xbdd49a97	-0.10381048
99	0xbe02b00b	-0.12762468
100	0xbd8377b0	-0.06419313
101	0xbdb4b22b	-0.08823045
102	0xbda7f9bf	-0.08201932
103	0x3d70bdce	0.05877476
104	0xbde45160	-0.111483335
105	0x3e0f7226	0.14008388
106	0xbe5beafd	-0.2147636
107	0x3e5536bc	0.20821661
108	0x3e2986a0	0.16555262
109	0xbdee8003	-0.1164551
110	0x3c93ee1f	0.01805788
111	0x3e41811b	0.18896906
112	0x3e12a0a8	0.14319098
113	0xbd8be2db	-0.068303786
114	0xbe68ffbd	-0.22753806
115	0x3de01eb9	0.1094336
116	0x3d97c390	0.074103475
117	0xbe588612	-0.21144894
118	0xbe1789cc	-0.14798659
119	0xbdd0b988	-0.10191637
120	0xbe2a6439	-0.16639794
121	0x3e59d416	0.2127231
122	0x3e63939a	0.22224274
123	0xbe4a8be1	-0.19779922
124	0xbe04f9d8	-0.12985933
125	0xbe2c2b33	-0.16813354
126	0x3d910baf	0.070823066
127	0xbe263002	-0.16229251
128	0x3d29ac98	0.041424364
129	0xbd5ed48c	-0.05440192
130	0xbdcd0fc0	-0.1001277
131	0xbe1eba74	-0.15500814
132	0x3db50f67	0.088408284
133	0x3e59f2f4	0.21284086
134	0x3e119498	0.1421684
135	0x3c83a1ed	0.016068423
136	0x3d6a6ad4	0.057230785
137	0x3e18cca9	0.14921822
138	0xbe3e2b1b	-0.18571131
139	0xbe4bb31c	-0.19892544
140	0x3e197432	0.14985731
141	0xbe01e719	-0.12685813
142	0xbe081421	-0.13288929
143	0x3e0abb02	0.135479
144	0xbe399e8b	-0.18126886
145	0xbca1a5a6	-0.019732308
146	0xbe6d3d7d	-0.23167987
147	0x3e1d5c8b	0.15367334
148	0xbe70dcbd	-0.23521705
149	0xbe4b193e	-0.19833848
150	0x3d9e2859	0.077225395
151	0xbdc6bd09	-0.09704024
152	0xbb924748	-0.004464064
153	0x3c9eeb8b	0.019399425
154	0x3db8df5d	0.09026978
155	0x3aa9aa19	0.001294437
156	0xbe0696b9	-0.13143434
157	0xbd8f234b	-0.069891535
158	0x3bd6f4c2	0.006559939
159	0x3e1992ff	0.14997481
160	0xbddc361c	-0.10752508
161	0x3de55cf4	0.1119937
162	0x3dcef998	0.101062
163	0x3d916404	0.070991546
164	0x3db890b8	0.09011978
165	0xbc534cd0	-0.0128967315
166	0x3b88be80	0.0041731
167	0xbe32a7a7	-0.17446767
168	0x3e472c62	0.19450524
169	0xbe5d9733	-0.21639709
170	0xbe405d38	-0.1878556
171	0xbe547361	-0.20747139
172	0x3dc4e4cc	0.09613952
173	0xbe1eb75a	-0.1549963
174	0x3d332ca0	0.04374373
175	0xbb170c00	-0.0023047924
176	0xbcfa02d0	-0.03051892
177	0x3d9ec6dc	0.07752773
178	0x3e32a23c	0.174447
179	0x3e44aa8c	0.19205683
180	0x3df12d6b	0.11776241
181	0x3d41b30c	0.047289893
182	0x3e430a8e	0.19046995
183	0x3d2a7198	0.041612238
184	0x3e139adf	0.14414547
185	0x3e63f315	0.22260697
186	0x3e8063e3	0.25076208
187	0xbe392487	-0.1808034
188	0x3de6fdd6	0.11278884
189	0xbe095a69	-0.13413395
190	0x3e21b11a	0.15790215
191	0x3e1b35c6	0.15157232
192	0x3e1db453	0.1540082
193	0x3c9dc822	0.01926047
194	0xbdbe91f0	-0.09305179
195	0xbcdcbaa7	-0.026944472
196	0x3e128ce0	0.14311552
197	0x3dd38fb8	0.103301466
198	0x3e78ca56	0.24295935
199	0xbd32c2d3	-0.04364283

bias f4 [10]
0	0xbcea3371	-0.028588982
1	0xbe25a1d8	-0.1617502
2	0xbcff3644	-0.031153806
3	0x3e7d49e2	0.24735215
4	0x3e223a82	0.15842631
5	0x3d852521	0.065012224
6	0xbd00b8e2	-0.031426318
7	0x3ccf75e0	0.025324762
8	0xbe102f1a	-0.14080468
9	0xbd176a07	-0.03696635

weight f4 [1, 10]
0	0x3ce32109	0.027725713
1	0x3dd8a1a4	0.105777055
2	0x3dbbe743	0.09174969
3	0x3eac2902	0.33625036
4	0xbd838122	-0.064211145
5	0xbdfebda3	-0.12438514
6	0x3d0bcf55	0.034133274
7	0x3b52899c	0.0032125479
8	0x3e947551	0.28995755
9	0x3e5c6df4	0.21526319
