mwo/models/trained_vfa_models/model_v4.pth (torch_old, 14023 bytes, 7 tensors)

weight f4 [20, 25]
000000 df 46 e1 3e 55 a7 ff 3e ca d3 06 3f cc 36 3e 3f
       0.43999383 0.49932352 0.52666914 0.74302363
000010 b2 72 f3 be 2d fd 47 3f c1 22 3d bf 14 06 34 3f
       -0.47548443 0.7812069 -0.73881155 0.70321774
000020 f6 cd 05 bf e6 69 35 3f f2 c5 fe 3e f2 5b 02 3f
       -0.52267396 0.70864713 0.49760395 0.5092155
000030 96 ae 07 bf 87 69 44 3f 1d 68 d9 be 40 5a 22 3f
       -0.5300077 0.7672352 -0.42462245 0.6341896
000040 d8 4a 3c bf 04 0f 32 3f 89 43 1c bf 9c 97 e4 3e
       -0.735517 0.6955416 -0.6104055 0.4464692
000050 8d 66 d4 be dc 5e 09 3f 01 0a ce 3e 0e d1 38 3f
       -0.4148449 0.5366037 0.40242007 0.7219399
000060 7b d5 18 3f ea 37 ba bd 99 87 38 3e c9 62 34 3e
       0.59700745 -0.09092696 0.18020476 0.17615809
000070 fc 6b 55 3d b3 d0 4b be 00 e1 bd ba 1a ba cd bd
       0.052104935 -0.19903831 -0.0014486611 -0.10045262
000080 40 7c ab bd 40 cf 9d 3b 70 ed d4 bc bd 0f 4b 3e
       -0.08373308 0.004815966 -0.025992125 0.19830222
000090 b5 ba 35 be ca e1 e8 3d 53 ca 9a bd 98 44 2f 3d
       -0.17747004 0.11371191 -0.075581215 0.042790025
0000a0 cc c3 27 3d 7d fd a7 bd 4a 95 80 3d 92 31 01 be
       0.04095821 -0.08202646 0.06278475 -0.12616566
0000b0 5e 6e 9a 3d 03 51 fe bd 40 d1 f6 bc be 11 97 3d
       0.07540582 -0.124177955 -0.030129075 0.07376431
0000c0 e7 90 37 3e 23 57 48 be b6 1b 26 be 06 67 f1 3d
       0.1792637 -0.1956449 -0.16221508 0.11787228
0000d0 36 06 94 bd 53 bc 21 3e c0 0e d2 bd 44 93 56 3d
       -0.07227747 0.15794496 -0.102567196 0.052386537
0000e0 16 ed ab 3d 3d a4 de bd d0 c2 d2 bc 42 82 4b be
       0.0839483 -0.1087117 -0.02572766 -0.19873908
0000f0 d0 5f b9 bc fd a7 46 be 60 cb 03 3d 16 c0 84 3d
       -0.022628695 -0.1940002 0.032176375 0.0648195
000100 82 4b e2 3d 33 28 29 3e 73 02 a9 bd e6 83 d3 3d
       0.11049558 0.16519241 -0.0825242 0.10327892
000110 6a c3 15 be c0 cb fa 3c d7 07 ff bd fd 73 06 be
       -0.14625326 0.030614734 -0.12452667 -0.13130184
000120 c0 a3 f4 3b 30 ab f5 bc 28 11 6f bd 48 7f 16 be
       0.0074658096 -0.029988855 -0.05836597 -0.14696991
000130 a3 cb ef bd 27 f9 d2 bd 31 72 1f 3e f2 f3 3c be
       -0.117087625 -0.10301428 0.15570904 -0.18452433
000140 c5 a3 3d 3e 80 da 8e bd e7 b5 9d bd 40 5b 82 3c
       0.18519504 -0.06975269 -0.07700711 0.015912652
000150 c0 af 9a bc b8 c1 59 bd fd dc 41 3e 19 5f 10 3e
       -0.018882632 -0.05316326 0.18931957 0.14098777
000160 41 df 49 3e 0a f5 9e 3d 38 c3 23 be b0 3c 2d 3c
       0.19714071 0.07761581 -0.15992439 0.010573551
000170 42 53 3e be 00 7e 11 bc 70 ec f7 bc 90 82 bb 3c
       -0.18586448 -0.008880138 -0.03026411 0.022889405
000180 5d 3a 2e be a0 81 e9 bd e1 a8 01 3e 93 ce 29 be
       -0.17014451 -0.11401677 0.12662078 -0.16582708
000190 df c9 19 3e 80 d5 ef 3c db 55 37 3e df ed 1d 3e
       0.15018414 0.02927661 0.17903845 0.15422772
0001a0 b1 a6 15 3e 50 79 5c 3c 54 4e 65 3d 1e 15 b5 3d
       0.14614369 0.0134566575 0.055982903 0.088419184
0001b0 8b 37 4b be a6 d8 89 3d fe cb b1 3d b0 49 c2 bd
       -0.19845407 0.067307755 0.086814865 -0.09486711
0001c0 20 22 55 bd d3 05 b5 bd ad 9a 1b 3e 80 44 4a 3c
       -0.052034497 -0.088390015 0.15195723 0.012345433
0001d0 ef 95 3d be 88 a3 33 3d 4d b9 1e 3e 52 79 d9 3d
       -0.18514226 0.043857127 0.15500374 0.10618843
0001e0 40 35 e8 3c ae 1d 9b 3d 04 b3 6a 3d a7 31 1b 3e
       0.028345704 0.0757402 0.05729963 0.1515566
0001f0 40 73 a8 3c 7a b2 2d 3f 70 4a 0c 3f 6c 3e f7 3e
       0.020562768 0.6785046 0.5480108 0.48289812
000200 cc 26 42 3f 6b cb fc be d4 85 30 3f 94 a0 f8 be
       0.7584045 -0.49373946 0.68954206 -0.4856001
000210 a9 ef fa 3e c4 34 20 bf 99 d3 fc 3e b0 bb 1d 3f
       0.4901097 -0.62580514 0.49380186 0.61614513
000220 cc f6 ed 3e 3e 28 43 bf 35 9b 43 3f e8 f6 32 bf
       0.46477354 -0.7623328 0.764087 -0.69908
000230 5c d8 24 3f b0 7d 10 bf e3 be 25 3f a3 ce 1f bf
       0.6439264 -0.56441784 0.64744395 -0.6242468
000240 5b 86 de 3e bd 21 3a bf 32 42 31 3f 3b 56 28 3f
       0.4346188 -0.7270773 0.6924163 0.6575658
000250 e4 f5 18 3f ad 20 ea 3e cf 74 15 3f 50 f0 3c 3f
       0.597502 0.45728055 0.5838136 0.7380419
000260 fb 8b 12 3f 6b 10 1d 3f 0e e0 ea be 02 4e 23 3f
       0.57244843 0.61353177 -0.45874065 0.63790905
000270 ff 48 02 bf 06 1b 3c 3f 9b 35 02 bf ff f5 16 3f
       -0.50892633 0.73478734 -0.50863045 0.5896911
000280 f4 b2 35 3f 1c 18 22 3f 83 30 20 bf bb 36 35 3f
       0.70976186 0.6331804 -0.62574023 0.7078664
000290 b4 8e 0f bf a2 41 1a 3f 25 e9 25 bf b1 04 05 3f
       -0.5607712 0.602564 -0.64808875 0.51960284
0002a0 5e fa dc be a6 f5 1b 3f a5 af 35 bf 70 24 49 3f
       -0.43159765 0.60921705 -0.7097114 0.78571224
0002b0 62 a0 ed 3e 14 10 fa 3e cb 43 4b 3f 42 7b fd 3e
       0.46411425 0.48840392 0.7940032 0.495081
0002c0 be 3b ee 3e f9 a1 11 3f a1 c0 3c 3f c7 6f cf be
       0.46529955 0.56887776 0.7373143 -0.40514967
0002d0 84 94 f4 3e dd 6a 08 bf d7 aa 1e 3f 84 42 24 bf
       0.47769558 -0.5328806 0.6197943 -0.64163995
0002e0 a2 cc 38 3f e7 96 20 3f 1e 49 0a 3f 4d 3a 00 bf
       0.72187245 0.6273026 0.5401782 -0.5008896
0002f0 9c e5 d6 3e ba 6b d5 be f7 88 4c 3f 14 8a 1e bf
       0.41972053 -0.4168375 0.7989649 -0.6192944
000300 37 53 d1 3e f3 fe 0e bf 31 25 2c 3f af 38 2d bf
       0.408838 -0.5585777 0.6724425 -0.6766462
000310 06 6d 44 3f dc be e3 3e 80 82 3b 3f 5c b5 f4 3e
       0.76728857 0.44481552 0.73246 0.47794616
000320 10 5d 80 bd 7d 09 12 be 80 9b 67 3c 3a 33 9b 3d
       -0.0626775 -0.14261432 0.014136195 0.0757813
000330 d8 37 04 be 0a 3c e4 bd 37 4c ac bd e8 d3 98 bc
       -0.12911928 -0.11144264 -0.08412974 -0.018655732
000340 50 36 63 3c 17 c2 19 3e 38 9e 3f be 76 7c bd 3d
       0.01386793 0.15015446 -0.187127 0.09252255
000350 e2 c7 ff 3d 4b a3 30 3e 18 af 37 bd b0 3f 18 bc
       0.124892965 0.17249791 -0.044844717 -0.009292528
000360 6a dd c8 3d 82 89 2a be 50 af d0 3c 80 b4 53 bd
       0.098078564 -0.16654018 0.02547422 -0.05168581
000370 d0 d2 66 bc 5d 84 3a 3e 6e e6 14 be 1f db 42 be
       -0.014088348 0.18214555 -0.14541027 -0.190289
000380 a5 d5 04 be 1e 14 51 3f 03 5b 87 3f ba 5e 4d 3f
       -0.12972124 0.8167132 1.057465 0.80222666
000390 4a be 6b 3f 63 7f 03 c0 fe 8e 43 3f 95 1a 82 c0
       0.92087233 -2.05465 0.76390064 -4.065745
0003a0 22 a4 7c 3f f8 ad 35 c0 ee df 41 3f c8 0c 19 c1
       0.98687947 -2.8387432 0.75732315 -9.56562
0003b0 57 38 83 3f 9c 3e 1e 41 54 0d de 3f 22 ed 57 c0
       1.0251569 9.8902855 1.7347817 -3.3738484
0003c0 b4 fe 92 3f ba 6c 77 c0 33 d2 6a 3f e6 4a 3c c1
       1.1483979 -3.8660111 0.9172699 -11.768286
0003d0 6f 3a 6d 3f 0d 70 4c c0 ca 28 5e 3f d8 8c 28 c0
       0.9266729 -3.194339 0.8678099 -2.6335964
0003e0 fb 49 6a 3f 62 97 e4 c0 b4 b9 14 3f 6a 9a 36 3f
       0.91519135 -7.1434793 0.5809586 0.7132937
0003f0 5c 64 15 3f 26 67 16 3f 28 aa 19 c0 c4 63 43 3f
       0.5835626 0.5875114 -2.4010105 0.76324105

bias f4 [20]
000000 e6 83 0e bf c0 45 cb 3c f7 52 00 3e a0 10 8e bd
       -0.5567001 0.024813533 0.12531649 -0.06936765
000010 3d 2a 43 be 87 c5 2a bf 9c 72 40 bf dd 12 fe be
       -0.19059081 -0.6670765 -0.7517488 -0.49623767
000020 21 dc 14 3e c2 34 94 bf 6e 93 87 bf a7 a1 43 be
       0.14537098 -1.15786 -1.0591867 -0.19104634
000030 80 48 ca bd 19 75 68 bf 19 e2 49 bf f8 51 36 bf
       -0.098771095 -0.90803677 -0.7886062 -0.71218824
000040 63 6e 39 be d5 f3 ce bf e2 bb d1 3d f8 5f 15 bf
       -0.18108515 -1.6168162 0.10240914 -0.5834956

weight f4 [10, 20]
000000 82 33 f6 be 96 99 8e bd 40 96 e5 bd ea ce 60 3e
       -0.48086172 -0.06962888 -0.112102985 0.21953931
000010 64 80 ee 3d 83 0d 3d bf 93 2f 2a bf 65 e7 fc be
       0.11645582 -0.7384874 -0.6647884 -0.4939529
000020 54 a4 38 3e ca 6b 36 bf 6d e4 07 bf fc 2c 07 be
       0.18031436 -0.71258223 -0.53082925 -0.13200754
000030 80 3b a0 3d 28 e9 1e bf 09 b1 09 bf d0 c4 01 bf
       0.07823849 -0.6207452 -0.5378576 -0.5069094
000040 b4 1c 91 3d 7c 29 22 bf 08 22 4b 3d 0a e8 e6 be
       0.07085553 -0.6334455 0.049593 -0.45098907
000050 20 9c 0c 3c 82 86 1e 3e 06 fa 4b be 90 5c 26 be
       0.008582145 0.15480998 -0.19919595 -0.16246247
000060 f1 b7 cd bd ab dc 54 be 93 f7 19 be 45 04 47 be
       -0.1004485 -0.20787303 -0.15035848 -0.19435222
000070 64 1d 5c bd 7d 4a 01 be 5e 08 4d be d8 f4 fb 3d
       -0.053738967 -0.12626071 -0.20022723 0.123025596
000080 c0 a5 ee 3d 4e d6 e8 bd ab 5c 32 be 30 ca c8 3d
       0.11652708 -0.113690004 -0.17418163 0.09804189
000090 90 ee 07 3c 8a 6f 21 3e 00 0b b4 3d 00 9d 7c 3d
       0.008296624 0.15765205 0.087911606 0.061673164
0000a0 db 8f f0 bd ec 77 8f 3d 4c a0 07 3e f1 83 dd bd
       -0.11746188 0.07005295 0.13244742 -0.108161815
0000b0 9a 48 8b bd 00 05 c4 bb 74 1e 20 be a0 86 18 be
       -0.06800957 -0.0059820414 -0.15636617 -0.14895105
0000c0 7a 08 04 3e e5 42 e5 be b4 b5 0b bf 00 35 ea ba
       0.12893859 -0.447776 -0.5457413 -0.0017868578
0000d0 24 13 b9 3d e2 9e 32 bf 62 7f a5 bd 00 e6 0d ba
       0.09036854 -0.69773686 -0.08080937 -0.0005412996
0000e0 67 57 53 be f7 3f b0 be 20 5b 94 bc 48 a8 fe bc
       -0.2063881 -0.344238 -0.018109858 -0.031086102
0000f0 0e 4b e5 be de e3 05 be a5 f1 35 be c0 3c 29 3e
       -0.44783825 -0.13075206 -0.17767961 0.1652708
000100 88 91 06 be 21 ec d9 be 2d 74 e6 be 4a c7 0f bf
       -0.13141453 -0.42562965 -0.4501051 -0.56163466
000110 30 ec 45 be 96 56 fd be ff dc 44 bf 9b aa 29 be
       -0.1932838 -0.49480122 -0.76899713 -0.16568987
000120 b2 a0 1b be 40 46 2f bf ce bc d8 be b0 fc c5 be
       -0.15198019 -0.6846657 -0.42331547 -0.38669348
000130 3c 0c f4 3d 68 79 4c bf 86 5f 11 3e 5d 51 2f bf
       0.11916396 -0.7987275 0.14196596 -0.68483526
000140 f0 aa 31 3c 4c 6a 63 bd b4 40 11 be 8c 95 57 bd
       0.010843977 -0.055521294 -0.14184839 -0.052632853
000150 7c fa 04 bd 60 6f 01 3e e9 08 21 be 70 9e 13 be
       -0.032465443 0.12640142 -0.15726055 -0.14415908
000160 56 ca 33 3e 8b ea 56 40 74 a7 c7 40 a8 09 0f 3d
       0.17557654 3.3580654 6.239191 0.03492132
000170 a8 7d c8 bd aa 1e ad 40 7c c3 0a bd 32 50 33 be
       -0.09789592 5.409993 -0.033877835 -0.17511061
000180 f8 67 4d be e8 cc 6d 40 18 00 d3 3c 80 af 77 3c
       -0.20059192 3.7156315 0.02575688 0.015117526
000190 a8 e9 ea 3d 18 8e 96 bc c2 38 38 3e dc 57 53 3e
       0.11470348 -0.018378302 0.17990401 0.20638984
0001a0 58 61 6e bd 10 8a 2d bc c8 f8 ad 3c 48 0c 3b 3d
       -0.058198303 -0.010591999 0.021236792 0.04566601
0001b0 f0 ac df 3d 54 41 ff bf da 1b f2 bf a6 ca 61 3e
       0.10921657 -1.9941812 -1.891475 0.2204996
0001c0 94 f4 6b bd 61 6f 06 c0 b4 66 50 be d2 84 39 be
       -0.057606295 -2.100548 -0.20351678 -0.18117073
0001d0 33 99 29 be 40 65 09 3d 78 3e 88 3c 78 26 96 3c
       -0.16562347 0.033543825 0.01663135 0.01832889
0001e0 90 f1 0d 3c 5e 67 4f 3e d0 8f 0d 3e 34 c7 57 bd
       0.00866355 0.20254275 0.13824391 -0.05268021
0001f0 cc 4f b7 3d 1c 30 af 3d 20 9f 1d 3d 3c b2 e8 bd
       0.08950767 0.08554098 0.03848183 -0.113621205
000200 e4 80 b1 3d bd 59 72 40 e3 86 be 40 da 58 1a be
       0.08667162 3.7867272 5.9539657 -0.15072957
000210 4f d1 dc bd a7 1f a9 40 38 29 76 3d 22 58 1c be
       -0.1078211 5.285114 0.060097903 -0.15267995
000220 48 9b 5e 3e 16 ed 65 40 7c 50 24 3e 70 a2 e5 bc
       0.21738923 3.5925956 0.16046327 -0.028031558
000230 c4 63 5b be d1 76 26 be b8 f5 a2 bc b0 a1 d2 bd
       -0.21424776 -0.16256262 -0.019892558 -0.10284746
000240 20 66 30 3e 48 22 3d 3e 80 bd a8 3a 4f cb 3b be
       0.17226458 0.18470109 0.0012873858 -0.18339275
000250 d8 67 12 3d 98 fd 0c be 54 97 02 41 4f 02 2a be
       0.035743564 -0.13768613 8.161945 -0.16602443
000260 00 41 f0 bc c9 05 1f 41 d4 33 9b 3d d0 f5 d0 3d
       -0.02932787 9.938912 0.07578245 0.10203135
000270 c8 b2 e3 3d 38 fa 87 bc a4 8b 42 3e 70 15 15 be
       0.11118084 -0.016598806 0.18998581 -0.14558959
000280 4a 0c 25 bf 44 75 b6 bd 79 3d 50 be 97 5e 35 be
       -0.64471877 -0.089090854 -0.2033595 -0.17711864
000290 9e c8 63 3e 83 ef ee be 8a e8 c7 be 69 3d 03 bf
       0.22244498 -0.46667108 -0.390446 -0.5126558
0002a0 42 5c 37 3e 4c ea 3b bf a0 88 26 bf b8 56 49 3e
       0.17906287 -0.73404384 -0.65052223 0.19661987
0002b0 a4 0a 22 be f4 c9 12 bf 10 55 47 bf 62 e2 1f bf
       -0.15824372 -0.57339406 -0.7786417 -0.6245481
0002c0 70 5e 52 be 6a 87 fa be ba e0 48 be d7 d8 d8 be
       -0.20543838 -0.48931438 -0.19616976 -0.42352936
0002d0 20 bf fa bd 80 17 5d 3e 8c 7d 56 3e 20 da 1a be
       -0.122434855 0.21590996 0.2094633 -0.1512227
0002e0 6a cc 4c be 99 b0 3d be 50 9f 07 be 34 46 fb 3d
       -0.19999853 -0.18524398 -0.13244367 0.122692496
0002f0 20 a1 75 3d 10 9c 83 40 0d 35 be 40 31 1c 1a be
       0.059968114 4.1128006 5.943976 -0.15049817
000300 40 3d 15 bc 80 7e b3 40 3a 2a 0d be 1b 0e 26 be
       -0.009108841 5.609192 -0.1378564 -0.16216318
000310 78 21 37 3d dd 59 80 40 68 81 75 3d da f2 13 be
       0.044709653 4.0109696 0.059937865 -0.1444811

bias f4 [10]
000000 92 69 3a bf a8 25 aa bd ff 1e 1e bf 36 db 3b bf
       -0.7281734 -0.083079636 -0.61766046 -0.73381364
000010 9e 07 48 c0 6b ed 04 c0 bb 27 42 c0 c9 6d 93 c0
       -3.125465 -2.0769908 -3.033675 -4.6071515
000020 84 75 0d bf 78 28 eb bd
       -0.5525744 -0.11482328

weight f4 [10, 10]
000000 32 fc 60 3f 20 ad b8 3d fd 25 0e 3f 83 46 b3 3e
       0.8788482 0.09017396 0.55526716 0.35014734
000010 c0 86 96 40 30 ee 02 c0 6b 33 a0 40 23 3b 15 41
       4.703949 -2.0457878 5.0062766 9.326938
000020 a4 2a 19 3f cb 7d 9c 40 58 aa 30 bd b8 06 32 3e
       0.5983069 4.8903556 -0.043131202 0.17385375
000030 f4 9c f5 bd 27 a1 8f 3e 80 70 9d 40 50 8e eb bf
       -0.11992827 0.28052637 4.919983 -1.8402805
000040 6d 9e 92 40 05 07 17 41 00 e1 b4 bb e7 df 8b 40
       4.581839 9.439214 -0.005519986 4.371082
000050 72 84 c5 bd 18 84 b6 3d 51 07 80 3e 87 8f 29 be
       -0.096444026 0.08911914 0.25005582 -0.16558658
000060 dd 35 a2 40 bf a2 0d c0 3b f6 94 40 75 68 18 41
       5.069075 -2.2130582 4.6550574 9.525502
000070 34 59 8c 3d c3 8a 8d 40 38 8f ff be 88 a4 f1 3d
       0.06852952 4.4231887 -0.49913955 0.1179896
000080 72 8c 29 bf a6 b6 ff be 9f 9e 95 3e 1a 12 6f be
       -0.6622993 -0.49944037 0.2922258 -0.23346749
000090 67 46 cf be 28 65 94 be 72 7a d4 be c7 76 38 bf
       -0.404834 -0.28983426 -0.41499668 -0.7205624
0000a0 c4 2f e0 3e 7c 76 02 be c3 b9 9a 3e 9d a6 1f 3f
       0.43786442 -0.1274051 0.3021985 0.62363607
0000b0 9c 28 9f 40 db 4b 00 c0 5b 22 96 40 10 23 12 41
       4.973707 -2.0046299 4.691694 9.13356
0000c0 15 87 62 3f 7d e9 8e 40 ae 65 bd be 56 f9 4d 3e
       0.8848737 4.466002 -0.36991638 0.20114645
0000d0 55 98 14 bf 8f 48 37 bf be e3 46 3e 58 6e 0a 3d
       -0.5804494 -0.7159509 0.19422814 0.03379664
0000e0 80 0c 8d be d9 ee 99 3e 9a 9b 43 bf f2 10 3b bf
       -0.275486 0.3006504 -0.76409304 -0.7307273
0000f0 22 ff cd be 54 aa 8c be 8b 10 4f bf 16 1b 5b bf
       -0.40233713 -0.274737 -0.8088462 -0.85588205
000100 1a b3 9a be 94 fa 96 3d ce 4c cf be bb ed 79 be
       -0.3021477 0.07372013 -0.40488285 -0.24407093
000110 3c ab c6 be cf 69 51 bf 7d 8f d5 be e2 40 59 be
       -0.38802516 -0.81802076 -0.41711035 -0.21216157
000120 32 e0 39 be 8b 95 92 be ef b7 59 bf f8 68 d8 3d
       -0.1815193 -0.28629717 -0.85046285 0.10566896
000130 82 76 82 bf a9 aa 95 bf f6 70 f2 be bc 96 8b bf
       -1.0192416 -1.1692706 -0.47351807 -1.0905375
000140 70 85 7d be 90 74 6f bd 77 fb 98 3e f0 34 75 bd
       -0.24757934 -0.058460772 0.29879352 -0.05986494
000150 ad 07 20 c0 40 57 bf bb 60 0b 28 c0 33 80 14 c0
       -2.5004685 -0.0058392584 -2.6256943 -2.3203247
000160 d2 76 22 3e 0a c4 86 40 e6 dd 35 3f a0 8d e6 3d
       0.15865639 4.2114305 0.71041715 0.112574816
000170 9c e8 00 3f 8c d6 3c 3f 2f 14 9d 40 60 4d f1 bf
       0.50354934 0.7376487 4.908714 -1.8851738
000180 39 58 96 40 f3 b3 14 41 be 4b 20 3f 12 d9 96 40
       4.6982694 9.293933 0.62615573 4.713998

bias f4 [10]
000000 5c ba 18 40 0f ed 86 3f 8e 94 ad 3f 3b 17 17 bf
       2.3863745 1.0541095 1.356096 -0.5901982
000010 84 ab 13 40 ba aa 43 bf 65 77 05 bf c8 bc 1c c0
       2.3073435 -0.76432383 -0.52135307 -2.4490223
000020 1b a9 a4 41 d6 90 15 40
       20.582571 2.336965

weight f4 [1, 10]
000000 97 1a b9 40 91 51 b1 40 26 a1 b0 40 f9 bf 0c 3f
       5.784496 5.541207 5.5196714 0.5498043
000010 69 e1 b8 40 43 64 26 3f 4a e8 1c 3f 03 b2 c4 bf
       5.777516 0.6499674 0.61291945 -1.5366825
000020 40 ae af c0 71 90 b7 40
       -5.4900208 5.736382
