mwo/models/trained_vfa_models/model_horizon120_ts_360_greedy_marginally_best.pth (torch_old, 17104 bytes, 7 tensors)

weight f4 [30, 25]
00000000: 4c90 6f3d 211d 573f 9532 cf3f ca50 c23f
00000010: eea8 a33f 0755 1b3f 1adc c03f 5eda 3b3f
00000020: 1974 fb3f 2e36 643f d5ff 893f 9030 593f
00000030: eab7 e23f aad0 c63e e800 be3f 3e50 893f
00000040: 2e6d 243f 2547 063e 4642 d5be 4fc4 233e
00000050: 84b9 983f 549b c2bd 3641 6dbd eebf e93c
00000060: 7471 e0bf 8199 7bbf 3d09 c4bf 97a6 373e
00000070: 5871 093f 001c 3f3f 9019 b9bf 7083 7a3f
00000080: a6a0 80bf 3e58 bc3e 009b b2bf 360d bd3f
00000090: 16cd 0740 4a6f 01c0 e83c c13f d902 f5be
000000a0: e3a2 6d3d 7ca7 7fba 1807 40be 576f 47bf
000000b0: 77b4 093e 4844 093d ff7d f43e dfda 063f
000000c0: 4743 793f 2b52 90bd 2a70 6ac0 113d 94c0
000000d0: 3656 df3b ea55 bc3e fd08 75bf 32f3 aebf
000000e0: 0751 a33e 582d 173e 86cb b13f 0a90 2a3e
000000f0: 1ed6 823f 6a2c 9f3f 9d03 fe3e 14bd 8cbf
00000100: ad05 c3bf cc8f b0bf 5e37 643f 5c0d 8bbd
00000110: 798c 54bf f8b3 48be bf98 713f 9058 48bf
00000120: 79b1 493f 8212 1540 053e 05c0 40eb 0c3f
00000130: b35b 593f fa4f cf3f 0640 cf3f 1aed ed3f
00000140: d200 0a3f 727f c23f 7b3e 013f d3d7 f03f
00000150: c329 5b3f 45fb a83f 1dc1 0ebe 8311 0840
00000160: 6e6b 883f 854b c83f a4f0 cf3f 8244 483f
00000170: 0034 223d dc4f 22bd c009 f4bb 14f5 ec3f
00000180: 0d9b 813e 5751 cc3e f4f2 53be 6489 00c0
00000190: 292c 38bf df38 bdbf 9a25 bd3e df54 a53f
000001a0: 4393 32bf 5970 2240 6106 353f 51c9 843f
000001b0: 5f75 d2be 0cd4 0a40 9c5d 8f3f 4556 3940
000001c0: c9bf 10c0 de47 d83e 00fa abbf af26 393f
000001d0: 747e b4be c018 d6bd 4408 9dbf 18e6 c13c
000001e0: 3649 31bf 46d0 1540 a6e6 0840 2877 7940
000001f0: c1a3 a53f 0cd4 4e3e 87d0 6e3f d80c 35bd
00000200: 33dd 343f 3aa6 943e dce3 cc3b 8f54 123f
00000210: bb95 f3bd 267d cdbe 125f dfbf ba77 bd3f
00000220: 808c 3640 1ec7 2bc0 9b16 5f3f 7a5e 81be
00000230: 81fe 6abe ce84 32bf 116f 1c3e 2cea 9ebf
00000240: 9b84 3fbe c3fe aabe 8646 c23f 9cf3 503f
00000250: facf b6be 94b2 543f e6e1 a6c0 bd94 6cc0
00000260: e6d5 f33f cc85 273f 2ad9 b63e e183 ebbe
00000270: 01ec 1a3f 40f3 48be 338d eb3f 8217 d43e
00000280: 6dbe 0740 be73 993e b3ea fd3e 1ee2 4cc0
00000290: 9494 68bf 63e9 323f 8b26 013f b871 3ebd
000002a0: 0a01 c73f 6cfb 83bd 63cc 5c3f 15b9 ab3e
000002b0: 3d81 34bf 1519 2dbf dc16 2ac0 3502 56c0
000002c0: 82d8 3dc0 ff05 c93f dfeb 713f b367 48bc
000002d0: 0d74 83bf 39fd f73e 4bf7 ca3f e940 e43f
000002e0: 2d0e 1ebf 188c 333f 8785 8a3f 4e6d 953f
000002f0: 7e0b eebf e67c 89bf 4168 9ebf 5599 203f
00000300: 6603 f63d 756b 693f 32bc ec3d d160 903f
00000310: 0bab ed3e 0e82 8dbf 0271 343f 8106 29c0
00000320: bd64 963f 97dc 2840 fed5 b13f 7e0d c83f
00000330: abb6 da3f 3c09 eabf 0a55 fb3f fd2f a53e
00000340: fd70 ae3f 919b d5bf 121f fabf d790 4540
00000350: 7ed0 2d40 4f90 05be 6d2a d6be a5a1 253f
00000360: fae1 d9bf 503b 963c 92c0 bbc0 a20c 33be
00000370: 9ad9 993f 7d86 933f 7841 61c0 228a f4bf
00000380: 0400 edbf e29b 8ac0 2b5b 9ac0 c78e 923f
00000390: 8f24 e53e 5e8f 29bf aab9 a2bf 1640 4fbe
000003a0: 7c2b e73f 4fc8 ac3f 8189 d63c 22a9 7e3f
000003b0: 2d0b ac3f 8d53 bf3e 23cf b8bf 7d38 cfbf
000003c0: 4696 e1bf 39fc 903f ec99 5abd 1157 fb3e
000003d0: abc0 2a3e e165 4e3f ef5e 4b3d de09 26be
000003e0: bca0 0a40 0ec2 10c0 e012 eb3e 6267 703f
000003f0: f62e cb3f e619 ca3f 0502 d03f faaf 493f
0.05848722 0.8402882 1.6187311 1.5180905 1.2785928 0.60676616 1.506717 0.73380077
1.9644805 0.8914517 1.0781199 0.84839725 1.7712376 0.38831073 1.4844027 1.0727613
0.64229095 0.13113077 -0.41652125 0.15992855 1.1931615 -0.09502283 -0.057923518 0.028533902
-1.7534623 -0.98281103 -1.5315319 0.17934643 0.53688574 0.746521 -1.4460926 0.9785681
-1.0049026 0.36786073 -1.3953552 1.4769657 2.1218925 -2.0224175 1.5096712 -0.47853735
0.05801667 -0.0009752435 -0.18752706 -0.77904266 0.13447748 0.033512384 0.47752377 0.5267772
0.9736828 -0.07046922 -3.663096 -4.6324544 0.006815697 0.36784297 -0.9571684 -1.3667967
0.31897756 0.14763391 1.3890235 0.16656509 1.0221593 1.2435429 0.49612132 -1.0995202
-1.5236107 -1.3793883 0.89146984 -0.067896575 -0.83026844 -0.19599903 0.943737 -0.78260136
0.78786427 2.3292546 -2.0819104 0.55046463 0.84905547 1.6196282 1.6191413 1.8587983
0.539075 1.5195143 0.5048596 1.8815864 0.856106 1.3201681 -0.13940854 2.1260688
1.0657785 1.5648047 1.6245313 0.78229535 0.039600372 -0.03962694 -0.0074474514 1.8512292
0.25313607 0.39905807 -0.20698148 -2.0083857 -0.71942383 -1.4782981 0.3694275 1.2916526
-0.69755954 2.5381072 0.7071286 1.0373937 -0.41105172 2.1691923 1.1200442 2.8958905
-2.2617056 0.4224233 -1.3435669 0.7232465 -0.35252726 -0.104539394 -1.2268147 0.023669288
-0.69252336 2.340837 2.1390777 3.8978977 1.2940599 0.20198077 0.9328694 -0.044201702
0.70650023 0.2903307 0.006252749 0.57160276 -0.11893793 -0.40134543 -1.7450888 1.4802163
2.8523254 -2.6840281 0.8714387 -0.25267392 -0.22948648 -0.69733894 0.15276743 -1.2415214
-0.18702929 -0.33397493 1.5177772 0.8162172 -0.3570555 0.8308499 -5.2150755 -3.6965783
1.9049652 0.6543853 0.35712558 -0.45999053 0.60516363 -0.19624043 1.8402466 0.41424185
2.1209977 0.29971117 0.49593124 -3.201301 -0.9085171 0.6988737 0.50449437 -0.04649517
1.5547192 -0.06444439 0.8624937 0.33539644 -0.705097 -0.676164 -2.6576452 -3.3438847
-2.9663396 1.5704955 0.94500536 -0.012231755 -1.0269791 0.4843538 1.5856718 1.7832309
-0.6174038 0.7013564 1.0821999 1.1673982 -1.8597257 -1.0741241 -1.2375566 0.62733966
0.12012367 0.9117959 0.11559333 1.1279546 0.46419558 -1.1055315 0.70484936 -2.641022
1.1749493 2.6384637 1.389343 1.5629117 1.7086996 -1.8284068 1.9635327 0.32263175
1.3628231 -1.66881 -1.9540732 3.0869653 2.7158504 -0.1304333 -0.41829243 0.64699775
-1.7022088 0.01833883 -5.867257 -0.17485288 1.2019532 1.1525418 -3.519621 -1.9104655
-1.851563 -4.3315287 -4.823629 1.1449822 0.44754454 -0.66234386 -1.271291 -0.2023929
1.8060145 1.3498629 0.026188614 0.99476826 1.344091 0.37368432 -1.4438213 -1.6189114
-1.7623985 1.1326972 -0.053369448 0.49089864 0.1667506 0.80624205 0.049651083 -0.16214702
2.1660604 -2.2618442 0.45912838 0.9390775 1.5873706 1.5789154 1.6250616 0.78784144

bias f4 [30]
00000000: 11ea 8840 c064 edbe 8ff3 6540 affb 9140
00000010: 4380 7bc0 6dd5 24c0 2d7c 0841 a557 c440
00000020: 57cb c4bf 5401 ab40 f624 8340 7887 5f40
00000030: 4400 df3f 8fe9 53bf 21d3 6440 bc63 d040
00000040: 21d1 8c40 85f0 5a40 4014 75c0 cdde b940
00000050: e368 5d40 5e2f 67c0 2a86 cd40 c06b 1341
00000060: 2691 8240 1073 7a40 5c9d ba40 a54c 8440
00000070: 8d6d db40 f3cb 8940
4.2785726 -0.4636593 3.5929906 4.561973 -3.9297035 -2.5755265 8.530316 6.135699
-1.5374554 5.343912 4.098262 3.4926434 1.7421956 -0.8277826 3.5753863 6.5121746
4.4005284 3.4209301 -3.829361 5.8084474 3.4595268 -3.612266 6.4226274 9.213806
4.0802183 3.9132729 5.831709 4.134356 6.857123 4.306146

weight f4 [20, 30]
00000000: 3244 9d3f a69b 223e 9b4f c63e 62b0 ba3f
00000010: e865 bbbe 5a7f 213e 49af 5640 f997 583f
00000020: 2427 b33f 504c 653f ebbf b23f a5ce c13f
00000030: e6f2 5e3d 034a a63e 93f4 c23f 3b70 2440
00000040: 9979 b43f 9afc ea3d 4569 b4bf 1eec af3f
00000050: 862f b83f bc5f a4bf 4ecd 1440 4ef0 0040
00000060: 0e40 b73f 0e98 bb3f 6121 0c3f 841e b03f
00000070: 36ac 8d3f 1a51 c53f b087 1bbf 8e5a eebe
00000080: 9e81 10bf de64 3abf 51ce 43bf a813 d8be
00000090: 94db 21bf 6c63 39bf 52cd 30bf 80b8 27bf
000000a0: 1045 08bf 6625 46bf 4bf3 28bf 083a f7be
000000b0: 43b2 2fbf 802a 2bbf 0a38 18bf a405 12bf
000000c0: 900f 05bf 62c7 dabe 715d 00bf 2696 dcbe
000000d0: 1400 31bf ee10 08bf e454 05bf 7d91 35bf
000000e0: eca7 28bf cb21 08bf ee09 17bf 5422 f6be
000000f0: d9ef 13bf c288 eebe e6fe dfbe c653 19bf
00000100: 220a 17bf bb6b 14bf 4ed1 2bbe 4bd8 15bf
00000110: 47e2 19bf df84 21bf b1ac 0fbf 898d 20bf
00000120: 1727 3abf c49e 1abf 1cdd 333e be36 febe
00000130: 3733 47bf 1c0c e2be 8f0f 32bf 496a 1fbf
00000140: a006 e7bd e746 07bf 448b 11bf 9de4 44bf
00000150: dd92 40bf ce28 31bf 559e 34bf 4370 38bf
00000160: c174 30bf 1f3f 07bf 34b6 923f a776 293e
00000170: 8bef 673e 0376 a33f 8601 8abe a9f1 8d3d
00000180: 08ce 4b40 585b 2e3f 1bde ca3f 609d 8d3f
00000190: d71f b03f 4093 ad3f d738 aa3d ca73 253e
000001a0: 492e c93f def2 2f40 754c 883f 1f50 52bd
000001b0: e7c8 bfbf 82e3 cc3f 05f6 b93f 10d1 a7bf
000001c0: eb0a 1540 4cd6 df3f 4f0f c83f 856a 983f
000001d0: 7063 e63e d37d ca3f a60e 8c3f 2a38 9a3f
000001e0: 1530 963f 12ab 33be 11f6 8a3e bb6c 943f
000001f0: 084c eebe 655a 663e 7e86 3a40 f6b3 1d3f
00000200: d283 9a3f 2392 8c3f 0a7a a03f 5479 9d3f
00000210: 9f95 713e 323e bf3e d72f 8e3f 29f5 1b40
00000220: 44a5 993f 5724 4a3c 2741 d5bf 2571 b23f
00000230: 2f35 843f 1b1e a9bf 2cdb 0d40 d861 c13f
00000240: b383 9e3f 27c5 8e3f 69b7 173e 1fc5 9b3f
00000250: 6f05 8c3f 6514 bb3f 705e 8cbc 74bb d7be
00000260: 3799 21bf d452 43bf cbda e4be 85fd 21bf
00000270: 8f15 2fbf 7b23 45bf b3af 09bf 5270 e5be
00000280: f1e7 1abf e021 693d 2135 03bf fa86 28bf
00000290: 8087 40bf 7a87 17bf c238 e9be b533 47bf
000002a0: 5cf9 47bf 8744 44bf d45c f4be 9dca 06bf
000002b0: 2bfb efbe 24d2 febe e237 16bf b225 ddbe
000002c0: 4618 1bbf 0713 14bf b5c5 05bf 4382 22bf
000002d0: 9a9e a43f 104c 6dbd 0b7a bf3e e321 cd3f
000002e0: d998 d7be 133a aabc ece6 5640 ce71 1e3f
000002f0: 22e3 b73f 9341 6f3f 08ef c63f 4e7e d33f
00000300: 373d b53d 5907 7d3e e069 c13f 80b0 2f40
00000310: fb9e a23f 041b 043e 6c94 c5bf 41d8 c33f
00000320: b982 ab3f 1d79 9dbf cfc8 1b40 4e93 fd3f
00000330: 9c3c b73f a6ec 9f3f 99c7 e43e 942b c63f
00000340: 7832 b33f 1a5a bf3f b24d be3f 2564 d53d
00000350: f6d0 9f3e cd27 bb3f 5c9f d2be 204c b73d
00000360: 6bc1 5040 ae5a 5a3f e6db cd3f c4e2 6c3f
00000370: 1960 c33f 5411 c03f 005a bb3d 7534 8d3e
00000380: 844b b03f 83f5 2f40 39bc bf3f 479a 5abd
00000390: 6212 a6bf 95ef a43f 9307 a23f 2b03 a5bf
000003a0: 8aaa 1140 96f8 f53f 8bc6 c83f fab0 a73f
000003b0: 0483 a33e 5361 a93f e712 8b3f 38a9 be3f
000003c0: 5c73 a63f 40ce c5bc 5683 583e 1d95 c03f
000003d0: 13ff 9abe 6ed5 373e 6de4 5a40 0dd6 2c3f
000003e0: 0bfe ab3f 6d46 873f 58ea a73f 6f3c b43f
000003f0: f598 33bd f4b2 d13e b86c bd3f 718b 3740
1.2286437 0.15879688 0.3873261 1.4585078 -0.36601186 0.15771237 3.3544486 0.8460689
1.399632 0.8956957 1.3964819 1.5141188 0.054430865 0.3247834 1.5230888 2.56935
1.4099609 0.11473961 -1.4094626 1.3743932 1.4389503 -1.2841716 2.3250308 2.014667
1.4316423 1.4655778 0.5473843 1.3759313 1.106818 1.5415375 -0.6075392 -0.46553463
-0.5644778 -0.7281016 -0.7648669 -0.42202497 -0.63225675 -0.7241733 -0.69063294 -0.655159
-0.5323038 -0.77400815 -0.65996236 -0.48286462 -0.6863138 -0.66861725 -0.5946051 -0.57039857
-0.5197687 -0.42730242 -0.5014258 -0.43083304 -0.69140744 -0.5315083 -0.5208266 -0.7092512
-0.6588123 -0.53176564 -0.58999527 -0.48073065 -0.57787853 -0.46588713 -0.4374916 -0.59893453
-0.58999836 -0.57976884 -0.16779062 -0.5853316 -0.60110897 -0.6309337 -0.5612288 -0.62715966
-0.72715896 -0.6039851 0.17564815 -0.4965114 -0.7781252 -0.44149864 -0.6955499 -0.62271553
-0.112805605 -0.52842563 -0.5685313 -0.76911336 -0.75224096 -0.6920289 -0.70554096 -0.720463
-0.6892815 -0.5283069 1.1461854 0.16549169 0.22649972 1.2770389 -0.26954287 0.06930859
3.1844501 0.6810813 1.5849031 1.1063652 1.3759717 1.3560562 0.083116226 0.16157451
1.571725 2.7491984 1.0648333 -0.05134594 -1.4983186 1.600693 1.4528204 -1.3110676
2.3287914 1.7487273 1.5629672 1.1907507 0.4499774 1.5819649 1.094197 1.204839
1.1733423 -0.17545727 0.2714086 1.1595682 -0.46542382 0.2249542 2.9144588 0.61602724
1.2071478 1.0982097 1.2537243 1.2302651 0.23592232 0.3735214 1.110835 2.4368384
1.200356 0.012337766 -1.6660508 1.3940779 1.032873 -1.3212312 2.2165022 1.5107985
1.2383941 1.1153916 0.14816059 1.2169532 1.0939158 1.4615599 -0.017134875 -0.42135203
-0.6312441 -0.7629826 -0.44698176 -0.63277465 -0.6839227 -0.77007264 -0.5378372 -0.44812256
-0.60510164 0.05691707 -0.51252943 -0.6583096 -0.75206757 -0.59191096 -0.45551115 -0.77813274
-0.7811487 -0.76667064 -0.47727072 -0.52652913 -0.46871313 -0.497697 -0.5867902 -0.43192822
-0.60583913 -0.57841533 -0.522548 -0.63480014 1.2860901 -0.057933867 0.373978 1.6025966
-0.421088 -0.020779645 3.3578444 0.618924 1.436619 0.93459433 1.5541697 1.652292
0.088495664 0.24709834 1.5110435 2.7451477 1.2704767 0.1290093 -1.543592 1.530037
1.3399268 -1.2302586 2.4341314 1.9810579 1.4315372 1.2494094 0.4468353 1.5482049
1.3999777 1.4949372 1.4867461 0.10419492 0.31214112 1.4621521 -0.41137207 0.089500666
3.2618053 0.85294616 1.6082733 0.92533517 1.5263702 1.5005288 0.091480255 0.27579084
1.3773046 2.7493598 1.4979316 -0.053369787 -1.297436 1.2885615 1.2658561 -1.2891592
2.2760339 1.9216487 1.568559 1.3100884 0.31935894 1.3232826 1.0865144 1.4895391
1.3003955 -0.0241462 0.2114385 1.5045506 -0.3027273 0.1795251 3.420192 0.67514116
1.3436903 1.0568367 1.3118391 1.4080943 -0.043847043 0.40956843 1.4798803 2.8678858

bias f4 [20]
00000000: d0a1 ab40 63af 20bf 794f 13bf 107c a040
00000010: 6402 a040 ba1f edbe 8254 aa40 7f37 a240
00000020: 6067 a340 f0a6 9e40 18aa 1bbf 8ea0 8f40
00000030: 2067 3ebf 5a63 2bbf 33fb 8840 1d07 f2be
00000040: aa37 9f40 c9b7 a140 ef73 9d40 bee0 a440
5.3635025 -0.6276762 -0.5754314 5.0151443 5.000292 -0.46313268 5.322816 5.0692744
5.106369 4.957878 -0.6080642 4.488349 -0.74376106 -0.66948473 4.280664 -0.47271052
4.975545 5.0536847 4.920402 5.1524343

weight f4 [10, 20]
00000000: bd09 ae3f c1ad e23e faa9 e73e ea76 b13f
00000010: 47c7 843f b161 0e3f bd0f bb3f e221 a53f
00000020: a05e 9a3f 9b0b b13f 3d67 d03e 4b3d 943f
00000030: fe33 103f 870e e73e 42c5 5a3f 6f7a 263f
00000040: 7814 a03f 2f09 b03f 5126 873f dfa7 ad3f
00000050: fa36 b63f f6f2 f33e 953e 083f 075d aa3f
00000060: b7ab 8b3f 6e66 eb3e 65ff bb3f de24 b53f
00000070: bcfd b23f bb15 873f 5c45 1d3f 08af 533f
00000080: ae7d e23e dc4e 003f 0179 8b3f 5b54 d03e
00000090: f4dd b43f 5dc0 9f3f cefe 8c3f 3b38 b13f
000000a0: 50b9 413c 7863 773d 787a d73d 7df0 30be
000000b0: 8ce2 0c3e e012 ea3c 406c 82bc 7893 a63d
000000c0: ae57 13be 6822 17be 9bf5 43be 80a9 1a3d
000000d0: a62d 5e3e e8c2 383e a6b8 0a3e 8666 3c3e
000000e0: b2c1 62be ecce ae3d bad0 a1bd 28ea 1fbe
000000f0: 681c cbbe 6f31 49bf b70c 04bf 9e2f 15bf
00000100: 88f5 fbbe aee6 38bf 7467 30bf 2370 0cbf
00000110: 848e ecbe 0cbb 46bf 0c63 dfbe 328b c1bd
00000120: 7ae9 53be 08e1 3fbf e3ca 05bf 70a5 5bbe
00000130: 32dc 36bf 4fb2 30bf 8ba1 40bf daf7 f1be
00000140: b529 a43f 93b2 333f ecdb 173f 5754 9d3f
00000150: 1662 a13f dbd5 373f 9ff7 c53f a343 c33f
00000160: 17c1 b63f 62a5 a13f 08c0 c53e f2c4 8e3f
00000170: a74e e63e d458 133f 2b9e 993f e00d 2a3f
00000180: 8ad3 b33f 496d a13f a5a3 aa3f 661f b93f
00000190: c934 e6be a429 3fbe d6ab d4be 28f1 533e
000001a0: ff91 50be 1c8e 24be 8cb0 d5be 6762 14bf
000001b0: 576e 37bf f9d2 39bf d534 45be 2f0b cdbe
000001c0: 911f 2abe 0e39 bbbd 76bc 26bf 3a1f 0e3e
000001d0: 76ef 363e a311 f5be 5451 11bf bbb0 13bf
000001e0: a020 c1be dd08 48be 0c27 e93d 2d85 d6be
000001f0: fb14 0dbf 22be 87bd e8c1 2fbf edab 38bf
00000200: 372d 18bf b2da 3fbf 7871 0dbe d997 37bf
00000210: c0a4 0e3c 6ce9 2a3e 7030 c13d e452 23be
00000220: d2c2 39bf 4459 2ebf 9df3 0bbf 04f1 cebe
00000230: 4e17 bd3f f719 2e3f 87e9 1d3f 80cd b13f
00000240: 6f5c a23f 5253 1c3f 7c43 a93f caaf c43f
00000250: 41ab a13f 57db b83f 129b 203f 6a62 833f
00000260: 8c37 163f 0971 d43e 1872 5e3f 6d5d 3a3f
00000270: cc82 9a3f 055c a83f 351f ad3f 882c ab3f
00000280: 772e 34bf 1cb3 00bf 0cfc 37bf 9909 01bf
00000290: 8412 35bf 1951 c6be 9037 2cbf 6743 4cbf
000002a0: dd05 4fbf 202a d6be af0b 44bf 3ac7 41bf
000002b0: e7fc 41bf 0891 3fbf 713a 2dbf 1a89 cfbe
000002c0: ea83 03bf e08c f7be 5775 35bf 5082 2bbf
000002d0: 0c75 b93f 70f9 1e3f c6eb 383f 5cec ac3f
000002e0: 4dae b03f b507 143f 6037 c53f 9086 8d3f
000002f0: 0c8c a23f fb91 8a3f 21eb 4f3f eea0 543f
00000300: aee0 e63e 3edc fa3e 5850 8e3f f76f 3b3f
00000310: 2963 b63f 0531 9b3f 1ac1 763f 1fc3 a43f
1.3596722 0.4427319 0.4524687 1.3864415 1.0373315 0.55617815 1.4614178 1.2900965
1.2060127 1.3831667 0.40703765 1.1581205 0.56329334 0.4512827 0.8545724 0.6503057
1.2506247 1.3752803 1.0558568 1.3566855 1.4235528 0.47646302 0.5322049 1.330964
1.0911778 0.45976585 1.4687315 1.4151876 1.3983684 1.0553507 0.6143396 0.8268895
0.4423651 0.5012033 1.0896302 0.40689358 1.4130235 1.248058 1.101526 1.3845285
0.011823967 0.060397595 0.10521406 -0.17279239 0.13758296 0.028573453 -0.015920758 0.08133596
-0.14388916 -0.14759219 -0.1913666 0.037759304 0.21697101 0.18043101 0.13547 0.18398485
-0.22144201 0.08535561 -0.079011396 -0.15616667 -0.3967011 -0.78591055 -0.515819 -0.58275783
-0.49210763 -0.7222699 -0.68907857 -0.5485861 -0.4620248 -0.7762916 -0.43630254 -0.094503775
-0.20694533 -0.74952745 -0.52262706 -0.21449828 -0.7142974 -0.6902208 -0.75246495 -0.47259408
1.2825228 0.7019436 0.5931995 1.2291363 1.2608058 0.7181069 1.5466193 1.5255016
1.4277676 1.2628596 0.3862307 1.1153853 0.44981882 0.57557416 1.2001394 0.6642742
1.4048932 1.2611476 1.333119 1.4462707 -0.44962147 -0.18668228 -0.4153735 0.20697463
-0.20368193 -0.16069835 -0.41736257 -0.5796265 -0.7165274 -0.72587544 -0.19258435 -0.40047595
-0.16613604 -0.09141742 -0.6513132 0.138791 0.17864785 -0.47865018 -0.5676472 -0.57691544
-0.37720203 -0.19534631 0.11384401 -0.4189848 -0.5511014 -0.06628062 -0.6865525 -0.7213734
-0.5944399 -0.7494308 -0.13812816 -0.71716076 0.008706272 0.16690606 0.09433067 -0.15949589
-0.725629 -0.6810496 -0.546686 -0.40418255 1.4772737 0.6800837 0.6168446 1.3890839
1.2684458 0.61064637 1.322372 1.5366147 1.2630388 1.4441937 0.6273662 1.0264409
0.5867851 0.4149249 0.86892843 0.72798806 1.2071166 1.3153082 1.3525149 1.3372965
-0.703834 -0.502733 -0.7186897 -0.5040527 -0.7073138 -0.38733748 -0.6727228 -0.7979035
-0.8086832 -0.41829014 -0.7658033 -0.7569462 -0.75776523 -0.74830675 -0.676673 -0.40534288
-0.5137316 -0.48349667 -0.7088217 -0.66995716 1.4488845 0.6209936 0.7223476 1.3509631
1.3803192 0.5782426 1.5407524 1.105669 1.2698989 1.08258 0.81218153 0.8305806
0.45093292 0.48996156 1.1118269 0.7321772 1.4249011 1.2124335 0.963884 1.2872046

bias f4 [10]
00000000: 6596 9d40 f089 9b40 8828 5fbe 9a9f 2bbf
00000010: 5008 a040 5a9d 3fbf 116a 39bf 9c28 a240
00000020: 586a dfbe 0aa1 9e40
4.9246087 4.860588 -0.21792805 -0.6704041 5.0010147 -0.74849474 -0.7242747 5.067457
-0.4363582 4.957158

weight f4 [1, 10]
00000000: c4b9 bd3f 343c bf3f 7555 00be aed9 c93e
00000010: c3c8 b63f e82d a33e bd90 bc3e 0c20 b53f
00000020: 9419 983e eb4b ae3f
1.4822316 1.4940248 -0.125326 0.3942389 1.4280018 0.3187096 0.36829177 1.4150405
0.29707015 1.3616918
