mwo/models/trained_vfa_models/model_horizon_120_same_performance_as_greedy.pth (torch_old, 17104 bytes, 7 tensors)

weight f4 [30, 25]
00000000: 930c 7fc0 f380 2cc0 429a a23f 1908 2fbf
00000010: 25c2 b0be 6693 233e 1e70 3c3f ed30 563f
00000020: 47bc c43e 2cf7 94be 7a00 b13f 8eae e53f
00000030: 4219 44c0 5a62 41bf 7057 d8bf b165 3fbf
00000040: 82e5 5e3f 32a8 a63d 27e5 43bf 3091 0abc
00000050: 44e7 c0bf 7666 c23e 318c 3fbd 074c eebd
00000060: c0b8 0dc0 8d6d 2fbf b49a 923f a0e8 683f
00000070: fb94 5fbe 9450 3d3e 1b1b 523f 262c 4e3e
00000080: 3abf 54bd 2dda 1c3f 5bfc 1dbd 9122 113f
00000090: 1f9e 8a3e f2a2 2240 1c9a 74c0 c759 97bf
000000a0: 5281 afbf 3996 7bbf 1053 29be ab3d 3abf
000000b0: a965 1a3e 6e07 c63d a783 533e d08e 24bc
000000c0: 3454 1ebf 69ea 31c0 f952 9a3f 8489 7a3f
000000d0: 1c94 873f 7548 b73f a119 a43f a1da 0f3f
000000e0: 3027 a13f 2601 873e ee7c 623f e213 ef3d
000000f0: 1a32 843f 0e1b 18bf 2bf0 1140 902f 1a3f
00000100: 8e08 2b3f 679c 673f 772a 273f 7004 40be
00000110: 3743 ed3e b082 b2bd c229 973f 0851 19be
00000120: f8b1 513f 218a c13e 6da5 e5bf a915 5ec0
00000130: 5638 bfbf dbbb 643f 47cc 41bf a5a6 c0be
00000140: 0f02 873d cf93 783f bd23 263f e25b fd3e
00000150: f116 c7be ad6f a53f 8752 dc3f 1e17 81c0
00000160: fd60 01bf a42f 6cbf c814 10bf 9f66 5d3f
00000170: f683 823d 54d3 e3be ca54 10be 9c40 95bf
00000180: ba74 a9bd 2806 a3be 3b03 edbc b7da 11c0
00000190: 597d 753f 1af4 ba3f 11fe 2e3f b307 363f
000001a0: 9569 a13f 1942 36be 196d 873f e4dc 8fbe
000001b0: ac5f 813f 78d1 96bd 2c62 7c3f b5e0 49bf
000001c0: 94d4 b13f ee06 433f f204 4c3f 133e 433f
000001d0: ef54 e23f 0bdc 11be 3972 8e3f 2277 993d
000001e0: 1020 313f c418 91be 127e 1b40 c28b 04c0
000001f0: df4f c5bf d19b 68c0 2991 21c0 f51d 843f
00000200: 4062 07bf cfb9 79be 31cc 953e a1a8 263f
00000210: 943b 233f 0f1d 113f 31d8 24be 94dd b23f
00000220: cfe6 cf3f 5ec3 48c0 7f0f a7be 5c13 82bf
00000230: b3ba cbbe bc68 153f 40b8 ffbb 6481 6fbe
00000240: a0e1 d1bd 464a a3bf 4bea 313e e44e 803c
00000250: 3b1a ecbd aa60 1ec0 0639 8bc0 d930 5bc0
00000260: ea01 e03f 1a86 01bf 4cb0 dbbe 9d56 9e3e
00000270: 5891 e23e 4024 d03e 1a29 c63e 8f84 94be
00000280: 29b1 b73f 3572 d53f c408 3fc0 b4ed cbbe
00000290: 851a c3bf 62d7 f0bf daed 813f 1607 ac3d
000002a0: 446a 91bf 009a 4a3c 3315 a7bf 5ab5 6f3f
000002b0: e5cf b2bd dc69 c53d 06c9 08c0 ddb3 5ec0
000002c0: ea41 0bc0 1473 c83f 94a4 01bc 374e 7abe
000002d0: 5ba0 2f3f 7449 253f 6f06 753f 1ca4 6f3e
000002e0: af46 acbd f63c c33f 48ce cb3f 562b bfbf
000002f0: a239 ca3d 9c98 6dbf 73e9 f1be fd3c e53e
00000300: 7783 abbd baec 2bbf 9269 a03d 35f2 36bf
00000310: ae3d 343f 1450 97be 190a 923d e1d1 1ec0
00000320: 59fd 6f3f c2e7 5b3f 62eb 8e3f a348 a73f
00000330: 39a5 a93f dc57 3d3f 2016 953f b0a4 cc3e
00000340: e5b5 853f 46c8 c33d c794 493f 6af8 1cbc
00000350: c84c 0d40 dcee fb3e cb1f 683f 85ea 613f
00000360: bee1 713f 2068 80bd 4f59 8b3e 1d93 bcbd
00000370: f447 7b3f 5f0f 28be 9fee b33f 3c08 d43e
00000380: 62d6 e0bf 8ea4 1cc0 d2a2 033e de39 c83f
00000390: 08b8 2dbd 64eb 953e 63aa 3f3f f5cb 653f
000003a0: 1994 803f 7293 393e 6b81 bbbe f125 c13f
000003b0: 09f9 c13f 58e1 abbf 1730 9dbf fa7f acbf
000003c0: 3d53 c8be 83f7 17be dba0 2dbe 5a16 e8be
000003d0: dafc 8cbd 2ceb 66bf 3908 873f 6e86 743d
000003e0: bc28 37be 94d3 50c0 9811 963f 1b18 4a3f
000003f0: 9804 a83f b637 8c3f ffc0 993f 8f33 543e
-3.9851425 -2.6953704 1.2703326 -0.6837173 -0.3452312 0.15974197 0.7360858 0.83668405
0.38424894 -0.29094827 1.382827 1.7943895 -3.0640416 -0.755407 -1.6901684 -0.74764544
0.8706895 0.081375495 -0.76521534 -0.008457467 -1.5070577 0.37968796 -0.046764556 -0.11635595
-2.2144012 -0.68526536 1.1453462 0.9097996 -0.21834175 0.1848777 0.8207261 0.20134029
-0.05194018 0.6127041 -0.038570743 0.5669337 0.27073762 2.5411954 -3.821906 -1.1824273
-1.371134 -0.98276097 -0.16535592 -0.7275035 0.15077843 0.09669386 0.2065569 -0.010043815
-0.61847234 -2.7799323 1.2056571 0.9786608 1.0592074 1.4318987 1.2820321 0.56192976
1.2590084 0.26368064 0.8847188 0.11673714 1.032779 -0.5941628 2.2802837 0.60228825
0.6680993 0.90473026 0.6529917 -0.18751693 0.46340343 -0.08716333 1.1809618 -0.14972317
0.81912184 0.37800696 -1.7941109 -3.470072 -1.4939067 0.89349145 -0.7570233 -0.3762714
0.065921895 0.9710054 0.6489828 0.49484164 -0.3888469 1.2924706 1.7212685 -4.034072
-0.5053862 -0.92260194 -0.5628171 0.8648471 0.06372826 -0.44497168 -0.14094844 -1.1660342
-0.08274217 -0.31840634 -0.028932204 -2.2789743 0.9589439 1.4605744 0.68356425 0.711055
1.2610346 -0.17798652 1.0580169 -0.28098214 1.0107322 -0.07364172 0.985873 -0.788585
1.3892999 0.7618245 0.79695046 0.7626659 1.768217 -0.14244096 1.1128608 0.07493426
0.6918955 -0.28339207 2.4295697 -2.0710301 -1.5415 -3.6345103 -2.5244849 1.0321642
-0.5288429 -0.24387287 0.29257348 0.6510106 0.63762784 0.56684965 -0.16098095 1.397387
1.6242312 -3.1369243 -0.3262901 -1.0162158 -0.39790878 0.58362937 -0.0078039467 -0.23389202
-0.10248113 -1.2757041 0.17374532 0.015662618 -0.115284406 -2.47465 -4.350711 -3.4248564
1.7500584 -0.5059525 -0.4290794 0.30925456 0.44251513 0.40652657 0.38703233 -0.29007384
1.435094 1.6675478 -2.98491 -0.3982979 -1.5242468 -1.881573 1.0150712 0.08399789
-1.1360555 0.012365818 -1.3053344 0.93636096 -0.08731059 0.09639332 -2.1372695 -3.479728
-2.175898 1.5660119 -0.007912774 -0.24443899 0.6860406 0.64565206 0.9571294 0.23402447
-0.08411919 1.5252979 1.5922327 -1.49351 0.09874274 -0.9281099 -0.4724842 0.44773093
-0.08374684 -0.6715809 0.07832636 -0.7146333 0.70406616 -0.29553282 0.07130832 -2.48156
0.9374595 0.8590051 1.1165583 1.3069042 1.3253547 0.7396219 1.1647377 0.39969397
1.0446135 0.095596835 0.7874264 -0.009580711 2.2078114 0.49205673 0.9067351 0.88248473
0.9448508 -0.0626986 0.27216575 -0.09207747 0.98156667 -0.16412114 1.4057196 0.41412532
-1.7565424 -2.4475436 0.1285508 1.564266 -0.042411834 0.2928115 0.74869365 0.8976434
1.0045196 0.18122652 -0.36622176 1.5089704 1.5154124 -1.3428144 -1.2280301 -1.3476555
-0.39126006 -0.14840512 -0.16955893 -0.45329553 -0.06884165 -0.90202594 1.0549384 0.059698515
-0.17886633 -3.2629137 1.1724119 0.7894303 1.3126402 1.0954502 1.2012023 0.20722793

bias f4 [30]
00000000: ddee 9040 9377 d540 c9c7 8040 18be 8f40
00000010: 7b86 3f40 265b 9140 42c1 9040 58bd 8e40
00000020: e47c 8540 533d ca40 1f86 6d40 1b7a f140
00000030: 42ea 2840 60c2 6340 e8e3 4b40 9e72 8240
00000040: 7aba f740 5da2 8640 1f89 6f40 14cf 1140
00000050: 8d91 e140 ef2d 7640 1922 5240 41fa 6c40
00000060: cfdb 7b40 9557 9b40 022d a740 1f6f a440
00000070: 9dc9 6c40 f09f a140
4.529158 6.6708465 4.024388 4.491955 2.992583 4.5423765 4.523591 4.4606133
4.1714954 6.319986 3.711311 7.5461555 2.639298 3.5587387 3.1857853 4.0764914
7.7415133 4.2073197 3.7427442 2.278264 7.0490174 3.8465536 3.2833312 3.7027743
3.935291 4.854441 5.224244 5.1385646 3.6998055 5.0507736

weight f4 [20, 30]
00000000: e27e 353f daa7 a03f 7dc7 883f 503f 0a3f
00000010: e8e0 9b3f 30ee 133f 60be 213f 8869 323f
00000020: 3776 a93f fb07 993f b360 7b3f ee22 6f40
00000030: 9f3e 8e3f a8fc 933f c38a 533f b0ea a33f
00000040: 9478 0a40 ef3c 823f 5807 963f 05e4 903f
00000050: 7456 3440 b707 973f 5982 8b3f 1459 973f
00000060: 0d7c 8c3f 4a73 903f 0a31 323f b894 483f
00000070: 1665 a53f 8185 603f 4114 173f af69 c93f
00000080: a880 633f 87ac 563f c875 a93f 3b99 423f
00000090: 4e20 4a3f efe6 1c3f 308a 913f 9b50 923f
000000a0: 1235 8e3f 4a6b 5b40 3a74 8f3f 51cc 8d3f
000000b0: 5f96 9d3f dd43 853f 3614 1540 9330 7e3f
000000c0: f611 a13f 7d47 9c3f a2f1 2240 af07 653f
000000d0: e59c a13f e89a 573f f9a5 a73f 3add 8b3f
000000e0: 1cec 823f 5143 513f bd22 753f f247 5e3f
000000f0: 61af 3a3f a271 b03f 7f73 b03f c138 493f
00000100: e72f 913f 4e08 253f 5ee6 393f 0e4c 183f
00000110: ab7a 9f3f 71d9 903f 4e51 853f d3f5 6140
00000120: 89ba a93f 2f9f 963f 0595 863f 172d 933f
00000130: 0817 1d40 ec95 a73f 4324 9f3f 207f 8a3f
00000140: 7f27 2b40 0ac5 a83f b9f7 8c3f fc59 853f
00000150: 3544 ac3f 1b05 aa3f 58cd 833f 52db 503f
00000160: e421 983f 8b5f 303f f8b2 2a3f d3f7 963f
00000170: a06b a23f b9fa 2e3f da47 803f 5ded 543f
00000180: 361b 543f 6640 123f 9954 a43f 44a5 a43f
00000190: e537 893f 451b 6440 6616 9a3f 2dc3 7d3f
000001a0: 713d 893f 2887 793f 2aab 1140 7881 a93f
000001b0: cbf7 813f ad43 9b3f c2c3 3640 6e2b 8e3f
000001c0: 86de 8f3f 44eb 883f 2487 803f 4c6d 793f
000001d0: 3baf 303f 76af 6a3f 15e6 6c3f 28ec 663f
000001e0: d46f 423f 4c19 c93f e01b 993f 76e6 633f
000001f0: 986b 9d3f 934f 483f 1603 723f c9bc 2e3f
00000200: 1976 a33f 5597 973f cdd2 8e3f 20c8 6540
00000210: 6b27 933f a369 9c3f 8146 9d3f f15b 853f
00000220: 5598 1540 8196 8c3f 900b 9b3f e8bd ad3f
00000230: 3bcf 3440 62db 913f 068d 933f 0d02 8b3f
00000240: d726 ab3f ee79 843f a4df 5f3f aead 803f
00000250: 3d74 953f ab98 293f f125 0cbf 3154 43bf
00000260: baf5 03bf f0ac 16bf 7f01 e5be 5237 37bf
00000270: d4a0 20bf 9005 09bf b4b0 43bf 4026 0abf
00000280: 0303 1abf a8fc 29bf 232e f1be 7765 23bf
00000290: 258a e6be 0451 1cbf 3310 3bbf 8206 0dbf
000002a0: a7f1 e3be f0a1 32bf a071 1cbf 3568 04bf
000002b0: 0066 24bf a06d 40bf 4021 fcbe 6621 15bf
000002c0: d134 43bf 9297 04bf b072 2bbf 32aa 15bf
000002d0: 8783 1a3f 5bb7 9f3f 91a2 913f f2e2 343f
000002e0: f895 8d3f 4b8d 573f 1b04 2c3f ee73 0d3f
000002f0: 7bc8 913f 6d1e 833f 4190 4f3f c30d 6240
00000300: aad9 933f 022a 5b3f 9bce 683f e4fe 863f
00000310: 0558 0140 3e9d 813f d490 7a3f 704e 393f
00000320: 04d6 3940 5ebb b03f 49ef 8e3f 844d 953f
00000330: 4174 a13f be31 913f 9597 3f3f e02a 793f
00000340: 657c 6e3f 50a9 523f 7e8f 03bf e28f f8be
00000350: 57bf 33bf 1da9 1abf 8068 d6be 8434 3fbf
00000360: fcb5 e0be 754a 0fbf 0ceb 1abf bcf5 2ebf
00000370: 0fff 05bf 6892 37bf 316c ecbe 9450 48bf
00000380: ba3a 0cbf 51e8 0abf 4933 1dbf 50b3 14bf
00000390: 1fc5 0abf 9064 14bf 5d96 27bf 68ea 22bf
000003a0: e533 3fbf 9b48 2fbf 6a55 30bf 3600 22bf
000003b0: a72f 18bf eef1 edbe 350d 48bf 7983 dfbe
000003c0: b0c9 163c a34b 3bbf 8f8f 07be 762f 1abf
000003d0: 85be 0ebf 5852 c83d 4a2e 1abe 8671 3cbf
000003e0: e918 e5be d02e debe 9541 1abf 0813 d6be
000003f0: a706 2cbf 1727 06bf 396d 39bf 4710 2cbf
0.7089673 1.2551224 1.0685879 0.5400286 1.2178011 0.5778532 0.63181114 0.6969228
1.3239201 1.195556 0.98194426 3.736507 1.111286 1.156148 0.8263361 1.2805996
2.1636095 1.0174845 1.1720991 1.1319586 2.8177767 1.1799229 1.0899154 1.182406
1.0975357 1.1285183 0.6960608 0.78351927 1.2921474 0.8770371 0.5901528 1.5735377
0.8886819 0.83857006 1.3239069 0.7601506 0.78955543 0.61289877 1.1370296 1.1430849
1.1109946 3.4284234 1.1207345 1.1077977 1.2311515 1.0411335 2.3293586 0.9929287
1.2583606 1.2209316 2.545998 0.8946485 1.2626005 0.84220743 1.3097526 1.0926888
1.0228305 0.8174334 0.9575613 0.8682853 0.72923857 1.3784678 1.3785247 0.78602225
1.1342744 0.64465797 0.7261714 0.5949105 1.245931 1.1316358 1.0415437 3.530629
1.3260051 1.1767329 1.0514227 1.1498135 2.4545307 1.3092628 1.2432941 1.0820045
2.6742857 1.3185132 1.1013099 1.0418086 1.3458315 1.3282808 1.0297041 0.81584656
1.1885343 0.68895787 0.66679335 1.179438 1.2689095 0.6835132 1.0021927 0.8317469
0.8285402 0.57129514 1.2838317 1.2862935 1.0720183 3.5641644 1.2038085 0.9912594
1.0721875 0.9747186 2.276072 1.3242636 1.0153745 1.2130028 2.855698 1.1107004
1.1239784 1.0696797 1.0041242 0.974324 0.6901738 0.9167398 0.9253858 0.90204096
0.75951886 1.5710845 1.1961632 0.8902353 1.229846 0.7824642 0.9453596 0.68256813
1.2770416 1.1843058 1.1158081 3.5903397 1.1496404 1.2219738 1.2287141 1.0418683
2.3374226 1.098343 1.2112904 1.357358 2.8251483 1.1395075 1.1527412 1.0860001
1.3371228 1.034971 0.87450624 1.0053003 1.1676098 0.6624858 -0.54745394 -0.7630034
-0.51546824 -0.5885763 -0.44727704 -0.7156879 -0.62745404 -0.5352411 -0.764415 -0.53964615
-0.60160846 -0.6640115 -0.47105512 -0.638267 -0.4502727 -0.6106112 -0.73071593 -0.55088055
-0.44520304 -0.69778347 -0.6111088 -0.5172151 -0.6421814 -0.75167274 -0.49244118 -0.58254087
-0.76252466 -0.5179378 -0.66971874 -0.5846282 0.60356945 1.2477831 1.1377736 0.7065879
1.1061392 0.8419997 0.67193764 0.5525502 1.1389307 1.024366 0.8107949 3.53209
1.1550801 0.85610974 0.90940255 1.0546536 2.0209973 1.0126112 0.9787724 0.7238531
2.9036875 1.380718 1.1166774 1.1664281 1.2613603 1.1343305 0.7484067 0.9733105
0.9315856 0.822896 -0.51390827 -0.48547274 -0.70213836 -0.60414296 -0.41876602 -0.7468951
-0.43888843 -0.5597299 -0.60514903 -0.6834371 -0.52342314 -0.71707773 -0.46176293 -0.7824795
-0.5477711 -0.54260737 -0.6140638 -0.5808611 -0.5420703 -0.57965946 -0.6546381 -0.63638926
-0.7468856 -0.6847016 -0.6888033 -0.6328157 -0.5944771 -0.4647364 -0.7814515 -0.43654993
0.0092033595 -0.7316229 -0.13238357 -0.6022867 -0.5575946 0.09781331 -0.1505672 -0.73610723
-0.44745567 -0.4339509 -0.6025632 -0.41811395 -0.6719765 -0.52403396 -0.72432286 -0.6721234

bias f4 [20]
00000000: d31a 8840 e60e 8840 4a59 9040 c80b 8940
00000010: 129f 9140 0ee0 d8be 7764 8940 55a5 dfbe
00000020: 3eb1 3bbf 410c 3ebf d2d6 8f40 27d7 8d40
00000030: c2ce 8f40 becf 03bf e39d 8940 3667 8a40
00000040: c513 b7bf 1a5d ebbe 2b4e 8640 ca15 25bf
4.2532744 4.2518187 4.5108995 4.282688 4.550668 -0.4235844 4.293514 -0.43680826
-0.73317325 -0.7423745 4.494973 4.4325137 4.493989 -0.51488864 4.3005233 4.325099
-1.4302908 -0.45969468 4.197042 -0.6448637

weight f4 [10, 20]
00000000: 040a 2f3e c0f0 e5bb 70ea 853d 70b7 493d
00000010: ca65 2bbf c590 cfbe 2460 cdbe 2217 05bf
00000020: fccb 70bd cd84 e6be 6f8a 30bf 2c5b 4abf
00000030: 04de d43d de20 f0be 279c 08bf ae21 c2be
00000040: a035 703d 6aa9 26bf beaa 50bf f48b f4be
00000050: b84c 973f 7735 9c3f ad27 b83f 1eb9 ac3f
00000060: e4db 993f 9582 d43e 4c8e 7d3f ae4b 093f
00000070: 760f 4d3f 74e3 c53e c301 b83f 49da af3f
00000080: 8e45 a03f ccb4 153f 881d b33f 9d58 b13f
00000090: 14d4 0e3f aab5 d03e 69a9 843f 506d d83e
000000a0: a0f0 2abf cded 37bf b7ec 23bf fe38 c5be
000000b0: 00ad 47bf ab54 06bf 94cd 36bf 3a91 0fbf
000000c0: 4b15 00bf 40f0 efbe 6232 d9be ce84 33bf
000000d0: 3616 23bf aeea 17bf 5a46 46bf 7874 4dbf
000000e0: 2c8c d0be 8234 c1be 62fd 3abf fb88 29bf
000000f0: 5a20 8e3f 63e1 743f f98b 9f3f e351 9d3f
00000100: 198c 923f e219 eb3e 1110 993f 8f9b 003f
00000110: 8007 a33b 8263 3d3f bcb9 9f3f 8d30 b43f
00000120: 9e8f 8a3f 6604 3c3f 0242 8a3f 428b 833f
00000130: b51b 94bf 5610 183f cba4 a93f ccea 0f3f
00000140: e238 813f 3165 853f 083a 853f 77e3 983f
00000150: 8dc7 8a3f 9000 21be 6459 993f 906b 5c3e
00000160: 6473 2c3e 00ed 223d 50c0 9f3f 8dd7 a53f
00000170: c9e4 8d3f 1f7e e2bd 776b 753f 01ed 983f
00000180: b38c 9bbf 7070 1a3d 53a9 843f c494 30bd
00000190: 9ea4 ac3f ad33 ac3f 2563 8b3f f917 b23f
000001a0: 2354 9e3f ec87 453f af77 b33f bcb9 063f
000001b0: f2b9 d53e 505b 123f 877c ac3f 8f6a aa3f
000001c0: 8c05 9f3f fd7e d13e a480 9b3f 053c af3f
000001d0: d582 063f d09b 423f f550 973f 6cab 133f
000001e0: ea8c 0fbf a562 61be 4656 e6be 2e57 09bf
000001f0: 1458 46bf d803 ab3d e487 c2be f85c 59be
00000200: 3861 783d b08a 3c3d 0c29 40bf 9c46 11bf
00000210: cb4e fabe dff0 08be 9378 b9be 2179 20bf
00000220: 5852 213e 4213 5abe 92ba 8fbd 3b15 5ebe
00000230: 6035 8f3f 4f42 8d3f cc6e b43f 554c 633f
00000240: c3b9 9f3f b9f7 d23e a154 903f 4801 613d
00000250: 0254 c33e f916 49be 4af0 8d3f 2f60 b63f
00000260: c8cb 8d3f deb9 393f d9ef 7b3f cd4c 7d3f
00000270: 6568 1abf 201f 2ebc 53d2 803f 9028 9fbc
00000280: df34 a73f aa23 8f3f 6bb2 a13f bc7c 8a3f
00000290: fa55 9b3f 9280 323f 3c5a ab3f 6c79 fc3e
000002a0: 50f4 e83e 8e5b 443f 9c9d 8e3f ecbb 8c3f
000002b0: 3da6 b33f adea 443f d7c6 ac3f 4f26 a03f
000002c0: 075f 9a3e 4396 d33e e82f 6d3f 4757 383f
000002d0: f883 d8be 7233 b7be 6cac 08bf befa c4be
000002e0: ecee 35bf 9dfc 47be 4856 e1be 2051 933c
000002f0: 9c3e 843d bc37 863d 0b98 00bf 716d d8be
00000300: 4056 46bf 0097 da3a 9dc9 f5be 9e47 3abf
00000310: b01f 103d 2057 553e 52c7 24bf 1073 423d
0.17093664 -0.007017225 0.06538856 0.049247205 -0.6695219 -0.40540138 -0.40112412 -0.5198842
-0.058788285 -0.45023194 -0.6896123 -0.7904537 0.103939086 -0.46900076 -0.5336327 -0.3791632
0.05864489 -0.65102255 -0.8151053 -0.47763026 1.1820288 1.2203816 1.4387108 1.3493993
1.202023 0.41505876 0.9904525 0.53631103 0.80101717 0.38650095 1.4375538 1.373849
1.2521226 0.58479 1.3993387 1.3855168 0.55792356 0.407636 1.03642 0.422709
-0.66773415 -0.7184723 -0.64033073 -0.38520044 -0.7799835 -0.52472943 -0.7140744 -0.56080973
-0.5003249 -0.46862984 -0.42421252 -0.7012452 -0.63705766 -0.5934247 -0.774511 -0.8025584
-0.40731943 -0.37735373 -0.7304288 -0.6622464 1.1103623 0.9565641 1.2464591 1.2290615
1.1449004 0.45918185 1.1958028 0.50237364 0.0049752593 0.7397996 1.2478557 1.4077317
1.0825078 0.7344421 1.0801394 1.0276873 -1.1570956 0.59399927 1.3253416 0.56217647
1.0095484 1.0421506 1.0408335 1.1944417 1.0842148 -0.15722871 1.1980405 0.21525407
0.16840893 0.039776802 1.2480564 1.2956406 1.1085445 -0.11059212 0.95867103 1.1947328
-1.2152313 0.037704885 1.0364174 -0.043110624 1.3487737 1.345327 1.0889632 1.3913566
1.2369426 0.77160525 1.40209 0.5262716 0.41743428 0.5717058 1.3475503 1.3313769
1.2423568 0.40917197 1.2148633 1.3690192 0.52543384 0.76019 1.1821581 0.57683444
-0.5607439 -0.22010286 -0.44987696 -0.5364865 -0.77478147 0.083503425 -0.379943 -0.21226871
0.06063959 0.0460307 -0.7506263 -0.56748366 -0.4888824 -0.13373135 -0.36224803 -0.6268483
0.15754068 -0.21296409 -0.07018007 -0.21687786 1.1188164 1.1035861 1.4096313 0.8878835
1.2478565 0.41204622 1.1275827 0.054932863 0.3815003 -0.1963767 1.1088955 1.4248103
1.1077814 0.72549236 0.98412853 0.98945314 -0.60315543 -0.010627538 1.0064186 -0.019428521
1.306301 1.1182759 1.2632574 1.0819316 1.2135613 0.6972743 1.3386912 0.49311388
0.45498896 0.767022 1.1141849 1.0994849 1.4035107 0.76920587 1.3498181 1.2511691
0.30150625 0.41325578 0.92651224 0.72008175 -0.42288184 -0.35781437 -0.53388095 -0.3847255
-0.7106769 -0.19529958 -0.4401114 0.01798302 0.06457254 0.06553599 -0.50232 -0.42270997
-0.7747536 0.0016677082 -0.4800538 -0.7276553 0.03518647 0.20834017 -0.6436664 0.047473013

bias f4 [10]
00000000: 0579 39bf 5d30 8640 f941 0ebf 1acd 7840
00000010: eefd 6340 727c 8340 bc4f 15bf 9ba2 7b40
00000020: f910 8940 bb63 37bf
-0.72450286 4.1934037 -0.55569416 3.8875184 3.5623736 4.108941 -0.5832479 3.9317997
4.283322 -0.7163655

weight f4 [1, 10]
00000000: 2cde a63e 5aae b53f 97e3 ba3e e6f4 993f
00000010: cd9e a13f f6d5 ac3f 2664 fd3e 2d60 9b3f
00000020: aef9 9c3f 5ce7 f33e
0.3259138 1.4193833 0.36501762 1.2027862 1.2626587 1.3502796 0.4949047 1.2138726
1.2263696 0.4763745
